<?xml version="1.0"?>
<net name="RMNet_LReLU with SSD head for Action Detection and Action Recognition" version="11">
	<layers>
		<layer id="0" name="data" type="Parameter" version="opset1">
			<data shape="1,3,400,680" element_type="f32" />
			<rt_info>
				<attribute name="old_api_map_element_type" version="0" value="f16" />
			</rt_info>
			<output>
				<port id="0" precision="FP32" names="data">
					<dim>1</dim>
					<dim>3</dim>
					<dim>400</dim>
					<dim>680</dim>
					<rt_info>
						<attribute name="layout" version="0" layout="[N,C,H,W]" />
					</rt_info>
				</port>
			</output>
		</layer>
		<layer id="1" name="data_mul_44995_compressed" type="Const" version="opset1">
			<data element_type="f16" shape="1, 3, 1, 1" offset="0" size="6" />
			<output>
				<port id="0" precision="FP16">
					<dim>1</dim>
					<dim>3</dim>
					<dim>1</dim>
					<dim>1</dim>
				</port>
			</output>
		</layer>
		<layer id="2" name="data_mul_44995" type="Convert" version="opset1">
			<data destination_type="f32" />
			<rt_info>
				<attribute name="decompression" version="0" />
			</rt_info>
			<input>
				<port id="0" precision="FP16">
					<dim>1</dim>
					<dim>3</dim>
					<dim>1</dim>
					<dim>1</dim>
				</port>
			</input>
			<output>
				<port id="1" precision="FP32">
					<dim>1</dim>
					<dim>3</dim>
					<dim>1</dim>
					<dim>1</dim>
				</port>
			</output>
		</layer>
		<layer id="3" name="data/norm/bn/mean/Fused_Mul_" type="Multiply" version="opset1">
			<data auto_broadcast="numpy" />
			<input>
				<port id="0" precision="FP32">
					<dim>1</dim>
					<dim>3</dim>
					<dim>400</dim>
					<dim>680</dim>
				</port>
				<port id="1" precision="FP32">
					<dim>1</dim>
					<dim>3</dim>
					<dim>1</dim>
					<dim>1</dim>
				</port>
			</input>
			<output>
				<port id="2" precision="FP32">
					<dim>1</dim>
					<dim>3</dim>
					<dim>400</dim>
					<dim>680</dim>
				</port>
			</output>
		</layer>
		<layer id="4" name="data_add_44997_compressed" type="Const" version="opset1">
			<data element_type="f16" shape="1, 3, 1, 1" offset="6" size="6" />
			<output>
				<port id="0" precision="FP16">
					<dim>1</dim>
					<dim>3</dim>
					<dim>1</dim>
					<dim>1</dim>
				</port>
			</output>
		</layer>
		<layer id="5" name="data_add_44997" type="Convert" version="opset1">
			<data destination_type="f32" />
			<rt_info>
				<attribute name="decompression" version="0" />
			</rt_info>
			<input>
				<port id="0" precision="FP16">
					<dim>1</dim>
					<dim>3</dim>
					<dim>1</dim>
					<dim>1</dim>
				</port>
			</input>
			<output>
				<port id="1" precision="FP32">
					<dim>1</dim>
					<dim>3</dim>
					<dim>1</dim>
					<dim>1</dim>
				</port>
			</output>
		</layer>
		<layer id="6" name="data/norm/bn/variance/Fused_Add_" type="Add" version="opset1">
			<data auto_broadcast="numpy" />
			<input>
				<port id="0" precision="FP32">
					<dim>1</dim>
					<dim>3</dim>
					<dim>400</dim>
					<dim>680</dim>
				</port>
				<port id="1" precision="FP32">
					<dim>1</dim>
					<dim>3</dim>
					<dim>1</dim>
					<dim>1</dim>
				</port>
			</input>
			<output>
				<port id="2" precision="FP32" names="data/norm/bn">
					<dim>1</dim>
					<dim>3</dim>
					<dim>400</dim>
					<dim>680</dim>
				</port>
			</output>
		</layer>
		<layer id="7" name="init_block1/dim_inc/bn/mean/Fused_Mul__copy_compressed" type="Const" version="opset1">
			<data element_type="f16" shape="32, 3, 3, 3" offset="12" size="1728" />
			<output>
				<port id="0" precision="FP16">
					<dim>32</dim>
					<dim>3</dim>
					<dim>3</dim>
					<dim>3</dim>
				</port>
			</output>
		</layer>
		<layer id="8" name="init_block1/dim_inc/bn/mean/Fused_Mul__copy" type="Convert" version="opset1">
			<data destination_type="f32" />
			<rt_info>
				<attribute name="decompression" version="0" />
			</rt_info>
			<input>
				<port id="0" precision="FP16">
					<dim>32</dim>
					<dim>3</dim>
					<dim>3</dim>
					<dim>3</dim>
				</port>
			</input>
			<output>
				<port id="1" precision="FP32">
					<dim>32</dim>
					<dim>3</dim>
					<dim>3</dim>
					<dim>3</dim>
				</port>
			</output>
		</layer>
		<layer id="9" name="init_block1/dim_inc/conv" type="Convolution" version="opset1">
			<data strides="2, 2" dilations="1, 1" pads_begin="1, 1" pads_end="1, 1" auto_pad="explicit" />
			<input>
				<port id="0" precision="FP32">
					<dim>1</dim>
					<dim>3</dim>
					<dim>400</dim>
					<dim>680</dim>
				</port>
				<port id="1" precision="FP32">
					<dim>32</dim>
					<dim>3</dim>
					<dim>3</dim>
					<dim>3</dim>
				</port>
			</input>
			<output>
				<port id="2" precision="FP32">
					<dim>1</dim>
					<dim>32</dim>
					<dim>200</dim>
					<dim>340</dim>
				</port>
			</output>
		</layer>
		<layer id="10" name="data_add_4500045005_compressed" type="Const" version="opset1">
			<data element_type="f16" shape="1, 32, 1, 1" offset="1740" size="64" />
			<output>
				<port id="0" precision="FP16">
					<dim>1</dim>
					<dim>32</dim>
					<dim>1</dim>
					<dim>1</dim>
				</port>
			</output>
		</layer>
		<layer id="11" name="data_add_4500045005" type="Convert" version="opset1">
			<data destination_type="f32" />
			<rt_info>
				<attribute name="decompression" version="0" />
			</rt_info>
			<input>
				<port id="0" precision="FP16">
					<dim>1</dim>
					<dim>32</dim>
					<dim>1</dim>
					<dim>1</dim>
				</port>
			</input>
			<output>
				<port id="1" precision="FP32">
					<dim>1</dim>
					<dim>32</dim>
					<dim>1</dim>
					<dim>1</dim>
				</port>
			</output>
		</layer>
		<layer id="12" name="init_block1/dim_inc/bn/variance/Fused_Add_" type="Add" version="opset1">
			<data auto_broadcast="numpy" />
			<input>
				<port id="0" precision="FP32">
					<dim>1</dim>
					<dim>32</dim>
					<dim>200</dim>
					<dim>340</dim>
				</port>
				<port id="1" precision="FP32">
					<dim>1</dim>
					<dim>32</dim>
					<dim>1</dim>
					<dim>1</dim>
				</port>
			</input>
			<output>
				<port id="2" precision="FP32" names="init_block1/dim_inc/conv">
					<dim>1</dim>
					<dim>32</dim>
					<dim>200</dim>
					<dim>340</dim>
				</port>
			</output>
		</layer>
		<layer id="13" name="init_block1/dim_inc/fn" type="ReLU" version="opset1">
			<input>
				<port id="0" precision="FP32">
					<dim>1</dim>
					<dim>32</dim>
					<dim>200</dim>
					<dim>340</dim>
				</port>
			</input>
			<output>
				<port id="1" precision="FP32" names="init_block1/dim_inc/conv">
					<dim>1</dim>
					<dim>32</dim>
					<dim>200</dim>
					<dim>340</dim>
				</port>
			</output>
		</layer>
		<layer id="14" name="bottleneck1_1/dim_red/bn/mean/Fused_Mul__copy_compressed" type="Const" version="opset1">
			<data element_type="f16" shape="8, 32, 1, 1" offset="1804" size="512" />
			<output>
				<port id="0" precision="FP16">
					<dim>8</dim>
					<dim>32</dim>
					<dim>1</dim>
					<dim>1</dim>
				</port>
			</output>
		</layer>
		<layer id="15" name="bottleneck1_1/dim_red/bn/mean/Fused_Mul__copy" type="Convert" version="opset1">
			<data destination_type="f32" />
			<rt_info>
				<attribute name="decompression" version="0" />
			</rt_info>
			<input>
				<port id="0" precision="FP16">
					<dim>8</dim>
					<dim>32</dim>
					<dim>1</dim>
					<dim>1</dim>
				</port>
			</input>
			<output>
				<port id="1" precision="FP32">
					<dim>8</dim>
					<dim>32</dim>
					<dim>1</dim>
					<dim>1</dim>
				</port>
			</output>
		</layer>
		<layer id="16" name="bottleneck1_1/dim_red/conv" type="Convolution" version="opset1">
			<data strides="1, 1" dilations="1, 1" pads_begin="0, 0" pads_end="0, 0" auto_pad="explicit" />
			<input>
				<port id="0" precision="FP32">
					<dim>1</dim>
					<dim>32</dim>
					<dim>200</dim>
					<dim>340</dim>
				</port>
				<port id="1" precision="FP32">
					<dim>8</dim>
					<dim>32</dim>
					<dim>1</dim>
					<dim>1</dim>
				</port>
			</input>
			<output>
				<port id="2" precision="FP32">
					<dim>1</dim>
					<dim>8</dim>
					<dim>200</dim>
					<dim>340</dim>
				</port>
			</output>
		</layer>
		<layer id="17" name="data_add_4500845013_compressed" type="Const" version="opset1">
			<data element_type="f16" shape="1, 8, 1, 1" offset="2316" size="16" />
			<output>
				<port id="0" precision="FP16">
					<dim>1</dim>
					<dim>8</dim>
					<dim>1</dim>
					<dim>1</dim>
				</port>
			</output>
		</layer>
		<layer id="18" name="data_add_4500845013" type="Convert" version="opset1">
			<data destination_type="f32" />
			<rt_info>
				<attribute name="decompression" version="0" />
			</rt_info>
			<input>
				<port id="0" precision="FP16">
					<dim>1</dim>
					<dim>8</dim>
					<dim>1</dim>
					<dim>1</dim>
				</port>
			</input>
			<output>
				<port id="1" precision="FP32">
					<dim>1</dim>
					<dim>8</dim>
					<dim>1</dim>
					<dim>1</dim>
				</port>
			</output>
		</layer>
		<layer id="19" name="bottleneck1_1/dim_red/bn/variance/Fused_Add_" type="Add" version="opset1">
			<data auto_broadcast="numpy" />
			<input>
				<port id="0" precision="FP32">
					<dim>1</dim>
					<dim>8</dim>
					<dim>200</dim>
					<dim>340</dim>
				</port>
				<port id="1" precision="FP32">
					<dim>1</dim>
					<dim>8</dim>
					<dim>1</dim>
					<dim>1</dim>
				</port>
			</input>
			<output>
				<port id="2" precision="FP32" names="bottleneck1_1/dim_red/conv">
					<dim>1</dim>
					<dim>8</dim>
					<dim>200</dim>
					<dim>340</dim>
				</port>
			</output>
		</layer>
		<layer id="20" name="bottleneck1_1/dim_red/fn/weights5715874056_compressed" type="Const" version="opset1">
			<data element_type="f16" shape="1" offset="2332" size="2" />
			<output>
				<port id="0" precision="FP16">
					<dim>1</dim>
				</port>
			</output>
		</layer>
		<layer id="21" name="bottleneck1_1/dim_red/fn/weights5715874056" type="Convert" version="opset1">
			<data destination_type="f32" />
			<rt_info>
				<attribute name="decompression" version="0" />
			</rt_info>
			<input>
				<port id="0" precision="FP16">
					<dim>1</dim>
				</port>
			</input>
			<output>
				<port id="1" precision="FP32">
					<dim>1</dim>
				</port>
			</output>
		</layer>
		<layer id="22" name="bottleneck1_1/dim_red/fn" type="PReLU" version="opset1">
			<input>
				<port id="0" precision="FP32">
					<dim>1</dim>
					<dim>8</dim>
					<dim>200</dim>
					<dim>340</dim>
				</port>
				<port id="1" precision="FP32">
					<dim>1</dim>
				</port>
			</input>
			<output>
				<port id="2" precision="FP32" names="bottleneck1_1/dim_red/conv">
					<dim>1</dim>
					<dim>8</dim>
					<dim>200</dim>
					<dim>340</dim>
				</port>
			</output>
		</layer>
		<layer id="23" name="bottleneck1_1/inner/dw1/bn/mean/Fused_Mul__copy_compressed" type="Const" version="opset1">
			<data element_type="f16" shape="8, 1, 1, 3, 3" offset="2334" size="144" />
			<output>
				<port id="0" precision="FP16">
					<dim>8</dim>
					<dim>1</dim>
					<dim>1</dim>
					<dim>3</dim>
					<dim>3</dim>
				</port>
			</output>
		</layer>
		<layer id="24" name="bottleneck1_1/inner/dw1/bn/mean/Fused_Mul__copy" type="Convert" version="opset1">
			<data destination_type="f32" />
			<rt_info>
				<attribute name="decompression" version="0" />
			</rt_info>
			<input>
				<port id="0" precision="FP16">
					<dim>8</dim>
					<dim>1</dim>
					<dim>1</dim>
					<dim>3</dim>
					<dim>3</dim>
				</port>
			</input>
			<output>
				<port id="1" precision="FP32">
					<dim>8</dim>
					<dim>1</dim>
					<dim>1</dim>
					<dim>3</dim>
					<dim>3</dim>
				</port>
			</output>
		</layer>
		<layer id="25" name="bottleneck1_1/inner/dw1/conv" type="GroupConvolution" version="opset1">
			<data strides="1, 1" pads_begin="1, 1" pads_end="1, 1" dilations="1, 1" auto_pad="explicit" />
			<input>
				<port id="0" precision="FP32">
					<dim>1</dim>
					<dim>8</dim>
					<dim>200</dim>
					<dim>340</dim>
				</port>
				<port id="1" precision="FP32">
					<dim>8</dim>
					<dim>1</dim>
					<dim>1</dim>
					<dim>3</dim>
					<dim>3</dim>
				</port>
			</input>
			<output>
				<port id="2" precision="FP32">
					<dim>1</dim>
					<dim>8</dim>
					<dim>200</dim>
					<dim>340</dim>
				</port>
			</output>
		</layer>
		<layer id="26" name="data_add_4501645021_compressed" type="Const" version="opset1">
			<data element_type="f16" shape="1, 8, 1, 1" offset="2478" size="16" />
			<output>
				<port id="0" precision="FP16">
					<dim>1</dim>
					<dim>8</dim>
					<dim>1</dim>
					<dim>1</dim>
				</port>
			</output>
		</layer>
		<layer id="27" name="data_add_4501645021" type="Convert" version="opset1">
			<data destination_type="f32" />
			<rt_info>
				<attribute name="decompression" version="0" />
			</rt_info>
			<input>
				<port id="0" precision="FP16">
					<dim>1</dim>
					<dim>8</dim>
					<dim>1</dim>
					<dim>1</dim>
				</port>
			</input>
			<output>
				<port id="1" precision="FP32">
					<dim>1</dim>
					<dim>8</dim>
					<dim>1</dim>
					<dim>1</dim>
				</port>
			</output>
		</layer>
		<layer id="28" name="bottleneck1_1/inner/dw1/bn/variance/Fused_Add_" type="Add" version="opset1">
			<data auto_broadcast="numpy" />
			<input>
				<port id="0" precision="FP32">
					<dim>1</dim>
					<dim>8</dim>
					<dim>200</dim>
					<dim>340</dim>
				</port>
				<port id="1" precision="FP32">
					<dim>1</dim>
					<dim>8</dim>
					<dim>1</dim>
					<dim>1</dim>
				</port>
			</input>
			<output>
				<port id="2" precision="FP32" names="bottleneck1_1/inner/dw1/conv">
					<dim>1</dim>
					<dim>8</dim>
					<dim>200</dim>
					<dim>340</dim>
				</port>
			</output>
		</layer>
		<layer id="29" name="bottleneck1_1/inner/dw1/fn/weights5741073588_compressed" type="Const" version="opset1">
			<data element_type="f16" shape="1" offset="2332" size="2" />
			<output>
				<port id="0" precision="FP16">
					<dim>1</dim>
				</port>
			</output>
		</layer>
		<layer id="30" name="bottleneck1_1/inner/dw1/fn/weights5741073588" type="Convert" version="opset1">
			<data destination_type="f32" />
			<rt_info>
				<attribute name="decompression" version="0" />
			</rt_info>
			<input>
				<port id="0" precision="FP16">
					<dim>1</dim>
				</port>
			</input>
			<output>
				<port id="1" precision="FP32">
					<dim>1</dim>
				</port>
			</output>
		</layer>
		<layer id="31" name="bottleneck1_1/inner/dw1/fn" type="PReLU" version="opset1">
			<input>
				<port id="0" precision="FP32">
					<dim>1</dim>
					<dim>8</dim>
					<dim>200</dim>
					<dim>340</dim>
				</port>
				<port id="1" precision="FP32">
					<dim>1</dim>
				</port>
			</input>
			<output>
				<port id="2" precision="FP32" names="bottleneck1_1/inner/dw1/conv">
					<dim>1</dim>
					<dim>8</dim>
					<dim>200</dim>
					<dim>340</dim>
				</port>
			</output>
		</layer>
		<layer id="32" name="bottleneck1_1/dim_inc/bn/mean/Fused_Mul__copy_compressed" type="Const" version="opset1">
			<data element_type="f16" shape="32, 8, 1, 1" offset="2494" size="512" />
			<output>
				<port id="0" precision="FP16">
					<dim>32</dim>
					<dim>8</dim>
					<dim>1</dim>
					<dim>1</dim>
				</port>
			</output>
		</layer>
		<layer id="33" name="bottleneck1_1/dim_inc/bn/mean/Fused_Mul__copy" type="Convert" version="opset1">
			<data destination_type="f32" />
			<rt_info>
				<attribute name="decompression" version="0" />
			</rt_info>
			<input>
				<port id="0" precision="FP16">
					<dim>32</dim>
					<dim>8</dim>
					<dim>1</dim>
					<dim>1</dim>
				</port>
			</input>
			<output>
				<port id="1" precision="FP32">
					<dim>32</dim>
					<dim>8</dim>
					<dim>1</dim>
					<dim>1</dim>
				</port>
			</output>
		</layer>
		<layer id="34" name="bottleneck1_1/dim_inc/conv" type="Convolution" version="opset1">
			<data strides="1, 1" dilations="1, 1" pads_begin="0, 0" pads_end="0, 0" auto_pad="explicit" />
			<input>
				<port id="0" precision="FP32">
					<dim>1</dim>
					<dim>8</dim>
					<dim>200</dim>
					<dim>340</dim>
				</port>
				<port id="1" precision="FP32">
					<dim>32</dim>
					<dim>8</dim>
					<dim>1</dim>
					<dim>1</dim>
				</port>
			</input>
			<output>
				<port id="2" precision="FP32">
					<dim>1</dim>
					<dim>32</dim>
					<dim>200</dim>
					<dim>340</dim>
				</port>
			</output>
		</layer>
		<layer id="35" name="data_add_4502445029_compressed" type="Const" version="opset1">
			<data element_type="f16" shape="1, 32, 1, 1" offset="3006" size="64" />
			<output>
				<port id="0" precision="FP16">
					<dim>1</dim>
					<dim>32</dim>
					<dim>1</dim>
					<dim>1</dim>
				</port>
			</output>
		</layer>
		<layer id="36" name="data_add_4502445029" type="Convert" version="opset1">
			<data destination_type="f32" />
			<rt_info>
				<attribute name="decompression" version="0" />
			</rt_info>
			<input>
				<port id="0" precision="FP16">
					<dim>1</dim>
					<dim>32</dim>
					<dim>1</dim>
					<dim>1</dim>
				</port>
			</input>
			<output>
				<port id="1" precision="FP32">
					<dim>1</dim>
					<dim>32</dim>
					<dim>1</dim>
					<dim>1</dim>
				</port>
			</output>
		</layer>
		<layer id="37" name="bottleneck1_1/dim_inc/bn/variance/Fused_Add_" type="Add" version="opset1">
			<data auto_broadcast="numpy" />
			<input>
				<port id="0" precision="FP32">
					<dim>1</dim>
					<dim>32</dim>
					<dim>200</dim>
					<dim>340</dim>
				</port>
				<port id="1" precision="FP32">
					<dim>1</dim>
					<dim>32</dim>
					<dim>1</dim>
					<dim>1</dim>
				</port>
			</input>
			<output>
				<port id="2" precision="FP32" names="bottleneck1_1/dim_inc/conv,bottleneck1_1/dim_inc/dropout">
					<dim>1</dim>
					<dim>32</dim>
					<dim>200</dim>
					<dim>340</dim>
				</port>
			</output>
		</layer>
		<layer id="38" name="bottleneck1_1/add" type="Add" version="opset1">
			<data auto_broadcast="numpy" />
			<input>
				<port id="0" precision="FP32">
					<dim>1</dim>
					<dim>32</dim>
					<dim>200</dim>
					<dim>340</dim>
				</port>
				<port id="1" precision="FP32">
					<dim>1</dim>
					<dim>32</dim>
					<dim>200</dim>
					<dim>340</dim>
				</port>
			</input>
			<output>
				<port id="2" precision="FP32" names="bottleneck1_1/add">
					<dim>1</dim>
					<dim>32</dim>
					<dim>200</dim>
					<dim>340</dim>
				</port>
			</output>
		</layer>
		<layer id="39" name="bottleneck1_1/fn/weights5688275286_compressed" type="Const" version="opset1">
			<data element_type="f16" shape="1" offset="2332" size="2" />
			<output>
				<port id="0" precision="FP16">
					<dim>1</dim>
				</port>
			</output>
		</layer>
		<layer id="40" name="bottleneck1_1/fn/weights5688275286" type="Convert" version="opset1">
			<data destination_type="f32" />
			<rt_info>
				<attribute name="decompression" version="0" />
			</rt_info>
			<input>
				<port id="0" precision="FP16">
					<dim>1</dim>
				</port>
			</input>
			<output>
				<port id="1" precision="FP32">
					<dim>1</dim>
				</port>
			</output>
		</layer>
		<layer id="41" name="bottleneck1_1/fn" type="PReLU" version="opset1">
			<input>
				<port id="0" precision="FP32">
					<dim>1</dim>
					<dim>32</dim>
					<dim>200</dim>
					<dim>340</dim>
				</port>
				<port id="1" precision="FP32">
					<dim>1</dim>
				</port>
			</input>
			<output>
				<port id="2" precision="FP32" names="bottleneck1_1/add">
					<dim>1</dim>
					<dim>32</dim>
					<dim>200</dim>
					<dim>340</dim>
				</port>
			</output>
		</layer>
		<layer id="42" name="bottleneck1_2/dim_red/bn/mean/Fused_Mul__copy_compressed" type="Const" version="opset1">
			<data element_type="f16" shape="8, 32, 1, 1" offset="3070" size="512" />
			<output>
				<port id="0" precision="FP16">
					<dim>8</dim>
					<dim>32</dim>
					<dim>1</dim>
					<dim>1</dim>
				</port>
			</output>
		</layer>
		<layer id="43" name="bottleneck1_2/dim_red/bn/mean/Fused_Mul__copy" type="Convert" version="opset1">
			<data destination_type="f32" />
			<rt_info>
				<attribute name="decompression" version="0" />
			</rt_info>
			<input>
				<port id="0" precision="FP16">
					<dim>8</dim>
					<dim>32</dim>
					<dim>1</dim>
					<dim>1</dim>
				</port>
			</input>
			<output>
				<port id="1" precision="FP32">
					<dim>8</dim>
					<dim>32</dim>
					<dim>1</dim>
					<dim>1</dim>
				</port>
			</output>
		</layer>
		<layer id="44" name="bottleneck1_2/dim_red/conv" type="Convolution" version="opset1">
			<data strides="1, 1" dilations="1, 1" pads_begin="0, 0" pads_end="0, 0" auto_pad="explicit" />
			<input>
				<port id="0" precision="FP32">
					<dim>1</dim>
					<dim>32</dim>
					<dim>200</dim>
					<dim>340</dim>
				</port>
				<port id="1" precision="FP32">
					<dim>8</dim>
					<dim>32</dim>
					<dim>1</dim>
					<dim>1</dim>
				</port>
			</input>
			<output>
				<port id="2" precision="FP32">
					<dim>1</dim>
					<dim>8</dim>
					<dim>200</dim>
					<dim>340</dim>
				</port>
			</output>
		</layer>
		<layer id="45" name="data_add_4503245037_compressed" type="Const" version="opset1">
			<data element_type="f16" shape="1, 8, 1, 1" offset="3582" size="16" />
			<output>
				<port id="0" precision="FP16">
					<dim>1</dim>
					<dim>8</dim>
					<dim>1</dim>
					<dim>1</dim>
				</port>
			</output>
		</layer>
		<layer id="46" name="data_add_4503245037" type="Convert" version="opset1">
			<data destination_type="f32" />
			<rt_info>
				<attribute name="decompression" version="0" />
			</rt_info>
			<input>
				<port id="0" precision="FP16">
					<dim>1</dim>
					<dim>8</dim>
					<dim>1</dim>
					<dim>1</dim>
				</port>
			</input>
			<output>
				<port id="1" precision="FP32">
					<dim>1</dim>
					<dim>8</dim>
					<dim>1</dim>
					<dim>1</dim>
				</port>
			</output>
		</layer>
		<layer id="47" name="bottleneck1_2/dim_red/bn/variance/Fused_Add_" type="Add" version="opset1">
			<data auto_broadcast="numpy" />
			<input>
				<port id="0" precision="FP32">
					<dim>1</dim>
					<dim>8</dim>
					<dim>200</dim>
					<dim>340</dim>
				</port>
				<port id="1" precision="FP32">
					<dim>1</dim>
					<dim>8</dim>
					<dim>1</dim>
					<dim>1</dim>
				</port>
			</input>
			<output>
				<port id="2" precision="FP32" names="bottleneck1_2/dim_red/conv">
					<dim>1</dim>
					<dim>8</dim>
					<dim>200</dim>
					<dim>340</dim>
				</port>
			</output>
		</layer>
		<layer id="48" name="bottleneck1_2/dim_red/fn/weights5712675190_compressed" type="Const" version="opset1">
			<data element_type="f16" shape="1" offset="2332" size="2" />
			<output>
				<port id="0" precision="FP16">
					<dim>1</dim>
				</port>
			</output>
		</layer>
		<layer id="49" name="bottleneck1_2/dim_red/fn/weights5712675190" type="Convert" version="opset1">
			<data destination_type="f32" />
			<rt_info>
				<attribute name="decompression" version="0" />
			</rt_info>
			<input>
				<port id="0" precision="FP16">
					<dim>1</dim>
				</port>
			</input>
			<output>
				<port id="1" precision="FP32">
					<dim>1</dim>
				</port>
			</output>
		</layer>
		<layer id="50" name="bottleneck1_2/dim_red/fn" type="PReLU" version="opset1">
			<input>
				<port id="0" precision="FP32">
					<dim>1</dim>
					<dim>8</dim>
					<dim>200</dim>
					<dim>340</dim>
				</port>
				<port id="1" precision="FP32">
					<dim>1</dim>
				</port>
			</input>
			<output>
				<port id="2" precision="FP32" names="bottleneck1_2/dim_red/conv">
					<dim>1</dim>
					<dim>8</dim>
					<dim>200</dim>
					<dim>340</dim>
				</port>
			</output>
		</layer>
		<layer id="51" name="bottleneck1_2/inner/dw1/bn/mean/Fused_Mul__copy_compressed" type="Const" version="opset1">
			<data element_type="f16" shape="8, 1, 1, 3, 3" offset="3598" size="144" />
			<output>
				<port id="0" precision="FP16">
					<dim>8</dim>
					<dim>1</dim>
					<dim>1</dim>
					<dim>3</dim>
					<dim>3</dim>
				</port>
			</output>
		</layer>
		<layer id="52" name="bottleneck1_2/inner/dw1/bn/mean/Fused_Mul__copy" type="Convert" version="opset1">
			<data destination_type="f32" />
			<rt_info>
				<attribute name="decompression" version="0" />
			</rt_info>
			<input>
				<port id="0" precision="FP16">
					<dim>8</dim>
					<dim>1</dim>
					<dim>1</dim>
					<dim>3</dim>
					<dim>3</dim>
				</port>
			</input>
			<output>
				<port id="1" precision="FP32">
					<dim>8</dim>
					<dim>1</dim>
					<dim>1</dim>
					<dim>3</dim>
					<dim>3</dim>
				</port>
			</output>
		</layer>
		<layer id="53" name="bottleneck1_2/inner/dw1/conv" type="GroupConvolution" version="opset1">
			<data strides="1, 1" pads_begin="1, 1" pads_end="1, 1" dilations="1, 1" auto_pad="explicit" />
			<input>
				<port id="0" precision="FP32">
					<dim>1</dim>
					<dim>8</dim>
					<dim>200</dim>
					<dim>340</dim>
				</port>
				<port id="1" precision="FP32">
					<dim>8</dim>
					<dim>1</dim>
					<dim>1</dim>
					<dim>3</dim>
					<dim>3</dim>
				</port>
			</input>
			<output>
				<port id="2" precision="FP32">
					<dim>1</dim>
					<dim>8</dim>
					<dim>200</dim>
					<dim>340</dim>
				</port>
			</output>
		</layer>
		<layer id="54" name="data_add_4504045045_compressed" type="Const" version="opset1">
			<data element_type="f16" shape="1, 8, 1, 1" offset="3742" size="16" />
			<output>
				<port id="0" precision="FP16">
					<dim>1</dim>
					<dim>8</dim>
					<dim>1</dim>
					<dim>1</dim>
				</port>
			</output>
		</layer>
		<layer id="55" name="data_add_4504045045" type="Convert" version="opset1">
			<data destination_type="f32" />
			<rt_info>
				<attribute name="decompression" version="0" />
			</rt_info>
			<input>
				<port id="0" precision="FP16">
					<dim>1</dim>
					<dim>8</dim>
					<dim>1</dim>
					<dim>1</dim>
				</port>
			</input>
			<output>
				<port id="1" precision="FP32">
					<dim>1</dim>
					<dim>8</dim>
					<dim>1</dim>
					<dim>1</dim>
				</port>
			</output>
		</layer>
		<layer id="56" name="bottleneck1_2/inner/dw1/bn/variance/Fused_Add_" type="Add" version="opset1">
			<data auto_broadcast="numpy" />
			<input>
				<port id="0" precision="FP32">
					<dim>1</dim>
					<dim>8</dim>
					<dim>200</dim>
					<dim>340</dim>
				</port>
				<port id="1" precision="FP32">
					<dim>1</dim>
					<dim>8</dim>
					<dim>1</dim>
					<dim>1</dim>
				</port>
			</input>
			<output>
				<port id="2" precision="FP32" names="bottleneck1_2/inner/dw1/conv">
					<dim>1</dim>
					<dim>8</dim>
					<dim>200</dim>
					<dim>340</dim>
				</port>
			</output>
		</layer>
		<layer id="57" name="bottleneck1_2/inner/dw1/fn/weights5703874968_compressed" type="Const" version="opset1">
			<data element_type="f16" shape="1" offset="2332" size="2" />
			<output>
				<port id="0" precision="FP16">
					<dim>1</dim>
				</port>
			</output>
		</layer>
		<layer id="58" name="bottleneck1_2/inner/dw1/fn/weights5703874968" type="Convert" version="opset1">
			<data destination_type="f32" />
			<rt_info>
				<attribute name="decompression" version="0" />
			</rt_info>
			<input>
				<port id="0" precision="FP16">
					<dim>1</dim>
				</port>
			</input>
			<output>
				<port id="1" precision="FP32">
					<dim>1</dim>
				</port>
			</output>
		</layer>
		<layer id="59" name="bottleneck1_2/inner/dw1/fn" type="PReLU" version="opset1">
			<input>
				<port id="0" precision="FP32">
					<dim>1</dim>
					<dim>8</dim>
					<dim>200</dim>
					<dim>340</dim>
				</port>
				<port id="1" precision="FP32">
					<dim>1</dim>
				</port>
			</input>
			<output>
				<port id="2" precision="FP32" names="bottleneck1_2/inner/dw1/conv">
					<dim>1</dim>
					<dim>8</dim>
					<dim>200</dim>
					<dim>340</dim>
				</port>
			</output>
		</layer>
		<layer id="60" name="bottleneck1_2/dim_inc/bn/mean/Fused_Mul__copy_compressed" type="Const" version="opset1">
			<data element_type="f16" shape="32, 8, 1, 1" offset="3758" size="512" />
			<output>
				<port id="0" precision="FP16">
					<dim>32</dim>
					<dim>8</dim>
					<dim>1</dim>
					<dim>1</dim>
				</port>
			</output>
		</layer>
		<layer id="61" name="bottleneck1_2/dim_inc/bn/mean/Fused_Mul__copy" type="Convert" version="opset1">
			<data destination_type="f32" />
			<rt_info>
				<attribute name="decompression" version="0" />
			</rt_info>
			<input>
				<port id="0" precision="FP16">
					<dim>32</dim>
					<dim>8</dim>
					<dim>1</dim>
					<dim>1</dim>
				</port>
			</input>
			<output>
				<port id="1" precision="FP32">
					<dim>32</dim>
					<dim>8</dim>
					<dim>1</dim>
					<dim>1</dim>
				</port>
			</output>
		</layer>
		<layer id="62" name="bottleneck1_2/dim_inc/conv" type="Convolution" version="opset1">
			<data strides="1, 1" dilations="1, 1" pads_begin="0, 0" pads_end="0, 0" auto_pad="explicit" />
			<input>
				<port id="0" precision="FP32">
					<dim>1</dim>
					<dim>8</dim>
					<dim>200</dim>
					<dim>340</dim>
				</port>
				<port id="1" precision="FP32">
					<dim>32</dim>
					<dim>8</dim>
					<dim>1</dim>
					<dim>1</dim>
				</port>
			</input>
			<output>
				<port id="2" precision="FP32">
					<dim>1</dim>
					<dim>32</dim>
					<dim>200</dim>
					<dim>340</dim>
				</port>
			</output>
		</layer>
		<layer id="63" name="data_add_4504845053_compressed" type="Const" version="opset1">
			<data element_type="f16" shape="1, 32, 1, 1" offset="4270" size="64" />
			<output>
				<port id="0" precision="FP16">
					<dim>1</dim>
					<dim>32</dim>
					<dim>1</dim>
					<dim>1</dim>
				</port>
			</output>
		</layer>
		<layer id="64" name="data_add_4504845053" type="Convert" version="opset1">
			<data destination_type="f32" />
			<rt_info>
				<attribute name="decompression" version="0" />
			</rt_info>
			<input>
				<port id="0" precision="FP16">
					<dim>1</dim>
					<dim>32</dim>
					<dim>1</dim>
					<dim>1</dim>
				</port>
			</input>
			<output>
				<port id="1" precision="FP32">
					<dim>1</dim>
					<dim>32</dim>
					<dim>1</dim>
					<dim>1</dim>
				</port>
			</output>
		</layer>
		<layer id="65" name="bottleneck1_2/dim_inc/bn/variance/Fused_Add_" type="Add" version="opset1">
			<data auto_broadcast="numpy" />
			<input>
				<port id="0" precision="FP32">
					<dim>1</dim>
					<dim>32</dim>
					<dim>200</dim>
					<dim>340</dim>
				</port>
				<port id="1" precision="FP32">
					<dim>1</dim>
					<dim>32</dim>
					<dim>1</dim>
					<dim>1</dim>
				</port>
			</input>
			<output>
				<port id="2" precision="FP32" names="bottleneck1_2/dim_inc/conv,bottleneck1_2/dim_inc/dropout">
					<dim>1</dim>
					<dim>32</dim>
					<dim>200</dim>
					<dim>340</dim>
				</port>
			</output>
		</layer>
		<layer id="66" name="bottleneck1_2/add" type="Add" version="opset1">
			<data auto_broadcast="numpy" />
			<input>
				<port id="0" precision="FP32">
					<dim>1</dim>
					<dim>32</dim>
					<dim>200</dim>
					<dim>340</dim>
				</port>
				<port id="1" precision="FP32">
					<dim>1</dim>
					<dim>32</dim>
					<dim>200</dim>
					<dim>340</dim>
				</port>
			</input>
			<output>
				<port id="2" precision="FP32" names="bottleneck1_2/add">
					<dim>1</dim>
					<dim>32</dim>
					<dim>200</dim>
					<dim>340</dim>
				</port>
			</output>
		</layer>
		<layer id="67" name="bottleneck1_2/fn/weights5729473828_compressed" type="Const" version="opset1">
			<data element_type="f16" shape="1" offset="2332" size="2" />
			<output>
				<port id="0" precision="FP16">
					<dim>1</dim>
				</port>
			</output>
		</layer>
		<layer id="68" name="bottleneck1_2/fn/weights5729473828" type="Convert" version="opset1">
			<data destination_type="f32" />
			<rt_info>
				<attribute name="decompression" version="0" />
			</rt_info>
			<input>
				<port id="0" precision="FP16">
					<dim>1</dim>
				</port>
			</input>
			<output>
				<port id="1" precision="FP32">
					<dim>1</dim>
				</port>
			</output>
		</layer>
		<layer id="69" name="bottleneck1_2/fn" type="PReLU" version="opset1">
			<input>
				<port id="0" precision="FP32">
					<dim>1</dim>
					<dim>32</dim>
					<dim>200</dim>
					<dim>340</dim>
				</port>
				<port id="1" precision="FP32">
					<dim>1</dim>
				</port>
			</input>
			<output>
				<port id="2" precision="FP32" names="bottleneck1_2/add">
					<dim>1</dim>
					<dim>32</dim>
					<dim>200</dim>
					<dim>340</dim>
				</port>
			</output>
		</layer>
		<layer id="70" name="bottleneck1_3/dim_red/bn/mean/Fused_Mul__copy_compressed" type="Const" version="opset1">
			<data element_type="f16" shape="8, 32, 1, 1" offset="4334" size="512" />
			<output>
				<port id="0" precision="FP16">
					<dim>8</dim>
					<dim>32</dim>
					<dim>1</dim>
					<dim>1</dim>
				</port>
			</output>
		</layer>
		<layer id="71" name="bottleneck1_3/dim_red/bn/mean/Fused_Mul__copy" type="Convert" version="opset1">
			<data destination_type="f32" />
			<rt_info>
				<attribute name="decompression" version="0" />
			</rt_info>
			<input>
				<port id="0" precision="FP16">
					<dim>8</dim>
					<dim>32</dim>
					<dim>1</dim>
					<dim>1</dim>
				</port>
			</input>
			<output>
				<port id="1" precision="FP32">
					<dim>8</dim>
					<dim>32</dim>
					<dim>1</dim>
					<dim>1</dim>
				</port>
			</output>
		</layer>
		<layer id="72" name="bottleneck1_3/dim_red/conv" type="Convolution" version="opset1">
			<data strides="1, 1" dilations="1, 1" pads_begin="0, 0" pads_end="0, 0" auto_pad="explicit" />
			<input>
				<port id="0" precision="FP32">
					<dim>1</dim>
					<dim>32</dim>
					<dim>200</dim>
					<dim>340</dim>
				</port>
				<port id="1" precision="FP32">
					<dim>8</dim>
					<dim>32</dim>
					<dim>1</dim>
					<dim>1</dim>
				</port>
			</input>
			<output>
				<port id="2" precision="FP32">
					<dim>1</dim>
					<dim>8</dim>
					<dim>200</dim>
					<dim>340</dim>
				</port>
			</output>
		</layer>
		<layer id="73" name="data_add_4505645061_compressed" type="Const" version="opset1">
			<data element_type="f16" shape="1, 8, 1, 1" offset="4846" size="16" />
			<output>
				<port id="0" precision="FP16">
					<dim>1</dim>
					<dim>8</dim>
					<dim>1</dim>
					<dim>1</dim>
				</port>
			</output>
		</layer>
		<layer id="74" name="data_add_4505645061" type="Convert" version="opset1">
			<data destination_type="f32" />
			<rt_info>
				<attribute name="decompression" version="0" />
			</rt_info>
			<input>
				<port id="0" precision="FP16">
					<dim>1</dim>
					<dim>8</dim>
					<dim>1</dim>
					<dim>1</dim>
				</port>
			</input>
			<output>
				<port id="1" precision="FP32">
					<dim>1</dim>
					<dim>8</dim>
					<dim>1</dim>
					<dim>1</dim>
				</port>
			</output>
		</layer>
		<layer id="75" name="bottleneck1_3/dim_red/bn/variance/Fused_Add_" type="Add" version="opset1">
			<data auto_broadcast="numpy" />
			<input>
				<port id="0" precision="FP32">
					<dim>1</dim>
					<dim>8</dim>
					<dim>200</dim>
					<dim>340</dim>
				</port>
				<port id="1" precision="FP32">
					<dim>1</dim>
					<dim>8</dim>
					<dim>1</dim>
					<dim>1</dim>
				</port>
			</input>
			<output>
				<port id="2" precision="FP32" names="bottleneck1_3/dim_red/conv">
					<dim>1</dim>
					<dim>8</dim>
					<dim>200</dim>
					<dim>340</dim>
				</port>
			</output>
		</layer>
		<layer id="76" name="bottleneck1_3/dim_red/fn/weights5730274509_compressed" type="Const" version="opset1">
			<data element_type="f16" shape="1" offset="2332" size="2" />
			<output>
				<port id="0" precision="FP16">
					<dim>1</dim>
				</port>
			</output>
		</layer>
		<layer id="77" name="bottleneck1_3/dim_red/fn/weights5730274509" type="Convert" version="opset1">
			<data destination_type="f32" />
			<rt_info>
				<attribute name="decompression" version="0" />
			</rt_info>
			<input>
				<port id="0" precision="FP16">
					<dim>1</dim>
				</port>
			</input>
			<output>
				<port id="1" precision="FP32">
					<dim>1</dim>
				</port>
			</output>
		</layer>
		<layer id="78" name="bottleneck1_3/dim_red/fn" type="PReLU" version="opset1">
			<input>
				<port id="0" precision="FP32">
					<dim>1</dim>
					<dim>8</dim>
					<dim>200</dim>
					<dim>340</dim>
				</port>
				<port id="1" precision="FP32">
					<dim>1</dim>
				</port>
			</input>
			<output>
				<port id="2" precision="FP32" names="bottleneck1_3/dim_red/conv">
					<dim>1</dim>
					<dim>8</dim>
					<dim>200</dim>
					<dim>340</dim>
				</port>
			</output>
		</layer>
		<layer id="79" name="bottleneck1_3/inner/dw1/bn/mean/Fused_Mul__copy_compressed" type="Const" version="opset1">
			<data element_type="f16" shape="8, 1, 1, 3, 3" offset="4862" size="144" />
			<output>
				<port id="0" precision="FP16">
					<dim>8</dim>
					<dim>1</dim>
					<dim>1</dim>
					<dim>3</dim>
					<dim>3</dim>
				</port>
			</output>
		</layer>
		<layer id="80" name="bottleneck1_3/inner/dw1/bn/mean/Fused_Mul__copy" type="Convert" version="opset1">
			<data destination_type="f32" />
			<rt_info>
				<attribute name="decompression" version="0" />
			</rt_info>
			<input>
				<port id="0" precision="FP16">
					<dim>8</dim>
					<dim>1</dim>
					<dim>1</dim>
					<dim>3</dim>
					<dim>3</dim>
				</port>
			</input>
			<output>
				<port id="1" precision="FP32">
					<dim>8</dim>
					<dim>1</dim>
					<dim>1</dim>
					<dim>3</dim>
					<dim>3</dim>
				</port>
			</output>
		</layer>
		<layer id="81" name="bottleneck1_3/inner/dw1/conv" type="GroupConvolution" version="opset1">
			<data strides="1, 1" pads_begin="1, 1" pads_end="1, 1" dilations="1, 1" auto_pad="explicit" />
			<input>
				<port id="0" precision="FP32">
					<dim>1</dim>
					<dim>8</dim>
					<dim>200</dim>
					<dim>340</dim>
				</port>
				<port id="1" precision="FP32">
					<dim>8</dim>
					<dim>1</dim>
					<dim>1</dim>
					<dim>3</dim>
					<dim>3</dim>
				</port>
			</input>
			<output>
				<port id="2" precision="FP32">
					<dim>1</dim>
					<dim>8</dim>
					<dim>200</dim>
					<dim>340</dim>
				</port>
			</output>
		</layer>
		<layer id="82" name="data_add_4506445069_compressed" type="Const" version="opset1">
			<data element_type="f16" shape="1, 8, 1, 1" offset="5006" size="16" />
			<output>
				<port id="0" precision="FP16">
					<dim>1</dim>
					<dim>8</dim>
					<dim>1</dim>
					<dim>1</dim>
				</port>
			</output>
		</layer>
		<layer id="83" name="data_add_4506445069" type="Convert" version="opset1">
			<data destination_type="f32" />
			<rt_info>
				<attribute name="decompression" version="0" />
			</rt_info>
			<input>
				<port id="0" precision="FP16">
					<dim>1</dim>
					<dim>8</dim>
					<dim>1</dim>
					<dim>1</dim>
				</port>
			</input>
			<output>
				<port id="1" precision="FP32">
					<dim>1</dim>
					<dim>8</dim>
					<dim>1</dim>
					<dim>1</dim>
				</port>
			</output>
		</layer>
		<layer id="84" name="bottleneck1_3/inner/dw1/bn/variance/Fused_Add_" type="Add" version="opset1">
			<data auto_broadcast="numpy" />
			<input>
				<port id="0" precision="FP32">
					<dim>1</dim>
					<dim>8</dim>
					<dim>200</dim>
					<dim>340</dim>
				</port>
				<port id="1" precision="FP32">
					<dim>1</dim>
					<dim>8</dim>
					<dim>1</dim>
					<dim>1</dim>
				</port>
			</input>
			<output>
				<port id="2" precision="FP32" names="bottleneck1_3/inner/dw1/conv">
					<dim>1</dim>
					<dim>8</dim>
					<dim>200</dim>
					<dim>340</dim>
				</port>
			</output>
		</layer>
		<layer id="85" name="bottleneck1_3/inner/dw1/fn/weights5716674962_compressed" type="Const" version="opset1">
			<data element_type="f16" shape="1" offset="2332" size="2" />
			<output>
				<port id="0" precision="FP16">
					<dim>1</dim>
				</port>
			</output>
		</layer>
		<layer id="86" name="bottleneck1_3/inner/dw1/fn/weights5716674962" type="Convert" version="opset1">
			<data destination_type="f32" />
			<rt_info>
				<attribute name="decompression" version="0" />
			</rt_info>
			<input>
				<port id="0" precision="FP16">
					<dim>1</dim>
				</port>
			</input>
			<output>
				<port id="1" precision="FP32">
					<dim>1</dim>
				</port>
			</output>
		</layer>
		<layer id="87" name="bottleneck1_3/inner/dw1/fn" type="PReLU" version="opset1">
			<input>
				<port id="0" precision="FP32">
					<dim>1</dim>
					<dim>8</dim>
					<dim>200</dim>
					<dim>340</dim>
				</port>
				<port id="1" precision="FP32">
					<dim>1</dim>
				</port>
			</input>
			<output>
				<port id="2" precision="FP32" names="bottleneck1_3/inner/dw1/conv">
					<dim>1</dim>
					<dim>8</dim>
					<dim>200</dim>
					<dim>340</dim>
				</port>
			</output>
		</layer>
		<layer id="88" name="bottleneck1_3/dim_inc/bn/mean/Fused_Mul__copy_compressed" type="Const" version="opset1">
			<data element_type="f16" shape="32, 8, 1, 1" offset="5022" size="512" />
			<output>
				<port id="0" precision="FP16">
					<dim>32</dim>
					<dim>8</dim>
					<dim>1</dim>
					<dim>1</dim>
				</port>
			</output>
		</layer>
		<layer id="89" name="bottleneck1_3/dim_inc/bn/mean/Fused_Mul__copy" type="Convert" version="opset1">
			<data destination_type="f32" />
			<rt_info>
				<attribute name="decompression" version="0" />
			</rt_info>
			<input>
				<port id="0" precision="FP16">
					<dim>32</dim>
					<dim>8</dim>
					<dim>1</dim>
					<dim>1</dim>
				</port>
			</input>
			<output>
				<port id="1" precision="FP32">
					<dim>32</dim>
					<dim>8</dim>
					<dim>1</dim>
					<dim>1</dim>
				</port>
			</output>
		</layer>
		<layer id="90" name="bottleneck1_3/dim_inc/conv" type="Convolution" version="opset1">
			<data strides="1, 1" dilations="1, 1" pads_begin="0, 0" pads_end="0, 0" auto_pad="explicit" />
			<input>
				<port id="0" precision="FP32">
					<dim>1</dim>
					<dim>8</dim>
					<dim>200</dim>
					<dim>340</dim>
				</port>
				<port id="1" precision="FP32">
					<dim>32</dim>
					<dim>8</dim>
					<dim>1</dim>
					<dim>1</dim>
				</port>
			</input>
			<output>
				<port id="2" precision="FP32">
					<dim>1</dim>
					<dim>32</dim>
					<dim>200</dim>
					<dim>340</dim>
				</port>
			</output>
		</layer>
		<layer id="91" name="data_add_4507245077_compressed" type="Const" version="opset1">
			<data element_type="f16" shape="1, 32, 1, 1" offset="5534" size="64" />
			<output>
				<port id="0" precision="FP16">
					<dim>1</dim>
					<dim>32</dim>
					<dim>1</dim>
					<dim>1</dim>
				</port>
			</output>
		</layer>
		<layer id="92" name="data_add_4507245077" type="Convert" version="opset1">
			<data destination_type="f32" />
			<rt_info>
				<attribute name="decompression" version="0" />
			</rt_info>
			<input>
				<port id="0" precision="FP16">
					<dim>1</dim>
					<dim>32</dim>
					<dim>1</dim>
					<dim>1</dim>
				</port>
			</input>
			<output>
				<port id="1" precision="FP32">
					<dim>1</dim>
					<dim>32</dim>
					<dim>1</dim>
					<dim>1</dim>
				</port>
			</output>
		</layer>
		<layer id="93" name="bottleneck1_3/dim_inc/bn/variance/Fused_Add_" type="Add" version="opset1">
			<data auto_broadcast="numpy" />
			<input>
				<port id="0" precision="FP32">
					<dim>1</dim>
					<dim>32</dim>
					<dim>200</dim>
					<dim>340</dim>
				</port>
				<port id="1" precision="FP32">
					<dim>1</dim>
					<dim>32</dim>
					<dim>1</dim>
					<dim>1</dim>
				</port>
			</input>
			<output>
				<port id="2" precision="FP32" names="bottleneck1_3/dim_inc/conv,bottleneck1_3/dim_inc/dropout">
					<dim>1</dim>
					<dim>32</dim>
					<dim>200</dim>
					<dim>340</dim>
				</port>
			</output>
		</layer>
		<layer id="94" name="bottleneck1_3/add" type="Add" version="opset1">
			<data auto_broadcast="numpy" />
			<input>
				<port id="0" precision="FP32">
					<dim>1</dim>
					<dim>32</dim>
					<dim>200</dim>
					<dim>340</dim>
				</port>
				<port id="1" precision="FP32">
					<dim>1</dim>
					<dim>32</dim>
					<dim>200</dim>
					<dim>340</dim>
				</port>
			</input>
			<output>
				<port id="2" precision="FP32" names="bottleneck1_3/add">
					<dim>1</dim>
					<dim>32</dim>
					<dim>200</dim>
					<dim>340</dim>
				</port>
			</output>
		</layer>
		<layer id="95" name="bottleneck1_3/fn/weights5722673570_compressed" type="Const" version="opset1">
			<data element_type="f16" shape="1" offset="2332" size="2" />
			<output>
				<port id="0" precision="FP16">
					<dim>1</dim>
				</port>
			</output>
		</layer>
		<layer id="96" name="bottleneck1_3/fn/weights5722673570" type="Convert" version="opset1">
			<data destination_type="f32" />
			<rt_info>
				<attribute name="decompression" version="0" />
			</rt_info>
			<input>
				<port id="0" precision="FP16">
					<dim>1</dim>
				</port>
			</input>
			<output>
				<port id="1" precision="FP32">
					<dim>1</dim>
				</port>
			</output>
		</layer>
		<layer id="97" name="bottleneck1_3/fn" type="PReLU" version="opset1">
			<input>
				<port id="0" precision="FP32">
					<dim>1</dim>
					<dim>32</dim>
					<dim>200</dim>
					<dim>340</dim>
				</port>
				<port id="1" precision="FP32">
					<dim>1</dim>
				</port>
			</input>
			<output>
				<port id="2" precision="FP32" names="bottleneck1_3/add">
					<dim>1</dim>
					<dim>32</dim>
					<dim>200</dim>
					<dim>340</dim>
				</port>
			</output>
		</layer>
		<layer id="98" name="bottleneck1_4/dim_red/bn/mean/Fused_Mul__copy_compressed" type="Const" version="opset1">
			<data element_type="f16" shape="8, 32, 1, 1" offset="5598" size="512" />
			<output>
				<port id="0" precision="FP16">
					<dim>8</dim>
					<dim>32</dim>
					<dim>1</dim>
					<dim>1</dim>
				</port>
			</output>
		</layer>
		<layer id="99" name="bottleneck1_4/dim_red/bn/mean/Fused_Mul__copy" type="Convert" version="opset1">
			<data destination_type="f32" />
			<rt_info>
				<attribute name="decompression" version="0" />
			</rt_info>
			<input>
				<port id="0" precision="FP16">
					<dim>8</dim>
					<dim>32</dim>
					<dim>1</dim>
					<dim>1</dim>
				</port>
			</input>
			<output>
				<port id="1" precision="FP32">
					<dim>8</dim>
					<dim>32</dim>
					<dim>1</dim>
					<dim>1</dim>
				</port>
			</output>
		</layer>
		<layer id="100" name="bottleneck1_4/dim_red/conv" type="Convolution" version="opset1">
			<data strides="1, 1" dilations="1, 1" pads_begin="0, 0" pads_end="0, 0" auto_pad="explicit" />
			<input>
				<port id="0" precision="FP32">
					<dim>1</dim>
					<dim>32</dim>
					<dim>200</dim>
					<dim>340</dim>
				</port>
				<port id="1" precision="FP32">
					<dim>8</dim>
					<dim>32</dim>
					<dim>1</dim>
					<dim>1</dim>
				</port>
			</input>
			<output>
				<port id="2" precision="FP32">
					<dim>1</dim>
					<dim>8</dim>
					<dim>200</dim>
					<dim>340</dim>
				</port>
			</output>
		</layer>
		<layer id="101" name="data_add_4508045085_compressed" type="Const" version="opset1">
			<data element_type="f16" shape="1, 8, 1, 1" offset="6110" size="16" />
			<output>
				<port id="0" precision="FP16">
					<dim>1</dim>
					<dim>8</dim>
					<dim>1</dim>
					<dim>1</dim>
				</port>
			</output>
		</layer>
		<layer id="102" name="data_add_4508045085" type="Convert" version="opset1">
			<data destination_type="f32" />
			<rt_info>
				<attribute name="decompression" version="0" />
			</rt_info>
			<input>
				<port id="0" precision="FP16">
					<dim>1</dim>
					<dim>8</dim>
					<dim>1</dim>
					<dim>1</dim>
				</port>
			</input>
			<output>
				<port id="1" precision="FP32">
					<dim>1</dim>
					<dim>8</dim>
					<dim>1</dim>
					<dim>1</dim>
				</port>
			</output>
		</layer>
		<layer id="103" name="bottleneck1_4/dim_red/bn/variance/Fused_Add_" type="Add" version="opset1">
			<data auto_broadcast="numpy" />
			<input>
				<port id="0" precision="FP32">
					<dim>1</dim>
					<dim>8</dim>
					<dim>200</dim>
					<dim>340</dim>
				</port>
				<port id="1" precision="FP32">
					<dim>1</dim>
					<dim>8</dim>
					<dim>1</dim>
					<dim>1</dim>
				</port>
			</input>
			<output>
				<port id="2" precision="FP32" names="bottleneck1_4/dim_red/conv">
					<dim>1</dim>
					<dim>8</dim>
					<dim>200</dim>
					<dim>340</dim>
				</port>
			</output>
		</layer>
		<layer id="104" name="bottleneck1_4/dim_red/fn/weights5718273492_compressed" type="Const" version="opset1">
			<data element_type="f16" shape="1" offset="2332" size="2" />
			<output>
				<port id="0" precision="FP16">
					<dim>1</dim>
				</port>
			</output>
		</layer>
		<layer id="105" name="bottleneck1_4/dim_red/fn/weights5718273492" type="Convert" version="opset1">
			<data destination_type="f32" />
			<rt_info>
				<attribute name="decompression" version="0" />
			</rt_info>
			<input>
				<port id="0" precision="FP16">
					<dim>1</dim>
				</port>
			</input>
			<output>
				<port id="1" precision="FP32">
					<dim>1</dim>
				</port>
			</output>
		</layer>
		<layer id="106" name="bottleneck1_4/dim_red/fn" type="PReLU" version="opset1">
			<input>
				<port id="0" precision="FP32">
					<dim>1</dim>
					<dim>8</dim>
					<dim>200</dim>
					<dim>340</dim>
				</port>
				<port id="1" precision="FP32">
					<dim>1</dim>
				</port>
			</input>
			<output>
				<port id="2" precision="FP32" names="bottleneck1_4/dim_red/conv">
					<dim>1</dim>
					<dim>8</dim>
					<dim>200</dim>
					<dim>340</dim>
				</port>
			</output>
		</layer>
		<layer id="107" name="bottleneck1_4/inner/dw1/bn/mean/Fused_Mul__copy_compressed" type="Const" version="opset1">
			<data element_type="f16" shape="8, 1, 1, 3, 3" offset="6126" size="144" />
			<output>
				<port id="0" precision="FP16">
					<dim>8</dim>
					<dim>1</dim>
					<dim>1</dim>
					<dim>3</dim>
					<dim>3</dim>
				</port>
			</output>
		</layer>
		<layer id="108" name="bottleneck1_4/inner/dw1/bn/mean/Fused_Mul__copy" type="Convert" version="opset1">
			<data destination_type="f32" />
			<rt_info>
				<attribute name="decompression" version="0" />
			</rt_info>
			<input>
				<port id="0" precision="FP16">
					<dim>8</dim>
					<dim>1</dim>
					<dim>1</dim>
					<dim>3</dim>
					<dim>3</dim>
				</port>
			</input>
			<output>
				<port id="1" precision="FP32">
					<dim>8</dim>
					<dim>1</dim>
					<dim>1</dim>
					<dim>3</dim>
					<dim>3</dim>
				</port>
			</output>
		</layer>
		<layer id="109" name="bottleneck1_4/inner/dw1/conv" type="GroupConvolution" version="opset1">
			<data strides="1, 1" pads_begin="1, 1" pads_end="1, 1" dilations="1, 1" auto_pad="explicit" />
			<input>
				<port id="0" precision="FP32">
					<dim>1</dim>
					<dim>8</dim>
					<dim>200</dim>
					<dim>340</dim>
				</port>
				<port id="1" precision="FP32">
					<dim>8</dim>
					<dim>1</dim>
					<dim>1</dim>
					<dim>3</dim>
					<dim>3</dim>
				</port>
			</input>
			<output>
				<port id="2" precision="FP32">
					<dim>1</dim>
					<dim>8</dim>
					<dim>200</dim>
					<dim>340</dim>
				</port>
			</output>
		</layer>
		<layer id="110" name="data_add_4508845093_compressed" type="Const" version="opset1">
			<data element_type="f16" shape="1, 8, 1, 1" offset="6270" size="16" />
			<output>
				<port id="0" precision="FP16">
					<dim>1</dim>
					<dim>8</dim>
					<dim>1</dim>
					<dim>1</dim>
				</port>
			</output>
		</layer>
		<layer id="111" name="data_add_4508845093" type="Convert" version="opset1">
			<data destination_type="f32" />
			<rt_info>
				<attribute name="decompression" version="0" />
			</rt_info>
			<input>
				<port id="0" precision="FP16">
					<dim>1</dim>
					<dim>8</dim>
					<dim>1</dim>
					<dim>1</dim>
				</port>
			</input>
			<output>
				<port id="1" precision="FP32">
					<dim>1</dim>
					<dim>8</dim>
					<dim>1</dim>
					<dim>1</dim>
				</port>
			</output>
		</layer>
		<layer id="112" name="bottleneck1_4/inner/dw1/bn/variance/Fused_Add_" type="Add" version="opset1">
			<data auto_broadcast="numpy" />
			<input>
				<port id="0" precision="FP32">
					<dim>1</dim>
					<dim>8</dim>
					<dim>200</dim>
					<dim>340</dim>
				</port>
				<port id="1" precision="FP32">
					<dim>1</dim>
					<dim>8</dim>
					<dim>1</dim>
					<dim>1</dim>
				</port>
			</input>
			<output>
				<port id="2" precision="FP32" names="bottleneck1_4/inner/dw1/conv">
					<dim>1</dim>
					<dim>8</dim>
					<dim>200</dim>
					<dim>340</dim>
				</port>
			</output>
		</layer>
		<layer id="113" name="bottleneck1_4/inner/dw1/fn/weights5751473999_compressed" type="Const" version="opset1">
			<data element_type="f16" shape="1" offset="2332" size="2" />
			<output>
				<port id="0" precision="FP16">
					<dim>1</dim>
				</port>
			</output>
		</layer>
		<layer id="114" name="bottleneck1_4/inner/dw1/fn/weights5751473999" type="Convert" version="opset1">
			<data destination_type="f32" />
			<rt_info>
				<attribute name="decompression" version="0" />
			</rt_info>
			<input>
				<port id="0" precision="FP16">
					<dim>1</dim>
				</port>
			</input>
			<output>
				<port id="1" precision="FP32">
					<dim>1</dim>
				</port>
			</output>
		</layer>
		<layer id="115" name="bottleneck1_4/inner/dw1/fn" type="PReLU" version="opset1">
			<input>
				<port id="0" precision="FP32">
					<dim>1</dim>
					<dim>8</dim>
					<dim>200</dim>
					<dim>340</dim>
				</port>
				<port id="1" precision="FP32">
					<dim>1</dim>
				</port>
			</input>
			<output>
				<port id="2" precision="FP32" names="bottleneck1_4/inner/dw1/conv">
					<dim>1</dim>
					<dim>8</dim>
					<dim>200</dim>
					<dim>340</dim>
				</port>
			</output>
		</layer>
		<layer id="116" name="bottleneck1_4/dim_inc/bn/mean/Fused_Mul__copy_compressed" type="Const" version="opset1">
			<data element_type="f16" shape="32, 8, 1, 1" offset="6286" size="512" />
			<output>
				<port id="0" precision="FP16">
					<dim>32</dim>
					<dim>8</dim>
					<dim>1</dim>
					<dim>1</dim>
				</port>
			</output>
		</layer>
		<layer id="117" name="bottleneck1_4/dim_inc/bn/mean/Fused_Mul__copy" type="Convert" version="opset1">
			<data destination_type="f32" />
			<rt_info>
				<attribute name="decompression" version="0" />
			</rt_info>
			<input>
				<port id="0" precision="FP16">
					<dim>32</dim>
					<dim>8</dim>
					<dim>1</dim>
					<dim>1</dim>
				</port>
			</input>
			<output>
				<port id="1" precision="FP32">
					<dim>32</dim>
					<dim>8</dim>
					<dim>1</dim>
					<dim>1</dim>
				</port>
			</output>
		</layer>
		<layer id="118" name="bottleneck1_4/dim_inc/conv" type="Convolution" version="opset1">
			<data strides="1, 1" dilations="1, 1" pads_begin="0, 0" pads_end="0, 0" auto_pad="explicit" />
			<input>
				<port id="0" precision="FP32">
					<dim>1</dim>
					<dim>8</dim>
					<dim>200</dim>
					<dim>340</dim>
				</port>
				<port id="1" precision="FP32">
					<dim>32</dim>
					<dim>8</dim>
					<dim>1</dim>
					<dim>1</dim>
				</port>
			</input>
			<output>
				<port id="2" precision="FP32">
					<dim>1</dim>
					<dim>32</dim>
					<dim>200</dim>
					<dim>340</dim>
				</port>
			</output>
		</layer>
		<layer id="119" name="data_add_4509645101_compressed" type="Const" version="opset1">
			<data element_type="f16" shape="1, 32, 1, 1" offset="6798" size="64" />
			<output>
				<port id="0" precision="FP16">
					<dim>1</dim>
					<dim>32</dim>
					<dim>1</dim>
					<dim>1</dim>
				</port>
			</output>
		</layer>
		<layer id="120" name="data_add_4509645101" type="Convert" version="opset1">
			<data destination_type="f32" />
			<rt_info>
				<attribute name="decompression" version="0" />
			</rt_info>
			<input>
				<port id="0" precision="FP16">
					<dim>1</dim>
					<dim>32</dim>
					<dim>1</dim>
					<dim>1</dim>
				</port>
			</input>
			<output>
				<port id="1" precision="FP32">
					<dim>1</dim>
					<dim>32</dim>
					<dim>1</dim>
					<dim>1</dim>
				</port>
			</output>
		</layer>
		<layer id="121" name="bottleneck1_4/dim_inc/bn/variance/Fused_Add_" type="Add" version="opset1">
			<data auto_broadcast="numpy" />
			<input>
				<port id="0" precision="FP32">
					<dim>1</dim>
					<dim>32</dim>
					<dim>200</dim>
					<dim>340</dim>
				</port>
				<port id="1" precision="FP32">
					<dim>1</dim>
					<dim>32</dim>
					<dim>1</dim>
					<dim>1</dim>
				</port>
			</input>
			<output>
				<port id="2" precision="FP32" names="bottleneck1_4/dim_inc/conv,bottleneck1_4/dim_inc/dropout">
					<dim>1</dim>
					<dim>32</dim>
					<dim>200</dim>
					<dim>340</dim>
				</port>
			</output>
		</layer>
		<layer id="122" name="bottleneck1_4/add" type="Add" version="opset1">
			<data auto_broadcast="numpy" />
			<input>
				<port id="0" precision="FP32">
					<dim>1</dim>
					<dim>32</dim>
					<dim>200</dim>
					<dim>340</dim>
				</port>
				<port id="1" precision="FP32">
					<dim>1</dim>
					<dim>32</dim>
					<dim>200</dim>
					<dim>340</dim>
				</port>
			</input>
			<output>
				<port id="2" precision="FP32" names="bottleneck1_4/add">
					<dim>1</dim>
					<dim>32</dim>
					<dim>200</dim>
					<dim>340</dim>
				</port>
			</output>
		</layer>
		<layer id="123" name="bottleneck1_4/fn/weights5709474611_compressed" type="Const" version="opset1">
			<data element_type="f16" shape="1" offset="2332" size="2" />
			<output>
				<port id="0" precision="FP16">
					<dim>1</dim>
				</port>
			</output>
		</layer>
		<layer id="124" name="bottleneck1_4/fn/weights5709474611" type="Convert" version="opset1">
			<data destination_type="f32" />
			<rt_info>
				<attribute name="decompression" version="0" />
			</rt_info>
			<input>
				<port id="0" precision="FP16">
					<dim>1</dim>
				</port>
			</input>
			<output>
				<port id="1" precision="FP32">
					<dim>1</dim>
				</port>
			</output>
		</layer>
		<layer id="125" name="bottleneck1_4/fn" type="PReLU" version="opset1">
			<input>
				<port id="0" precision="FP32">
					<dim>1</dim>
					<dim>32</dim>
					<dim>200</dim>
					<dim>340</dim>
				</port>
				<port id="1" precision="FP32">
					<dim>1</dim>
				</port>
			</input>
			<output>
				<port id="2" precision="FP32" names="bottleneck1_4/add">
					<dim>1</dim>
					<dim>32</dim>
					<dim>200</dim>
					<dim>340</dim>
				</port>
			</output>
		</layer>
		<layer id="126" name="bottleneck2_0/skip/pooling" type="MaxPool" version="opset8">
			<data strides="2, 2" dilations="1, 1" pads_begin="0, 0" pads_end="0, 0" kernel="2, 2" rounding_type="ceil" auto_pad="explicit" index_element_type="i64" axis="0" />
			<input>
				<port id="0" precision="FP32">
					<dim>1</dim>
					<dim>32</dim>
					<dim>200</dim>
					<dim>340</dim>
				</port>
			</input>
			<output>
				<port id="1" precision="FP32" names="bottleneck2_0/skip/pooling">
					<dim>1</dim>
					<dim>32</dim>
					<dim>100</dim>
					<dim>170</dim>
				</port>
				<port id="2" precision="I64">
					<dim>1</dim>
					<dim>32</dim>
					<dim>100</dim>
					<dim>170</dim>
				</port>
			</output>
		</layer>
		<layer id="127" name="bottleneck2_0/skip/bn/mean/Fused_Mul__copy_compressed" type="Const" version="opset1">
			<data element_type="f16" shape="64, 32, 1, 1" offset="6862" size="4096" />
			<output>
				<port id="0" precision="FP16">
					<dim>64</dim>
					<dim>32</dim>
					<dim>1</dim>
					<dim>1</dim>
				</port>
			</output>
		</layer>
		<layer id="128" name="bottleneck2_0/skip/bn/mean/Fused_Mul__copy" type="Convert" version="opset1">
			<data destination_type="f32" />
			<rt_info>
				<attribute name="decompression" version="0" />
			</rt_info>
			<input>
				<port id="0" precision="FP16">
					<dim>64</dim>
					<dim>32</dim>
					<dim>1</dim>
					<dim>1</dim>
				</port>
			</input>
			<output>
				<port id="1" precision="FP32">
					<dim>64</dim>
					<dim>32</dim>
					<dim>1</dim>
					<dim>1</dim>
				</port>
			</output>
		</layer>
		<layer id="129" name="bottleneck2_0/skip/conv" type="Convolution" version="opset1">
			<data strides="1, 1" dilations="1, 1" pads_begin="0, 0" pads_end="0, 0" auto_pad="explicit" />
			<input>
				<port id="0" precision="FP32">
					<dim>1</dim>
					<dim>32</dim>
					<dim>100</dim>
					<dim>170</dim>
				</port>
				<port id="1" precision="FP32">
					<dim>64</dim>
					<dim>32</dim>
					<dim>1</dim>
					<dim>1</dim>
				</port>
			</input>
			<output>
				<port id="2" precision="FP32">
					<dim>1</dim>
					<dim>64</dim>
					<dim>100</dim>
					<dim>170</dim>
				</port>
			</output>
		</layer>
		<layer id="130" name="data_add_4510445109_compressed" type="Const" version="opset1">
			<data element_type="f16" shape="1, 64, 1, 1" offset="10958" size="128" />
			<output>
				<port id="0" precision="FP16">
					<dim>1</dim>
					<dim>64</dim>
					<dim>1</dim>
					<dim>1</dim>
				</port>
			</output>
		</layer>
		<layer id="131" name="data_add_4510445109" type="Convert" version="opset1">
			<data destination_type="f32" />
			<rt_info>
				<attribute name="decompression" version="0" />
			</rt_info>
			<input>
				<port id="0" precision="FP16">
					<dim>1</dim>
					<dim>64</dim>
					<dim>1</dim>
					<dim>1</dim>
				</port>
			</input>
			<output>
				<port id="1" precision="FP32">
					<dim>1</dim>
					<dim>64</dim>
					<dim>1</dim>
					<dim>1</dim>
				</port>
			</output>
		</layer>
		<layer id="132" name="bottleneck2_0/skip/bn/variance/Fused_Add_" type="Add" version="opset1">
			<data auto_broadcast="numpy" />
			<input>
				<port id="0" precision="FP32">
					<dim>1</dim>
					<dim>64</dim>
					<dim>100</dim>
					<dim>170</dim>
				</port>
				<port id="1" precision="FP32">
					<dim>1</dim>
					<dim>64</dim>
					<dim>1</dim>
					<dim>1</dim>
				</port>
			</input>
			<output>
				<port id="2" precision="FP32" names="bottleneck2_0/skip/conv">
					<dim>1</dim>
					<dim>64</dim>
					<dim>100</dim>
					<dim>170</dim>
				</port>
			</output>
		</layer>
		<layer id="133" name="bottleneck2_0/dim_red/bn/mean/Fused_Mul__copy_compressed" type="Const" version="opset1">
			<data element_type="f16" shape="16, 32, 1, 1" offset="11086" size="1024" />
			<output>
				<port id="0" precision="FP16">
					<dim>16</dim>
					<dim>32</dim>
					<dim>1</dim>
					<dim>1</dim>
				</port>
			</output>
		</layer>
		<layer id="134" name="bottleneck2_0/dim_red/bn/mean/Fused_Mul__copy" type="Convert" version="opset1">
			<data destination_type="f32" />
			<rt_info>
				<attribute name="decompression" version="0" />
			</rt_info>
			<input>
				<port id="0" precision="FP16">
					<dim>16</dim>
					<dim>32</dim>
					<dim>1</dim>
					<dim>1</dim>
				</port>
			</input>
			<output>
				<port id="1" precision="FP32">
					<dim>16</dim>
					<dim>32</dim>
					<dim>1</dim>
					<dim>1</dim>
				</port>
			</output>
		</layer>
		<layer id="135" name="bottleneck2_0/dim_red/conv" type="Convolution" version="opset1">
			<data strides="1, 1" dilations="1, 1" pads_begin="0, 0" pads_end="0, 0" auto_pad="explicit" />
			<input>
				<port id="0" precision="FP32">
					<dim>1</dim>
					<dim>32</dim>
					<dim>200</dim>
					<dim>340</dim>
				</port>
				<port id="1" precision="FP32">
					<dim>16</dim>
					<dim>32</dim>
					<dim>1</dim>
					<dim>1</dim>
				</port>
			</input>
			<output>
				<port id="2" precision="FP32">
					<dim>1</dim>
					<dim>16</dim>
					<dim>200</dim>
					<dim>340</dim>
				</port>
			</output>
		</layer>
		<layer id="136" name="data_add_4511245117_compressed" type="Const" version="opset1">
			<data element_type="f16" shape="1, 16, 1, 1" offset="12110" size="32" />
			<output>
				<port id="0" precision="FP16">
					<dim>1</dim>
					<dim>16</dim>
					<dim>1</dim>
					<dim>1</dim>
				</port>
			</output>
		</layer>
		<layer id="137" name="data_add_4511245117" type="Convert" version="opset1">
			<data destination_type="f32" />
			<rt_info>
				<attribute name="decompression" version="0" />
			</rt_info>
			<input>
				<port id="0" precision="FP16">
					<dim>1</dim>
					<dim>16</dim>
					<dim>1</dim>
					<dim>1</dim>
				</port>
			</input>
			<output>
				<port id="1" precision="FP32">
					<dim>1</dim>
					<dim>16</dim>
					<dim>1</dim>
					<dim>1</dim>
				</port>
			</output>
		</layer>
		<layer id="138" name="bottleneck2_0/dim_red/bn/variance/Fused_Add_" type="Add" version="opset1">
			<data auto_broadcast="numpy" />
			<input>
				<port id="0" precision="FP32">
					<dim>1</dim>
					<dim>16</dim>
					<dim>200</dim>
					<dim>340</dim>
				</port>
				<port id="1" precision="FP32">
					<dim>1</dim>
					<dim>16</dim>
					<dim>1</dim>
					<dim>1</dim>
				</port>
			</input>
			<output>
				<port id="2" precision="FP32" names="bottleneck2_0/dim_red/conv">
					<dim>1</dim>
					<dim>16</dim>
					<dim>200</dim>
					<dim>340</dim>
				</port>
			</output>
		</layer>
		<layer id="139" name="bottleneck2_0/dim_red/fn/weights5706674887_compressed" type="Const" version="opset1">
			<data element_type="f16" shape="1" offset="2332" size="2" />
			<output>
				<port id="0" precision="FP16">
					<dim>1</dim>
				</port>
			</output>
		</layer>
		<layer id="140" name="bottleneck2_0/dim_red/fn/weights5706674887" type="Convert" version="opset1">
			<data destination_type="f32" />
			<rt_info>
				<attribute name="decompression" version="0" />
			</rt_info>
			<input>
				<port id="0" precision="FP16">
					<dim>1</dim>
				</port>
			</input>
			<output>
				<port id="1" precision="FP32">
					<dim>1</dim>
				</port>
			</output>
		</layer>
		<layer id="141" name="bottleneck2_0/dim_red/fn" type="PReLU" version="opset1">
			<input>
				<port id="0" precision="FP32">
					<dim>1</dim>
					<dim>16</dim>
					<dim>200</dim>
					<dim>340</dim>
				</port>
				<port id="1" precision="FP32">
					<dim>1</dim>
				</port>
			</input>
			<output>
				<port id="2" precision="FP32" names="bottleneck2_0/dim_red/conv">
					<dim>1</dim>
					<dim>16</dim>
					<dim>200</dim>
					<dim>340</dim>
				</port>
			</output>
		</layer>
		<layer id="142" name="bottleneck2_0/inner/dw1/bn/mean/Fused_Mul__copy_compressed" type="Const" version="opset1">
			<data element_type="f16" shape="16, 1, 1, 3, 3" offset="12142" size="288" />
			<output>
				<port id="0" precision="FP16">
					<dim>16</dim>
					<dim>1</dim>
					<dim>1</dim>
					<dim>3</dim>
					<dim>3</dim>
				</port>
			</output>
		</layer>
		<layer id="143" name="bottleneck2_0/inner/dw1/bn/mean/Fused_Mul__copy" type="Convert" version="opset1">
			<data destination_type="f32" />
			<rt_info>
				<attribute name="decompression" version="0" />
			</rt_info>
			<input>
				<port id="0" precision="FP16">
					<dim>16</dim>
					<dim>1</dim>
					<dim>1</dim>
					<dim>3</dim>
					<dim>3</dim>
				</port>
			</input>
			<output>
				<port id="1" precision="FP32">
					<dim>16</dim>
					<dim>1</dim>
					<dim>1</dim>
					<dim>3</dim>
					<dim>3</dim>
				</port>
			</output>
		</layer>
		<layer id="144" name="bottleneck2_0/inner/dw1/conv" type="GroupConvolution" version="opset1">
			<data strides="2, 2" pads_begin="1, 1" pads_end="1, 1" dilations="1, 1" auto_pad="explicit" />
			<input>
				<port id="0" precision="FP32">
					<dim>1</dim>
					<dim>16</dim>
					<dim>200</dim>
					<dim>340</dim>
				</port>
				<port id="1" precision="FP32">
					<dim>16</dim>
					<dim>1</dim>
					<dim>1</dim>
					<dim>3</dim>
					<dim>3</dim>
				</port>
			</input>
			<output>
				<port id="2" precision="FP32">
					<dim>1</dim>
					<dim>16</dim>
					<dim>100</dim>
					<dim>170</dim>
				</port>
			</output>
		</layer>
		<layer id="145" name="data_add_4512045125_compressed" type="Const" version="opset1">
			<data element_type="f16" shape="1, 16, 1, 1" offset="12430" size="32" />
			<output>
				<port id="0" precision="FP16">
					<dim>1</dim>
					<dim>16</dim>
					<dim>1</dim>
					<dim>1</dim>
				</port>
			</output>
		</layer>
		<layer id="146" name="data_add_4512045125" type="Convert" version="opset1">
			<data destination_type="f32" />
			<rt_info>
				<attribute name="decompression" version="0" />
			</rt_info>
			<input>
				<port id="0" precision="FP16">
					<dim>1</dim>
					<dim>16</dim>
					<dim>1</dim>
					<dim>1</dim>
				</port>
			</input>
			<output>
				<port id="1" precision="FP32">
					<dim>1</dim>
					<dim>16</dim>
					<dim>1</dim>
					<dim>1</dim>
				</port>
			</output>
		</layer>
		<layer id="147" name="bottleneck2_0/inner/dw1/bn/variance/Fused_Add_" type="Add" version="opset1">
			<data auto_broadcast="numpy" />
			<input>
				<port id="0" precision="FP32">
					<dim>1</dim>
					<dim>16</dim>
					<dim>100</dim>
					<dim>170</dim>
				</port>
				<port id="1" precision="FP32">
					<dim>1</dim>
					<dim>16</dim>
					<dim>1</dim>
					<dim>1</dim>
				</port>
			</input>
			<output>
				<port id="2" precision="FP32" names="bottleneck2_0/inner/dw1/conv">
					<dim>1</dim>
					<dim>16</dim>
					<dim>100</dim>
					<dim>170</dim>
				</port>
			</output>
		</layer>
		<layer id="148" name="bottleneck2_0/inner/dw1/fn/weights5687475202_compressed" type="Const" version="opset1">
			<data element_type="f16" shape="1" offset="2332" size="2" />
			<output>
				<port id="0" precision="FP16">
					<dim>1</dim>
				</port>
			</output>
		</layer>
		<layer id="149" name="bottleneck2_0/inner/dw1/fn/weights5687475202" type="Convert" version="opset1">
			<data destination_type="f32" />
			<rt_info>
				<attribute name="decompression" version="0" />
			</rt_info>
			<input>
				<port id="0" precision="FP16">
					<dim>1</dim>
				</port>
			</input>
			<output>
				<port id="1" precision="FP32">
					<dim>1</dim>
				</port>
			</output>
		</layer>
		<layer id="150" name="bottleneck2_0/inner/dw1/fn" type="PReLU" version="opset1">
			<input>
				<port id="0" precision="FP32">
					<dim>1</dim>
					<dim>16</dim>
					<dim>100</dim>
					<dim>170</dim>
				</port>
				<port id="1" precision="FP32">
					<dim>1</dim>
				</port>
			</input>
			<output>
				<port id="2" precision="FP32" names="bottleneck2_0/inner/dw1/conv">
					<dim>1</dim>
					<dim>16</dim>
					<dim>100</dim>
					<dim>170</dim>
				</port>
			</output>
		</layer>
		<layer id="151" name="bottleneck2_0/dim_inc/bn/mean/Fused_Mul__copy_compressed" type="Const" version="opset1">
			<data element_type="f16" shape="64, 16, 1, 1" offset="12462" size="2048" />
			<output>
				<port id="0" precision="FP16">
					<dim>64</dim>
					<dim>16</dim>
					<dim>1</dim>
					<dim>1</dim>
				</port>
			</output>
		</layer>
		<layer id="152" name="bottleneck2_0/dim_inc/bn/mean/Fused_Mul__copy" type="Convert" version="opset1">
			<data destination_type="f32" />
			<rt_info>
				<attribute name="decompression" version="0" />
			</rt_info>
			<input>
				<port id="0" precision="FP16">
					<dim>64</dim>
					<dim>16</dim>
					<dim>1</dim>
					<dim>1</dim>
				</port>
			</input>
			<output>
				<port id="1" precision="FP32">
					<dim>64</dim>
					<dim>16</dim>
					<dim>1</dim>
					<dim>1</dim>
				</port>
			</output>
		</layer>
		<layer id="153" name="bottleneck2_0/dim_inc/conv" type="Convolution" version="opset1">
			<data strides="1, 1" dilations="1, 1" pads_begin="0, 0" pads_end="0, 0" auto_pad="explicit" />
			<input>
				<port id="0" precision="FP32">
					<dim>1</dim>
					<dim>16</dim>
					<dim>100</dim>
					<dim>170</dim>
				</port>
				<port id="1" precision="FP32">
					<dim>64</dim>
					<dim>16</dim>
					<dim>1</dim>
					<dim>1</dim>
				</port>
			</input>
			<output>
				<port id="2" precision="FP32">
					<dim>1</dim>
					<dim>64</dim>
					<dim>100</dim>
					<dim>170</dim>
				</port>
			</output>
		</layer>
		<layer id="154" name="data_add_4512845133_compressed" type="Const" version="opset1">
			<data element_type="f16" shape="1, 64, 1, 1" offset="14510" size="128" />
			<output>
				<port id="0" precision="FP16">
					<dim>1</dim>
					<dim>64</dim>
					<dim>1</dim>
					<dim>1</dim>
				</port>
			</output>
		</layer>
		<layer id="155" name="data_add_4512845133" type="Convert" version="opset1">
			<data destination_type="f32" />
			<rt_info>
				<attribute name="decompression" version="0" />
			</rt_info>
			<input>
				<port id="0" precision="FP16">
					<dim>1</dim>
					<dim>64</dim>
					<dim>1</dim>
					<dim>1</dim>
				</port>
			</input>
			<output>
				<port id="1" precision="FP32">
					<dim>1</dim>
					<dim>64</dim>
					<dim>1</dim>
					<dim>1</dim>
				</port>
			</output>
		</layer>
		<layer id="156" name="bottleneck2_0/dim_inc/bn/variance/Fused_Add_" type="Add" version="opset1">
			<data auto_broadcast="numpy" />
			<input>
				<port id="0" precision="FP32">
					<dim>1</dim>
					<dim>64</dim>
					<dim>100</dim>
					<dim>170</dim>
				</port>
				<port id="1" precision="FP32">
					<dim>1</dim>
					<dim>64</dim>
					<dim>1</dim>
					<dim>1</dim>
				</port>
			</input>
			<output>
				<port id="2" precision="FP32" names="bottleneck2_0/dim_inc/conv,bottleneck2_0/dim_inc/dropout">
					<dim>1</dim>
					<dim>64</dim>
					<dim>100</dim>
					<dim>170</dim>
				</port>
			</output>
		</layer>
		<layer id="157" name="bottleneck2_0/add" type="Add" version="opset1">
			<data auto_broadcast="numpy" />
			<input>
				<port id="0" precision="FP32">
					<dim>1</dim>
					<dim>64</dim>
					<dim>100</dim>
					<dim>170</dim>
				</port>
				<port id="1" precision="FP32">
					<dim>1</dim>
					<dim>64</dim>
					<dim>100</dim>
					<dim>170</dim>
				</port>
			</input>
			<output>
				<port id="2" precision="FP32" names="bottleneck2_0/add">
					<dim>1</dim>
					<dim>64</dim>
					<dim>100</dim>
					<dim>170</dim>
				</port>
			</output>
		</layer>
		<layer id="158" name="bottleneck2_0/fn/weights5703073885_compressed" type="Const" version="opset1">
			<data element_type="f16" shape="1" offset="2332" size="2" />
			<output>
				<port id="0" precision="FP16">
					<dim>1</dim>
				</port>
			</output>
		</layer>
		<layer id="159" name="bottleneck2_0/fn/weights5703073885" type="Convert" version="opset1">
			<data destination_type="f32" />
			<rt_info>
				<attribute name="decompression" version="0" />
			</rt_info>
			<input>
				<port id="0" precision="FP16">
					<dim>1</dim>
				</port>
			</input>
			<output>
				<port id="1" precision="FP32">
					<dim>1</dim>
				</port>
			</output>
		</layer>
		<layer id="160" name="bottleneck2_0/fn" type="PReLU" version="opset1">
			<input>
				<port id="0" precision="FP32">
					<dim>1</dim>
					<dim>64</dim>
					<dim>100</dim>
					<dim>170</dim>
				</port>
				<port id="1" precision="FP32">
					<dim>1</dim>
				</port>
			</input>
			<output>
				<port id="2" precision="FP32" names="bottleneck2_0/add">
					<dim>1</dim>
					<dim>64</dim>
					<dim>100</dim>
					<dim>170</dim>
				</port>
			</output>
		</layer>
		<layer id="161" name="bottleneck2_1/dim_red/bn/mean/Fused_Mul__copy_compressed" type="Const" version="opset1">
			<data element_type="f16" shape="16, 64, 1, 1" offset="14638" size="2048" />
			<output>
				<port id="0" precision="FP16">
					<dim>16</dim>
					<dim>64</dim>
					<dim>1</dim>
					<dim>1</dim>
				</port>
			</output>
		</layer>
		<layer id="162" name="bottleneck2_1/dim_red/bn/mean/Fused_Mul__copy" type="Convert" version="opset1">
			<data destination_type="f32" />
			<rt_info>
				<attribute name="decompression" version="0" />
			</rt_info>
			<input>
				<port id="0" precision="FP16">
					<dim>16</dim>
					<dim>64</dim>
					<dim>1</dim>
					<dim>1</dim>
				</port>
			</input>
			<output>
				<port id="1" precision="FP32">
					<dim>16</dim>
					<dim>64</dim>
					<dim>1</dim>
					<dim>1</dim>
				</port>
			</output>
		</layer>
		<layer id="163" name="bottleneck2_1/dim_red/conv" type="Convolution" version="opset1">
			<data strides="1, 1" dilations="1, 1" pads_begin="0, 0" pads_end="0, 0" auto_pad="explicit" />
			<input>
				<port id="0" precision="FP32">
					<dim>1</dim>
					<dim>64</dim>
					<dim>100</dim>
					<dim>170</dim>
				</port>
				<port id="1" precision="FP32">
					<dim>16</dim>
					<dim>64</dim>
					<dim>1</dim>
					<dim>1</dim>
				</port>
			</input>
			<output>
				<port id="2" precision="FP32">
					<dim>1</dim>
					<dim>16</dim>
					<dim>100</dim>
					<dim>170</dim>
				</port>
			</output>
		</layer>
		<layer id="164" name="data_add_4513645141_compressed" type="Const" version="opset1">
			<data element_type="f16" shape="1, 16, 1, 1" offset="16686" size="32" />
			<output>
				<port id="0" precision="FP16">
					<dim>1</dim>
					<dim>16</dim>
					<dim>1</dim>
					<dim>1</dim>
				</port>
			</output>
		</layer>
		<layer id="165" name="data_add_4513645141" type="Convert" version="opset1">
			<data destination_type="f32" />
			<rt_info>
				<attribute name="decompression" version="0" />
			</rt_info>
			<input>
				<port id="0" precision="FP16">
					<dim>1</dim>
					<dim>16</dim>
					<dim>1</dim>
					<dim>1</dim>
				</port>
			</input>
			<output>
				<port id="1" precision="FP32">
					<dim>1</dim>
					<dim>16</dim>
					<dim>1</dim>
					<dim>1</dim>
				</port>
			</output>
		</layer>
		<layer id="166" name="bottleneck2_1/dim_red/bn/variance/Fused_Add_" type="Add" version="opset1">
			<data auto_broadcast="numpy" />
			<input>
				<port id="0" precision="FP32">
					<dim>1</dim>
					<dim>16</dim>
					<dim>100</dim>
					<dim>170</dim>
				</port>
				<port id="1" precision="FP32">
					<dim>1</dim>
					<dim>16</dim>
					<dim>1</dim>
					<dim>1</dim>
				</port>
			</input>
			<output>
				<port id="2" precision="FP32" names="bottleneck2_1/dim_red/conv">
					<dim>1</dim>
					<dim>16</dim>
					<dim>100</dim>
					<dim>170</dim>
				</port>
			</output>
		</layer>
		<layer id="167" name="bottleneck2_1/dim_red/fn/weights5712274830_compressed" type="Const" version="opset1">
			<data element_type="f16" shape="1" offset="2332" size="2" />
			<output>
				<port id="0" precision="FP16">
					<dim>1</dim>
				</port>
			</output>
		</layer>
		<layer id="168" name="bottleneck2_1/dim_red/fn/weights5712274830" type="Convert" version="opset1">
			<data destination_type="f32" />
			<rt_info>
				<attribute name="decompression" version="0" />
			</rt_info>
			<input>
				<port id="0" precision="FP16">
					<dim>1</dim>
				</port>
			</input>
			<output>
				<port id="1" precision="FP32">
					<dim>1</dim>
				</port>
			</output>
		</layer>
		<layer id="169" name="bottleneck2_1/dim_red/fn" type="PReLU" version="opset1">
			<input>
				<port id="0" precision="FP32">
					<dim>1</dim>
					<dim>16</dim>
					<dim>100</dim>
					<dim>170</dim>
				</port>
				<port id="1" precision="FP32">
					<dim>1</dim>
				</port>
			</input>
			<output>
				<port id="2" precision="FP32" names="bottleneck2_1/dim_red/conv">
					<dim>1</dim>
					<dim>16</dim>
					<dim>100</dim>
					<dim>170</dim>
				</port>
			</output>
		</layer>
		<layer id="170" name="bottleneck2_1/inner/dw1/bn/mean/Fused_Mul__copy_compressed" type="Const" version="opset1">
			<data element_type="f16" shape="16, 1, 1, 3, 3" offset="16718" size="288" />
			<output>
				<port id="0" precision="FP16">
					<dim>16</dim>
					<dim>1</dim>
					<dim>1</dim>
					<dim>3</dim>
					<dim>3</dim>
				</port>
			</output>
		</layer>
		<layer id="171" name="bottleneck2_1/inner/dw1/bn/mean/Fused_Mul__copy" type="Convert" version="opset1">
			<data destination_type="f32" />
			<rt_info>
				<attribute name="decompression" version="0" />
			</rt_info>
			<input>
				<port id="0" precision="FP16">
					<dim>16</dim>
					<dim>1</dim>
					<dim>1</dim>
					<dim>3</dim>
					<dim>3</dim>
				</port>
			</input>
			<output>
				<port id="1" precision="FP32">
					<dim>16</dim>
					<dim>1</dim>
					<dim>1</dim>
					<dim>3</dim>
					<dim>3</dim>
				</port>
			</output>
		</layer>
		<layer id="172" name="bottleneck2_1/inner/dw1/conv" type="GroupConvolution" version="opset1">
			<data strides="1, 1" pads_begin="1, 1" pads_end="1, 1" dilations="1, 1" auto_pad="explicit" />
			<input>
				<port id="0" precision="FP32">
					<dim>1</dim>
					<dim>16</dim>
					<dim>100</dim>
					<dim>170</dim>
				</port>
				<port id="1" precision="FP32">
					<dim>16</dim>
					<dim>1</dim>
					<dim>1</dim>
					<dim>3</dim>
					<dim>3</dim>
				</port>
			</input>
			<output>
				<port id="2" precision="FP32">
					<dim>1</dim>
					<dim>16</dim>
					<dim>100</dim>
					<dim>170</dim>
				</port>
			</output>
		</layer>
		<layer id="173" name="data_add_4514445149_compressed" type="Const" version="opset1">
			<data element_type="f16" shape="1, 16, 1, 1" offset="17006" size="32" />
			<output>
				<port id="0" precision="FP16">
					<dim>1</dim>
					<dim>16</dim>
					<dim>1</dim>
					<dim>1</dim>
				</port>
			</output>
		</layer>
		<layer id="174" name="data_add_4514445149" type="Convert" version="opset1">
			<data destination_type="f32" />
			<rt_info>
				<attribute name="decompression" version="0" />
			</rt_info>
			<input>
				<port id="0" precision="FP16">
					<dim>1</dim>
					<dim>16</dim>
					<dim>1</dim>
					<dim>1</dim>
				</port>
			</input>
			<output>
				<port id="1" precision="FP32">
					<dim>1</dim>
					<dim>16</dim>
					<dim>1</dim>
					<dim>1</dim>
				</port>
			</output>
		</layer>
		<layer id="175" name="bottleneck2_1/inner/dw1/bn/variance/Fused_Add_" type="Add" version="opset1">
			<data auto_broadcast="numpy" />
			<input>
				<port id="0" precision="FP32">
					<dim>1</dim>
					<dim>16</dim>
					<dim>100</dim>
					<dim>170</dim>
				</port>
				<port id="1" precision="FP32">
					<dim>1</dim>
					<dim>16</dim>
					<dim>1</dim>
					<dim>1</dim>
				</port>
			</input>
			<output>
				<port id="2" precision="FP32" names="bottleneck2_1/inner/dw1/conv">
					<dim>1</dim>
					<dim>16</dim>
					<dim>100</dim>
					<dim>170</dim>
				</port>
			</output>
		</layer>
		<layer id="176" name="bottleneck2_1/inner/dw1/fn/weights5739474869_compressed" type="Const" version="opset1">
			<data element_type="f16" shape="1" offset="2332" size="2" />
			<output>
				<port id="0" precision="FP16">
					<dim>1</dim>
				</port>
			</output>
		</layer>
		<layer id="177" name="bottleneck2_1/inner/dw1/fn/weights5739474869" type="Convert" version="opset1">
			<data destination_type="f32" />
			<rt_info>
				<attribute name="decompression" version="0" />
			</rt_info>
			<input>
				<port id="0" precision="FP16">
					<dim>1</dim>
				</port>
			</input>
			<output>
				<port id="1" precision="FP32">
					<dim>1</dim>
				</port>
			</output>
		</layer>
		<layer id="178" name="bottleneck2_1/inner/dw1/fn" type="PReLU" version="opset1">
			<input>
				<port id="0" precision="FP32">
					<dim>1</dim>
					<dim>16</dim>
					<dim>100</dim>
					<dim>170</dim>
				</port>
				<port id="1" precision="FP32">
					<dim>1</dim>
				</port>
			</input>
			<output>
				<port id="2" precision="FP32" names="bottleneck2_1/inner/dw1/conv">
					<dim>1</dim>
					<dim>16</dim>
					<dim>100</dim>
					<dim>170</dim>
				</port>
			</output>
		</layer>
		<layer id="179" name="bottleneck2_1/dim_inc/bn/mean/Fused_Mul__copy_compressed" type="Const" version="opset1">
			<data element_type="f16" shape="64, 16, 1, 1" offset="17038" size="2048" />
			<output>
				<port id="0" precision="FP16">
					<dim>64</dim>
					<dim>16</dim>
					<dim>1</dim>
					<dim>1</dim>
				</port>
			</output>
		</layer>
		<layer id="180" name="bottleneck2_1/dim_inc/bn/mean/Fused_Mul__copy" type="Convert" version="opset1">
			<data destination_type="f32" />
			<rt_info>
				<attribute name="decompression" version="0" />
			</rt_info>
			<input>
				<port id="0" precision="FP16">
					<dim>64</dim>
					<dim>16</dim>
					<dim>1</dim>
					<dim>1</dim>
				</port>
			</input>
			<output>
				<port id="1" precision="FP32">
					<dim>64</dim>
					<dim>16</dim>
					<dim>1</dim>
					<dim>1</dim>
				</port>
			</output>
		</layer>
		<layer id="181" name="bottleneck2_1/dim_inc/conv" type="Convolution" version="opset1">
			<data strides="1, 1" dilations="1, 1" pads_begin="0, 0" pads_end="0, 0" auto_pad="explicit" />
			<input>
				<port id="0" precision="FP32">
					<dim>1</dim>
					<dim>16</dim>
					<dim>100</dim>
					<dim>170</dim>
				</port>
				<port id="1" precision="FP32">
					<dim>64</dim>
					<dim>16</dim>
					<dim>1</dim>
					<dim>1</dim>
				</port>
			</input>
			<output>
				<port id="2" precision="FP32">
					<dim>1</dim>
					<dim>64</dim>
					<dim>100</dim>
					<dim>170</dim>
				</port>
			</output>
		</layer>
		<layer id="182" name="data_add_4515245157_compressed" type="Const" version="opset1">
			<data element_type="f16" shape="1, 64, 1, 1" offset="19086" size="128" />
			<output>
				<port id="0" precision="FP16">
					<dim>1</dim>
					<dim>64</dim>
					<dim>1</dim>
					<dim>1</dim>
				</port>
			</output>
		</layer>
		<layer id="183" name="data_add_4515245157" type="Convert" version="opset1">
			<data destination_type="f32" />
			<rt_info>
				<attribute name="decompression" version="0" />
			</rt_info>
			<input>
				<port id="0" precision="FP16">
					<dim>1</dim>
					<dim>64</dim>
					<dim>1</dim>
					<dim>1</dim>
				</port>
			</input>
			<output>
				<port id="1" precision="FP32">
					<dim>1</dim>
					<dim>64</dim>
					<dim>1</dim>
					<dim>1</dim>
				</port>
			</output>
		</layer>
		<layer id="184" name="bottleneck2_1/dim_inc/bn/variance/Fused_Add_" type="Add" version="opset1">
			<data auto_broadcast="numpy" />
			<input>
				<port id="0" precision="FP32">
					<dim>1</dim>
					<dim>64</dim>
					<dim>100</dim>
					<dim>170</dim>
				</port>
				<port id="1" precision="FP32">
					<dim>1</dim>
					<dim>64</dim>
					<dim>1</dim>
					<dim>1</dim>
				</port>
			</input>
			<output>
				<port id="2" precision="FP32" names="bottleneck2_1/dim_inc/conv,bottleneck2_1/dim_inc/dropout">
					<dim>1</dim>
					<dim>64</dim>
					<dim>100</dim>
					<dim>170</dim>
				</port>
			</output>
		</layer>
		<layer id="185" name="bottleneck2_1/add" type="Add" version="opset1">
			<data auto_broadcast="numpy" />
			<input>
				<port id="0" precision="FP32">
					<dim>1</dim>
					<dim>64</dim>
					<dim>100</dim>
					<dim>170</dim>
				</port>
				<port id="1" precision="FP32">
					<dim>1</dim>
					<dim>64</dim>
					<dim>100</dim>
					<dim>170</dim>
				</port>
			</input>
			<output>
				<port id="2" precision="FP32" names="bottleneck2_1/add">
					<dim>1</dim>
					<dim>64</dim>
					<dim>100</dim>
					<dim>170</dim>
				</port>
			</output>
		</layer>
		<layer id="186" name="bottleneck2_1/fn/weights5741874299_compressed" type="Const" version="opset1">
			<data element_type="f16" shape="1" offset="2332" size="2" />
			<output>
				<port id="0" precision="FP16">
					<dim>1</dim>
				</port>
			</output>
		</layer>
		<layer id="187" name="bottleneck2_1/fn/weights5741874299" type="Convert" version="opset1">
			<data destination_type="f32" />
			<rt_info>
				<attribute name="decompression" version="0" />
			</rt_info>
			<input>
				<port id="0" precision="FP16">
					<dim>1</dim>
				</port>
			</input>
			<output>
				<port id="1" precision="FP32">
					<dim>1</dim>
				</port>
			</output>
		</layer>
		<layer id="188" name="bottleneck2_1/fn" type="PReLU" version="opset1">
			<input>
				<port id="0" precision="FP32">
					<dim>1</dim>
					<dim>64</dim>
					<dim>100</dim>
					<dim>170</dim>
				</port>
				<port id="1" precision="FP32">
					<dim>1</dim>
				</port>
			</input>
			<output>
				<port id="2" precision="FP32" names="bottleneck2_1/add">
					<dim>1</dim>
					<dim>64</dim>
					<dim>100</dim>
					<dim>170</dim>
				</port>
			</output>
		</layer>
		<layer id="189" name="bottleneck2_2/dim_red/bn/mean/Fused_Mul__copy_compressed" type="Const" version="opset1">
			<data element_type="f16" shape="16, 64, 1, 1" offset="19214" size="2048" />
			<output>
				<port id="0" precision="FP16">
					<dim>16</dim>
					<dim>64</dim>
					<dim>1</dim>
					<dim>1</dim>
				</port>
			</output>
		</layer>
		<layer id="190" name="bottleneck2_2/dim_red/bn/mean/Fused_Mul__copy" type="Convert" version="opset1">
			<data destination_type="f32" />
			<rt_info>
				<attribute name="decompression" version="0" />
			</rt_info>
			<input>
				<port id="0" precision="FP16">
					<dim>16</dim>
					<dim>64</dim>
					<dim>1</dim>
					<dim>1</dim>
				</port>
			</input>
			<output>
				<port id="1" precision="FP32">
					<dim>16</dim>
					<dim>64</dim>
					<dim>1</dim>
					<dim>1</dim>
				</port>
			</output>
		</layer>
		<layer id="191" name="bottleneck2_2/dim_red/conv" type="Convolution" version="opset1">
			<data strides="1, 1" dilations="1, 1" pads_begin="0, 0" pads_end="0, 0" auto_pad="explicit" />
			<input>
				<port id="0" precision="FP32">
					<dim>1</dim>
					<dim>64</dim>
					<dim>100</dim>
					<dim>170</dim>
				</port>
				<port id="1" precision="FP32">
					<dim>16</dim>
					<dim>64</dim>
					<dim>1</dim>
					<dim>1</dim>
				</port>
			</input>
			<output>
				<port id="2" precision="FP32">
					<dim>1</dim>
					<dim>16</dim>
					<dim>100</dim>
					<dim>170</dim>
				</port>
			</output>
		</layer>
		<layer id="192" name="data_add_4516045165_compressed" type="Const" version="opset1">
			<data element_type="f16" shape="1, 16, 1, 1" offset="21262" size="32" />
			<output>
				<port id="0" precision="FP16">
					<dim>1</dim>
					<dim>16</dim>
					<dim>1</dim>
					<dim>1</dim>
				</port>
			</output>
		</layer>
		<layer id="193" name="data_add_4516045165" type="Convert" version="opset1">
			<data destination_type="f32" />
			<rt_info>
				<attribute name="decompression" version="0" />
			</rt_info>
			<input>
				<port id="0" precision="FP16">
					<dim>1</dim>
					<dim>16</dim>
					<dim>1</dim>
					<dim>1</dim>
				</port>
			</input>
			<output>
				<port id="1" precision="FP32">
					<dim>1</dim>
					<dim>16</dim>
					<dim>1</dim>
					<dim>1</dim>
				</port>
			</output>
		</layer>
		<layer id="194" name="bottleneck2_2/dim_red/bn/variance/Fused_Add_" type="Add" version="opset1">
			<data auto_broadcast="numpy" />
			<input>
				<port id="0" precision="FP32">
					<dim>1</dim>
					<dim>16</dim>
					<dim>100</dim>
					<dim>170</dim>
				</port>
				<port id="1" precision="FP32">
					<dim>1</dim>
					<dim>16</dim>
					<dim>1</dim>
					<dim>1</dim>
				</port>
			</input>
			<output>
				<port id="2" precision="FP32" names="bottleneck2_2/dim_red/conv">
					<dim>1</dim>
					<dim>16</dim>
					<dim>100</dim>
					<dim>170</dim>
				</port>
			</output>
		</layer>
		<layer id="195" name="bottleneck2_2/dim_red/fn/weights5692674812_compressed" type="Const" version="opset1">
			<data element_type="f16" shape="1" offset="2332" size="2" />
			<output>
				<port id="0" precision="FP16">
					<dim>1</dim>
				</port>
			</output>
		</layer>
		<layer id="196" name="bottleneck2_2/dim_red/fn/weights5692674812" type="Convert" version="opset1">
			<data destination_type="f32" />
			<rt_info>
				<attribute name="decompression" version="0" />
			</rt_info>
			<input>
				<port id="0" precision="FP16">
					<dim>1</dim>
				</port>
			</input>
			<output>
				<port id="1" precision="FP32">
					<dim>1</dim>
				</port>
			</output>
		</layer>
		<layer id="197" name="bottleneck2_2/dim_red/fn" type="PReLU" version="opset1">
			<input>
				<port id="0" precision="FP32">
					<dim>1</dim>
					<dim>16</dim>
					<dim>100</dim>
					<dim>170</dim>
				</port>
				<port id="1" precision="FP32">
					<dim>1</dim>
				</port>
			</input>
			<output>
				<port id="2" precision="FP32" names="bottleneck2_2/dim_red/conv">
					<dim>1</dim>
					<dim>16</dim>
					<dim>100</dim>
					<dim>170</dim>
				</port>
			</output>
		</layer>
		<layer id="198" name="bottleneck2_2/inner/dw1/bn/mean/Fused_Mul__copy_compressed" type="Const" version="opset1">
			<data element_type="f16" shape="16, 1, 1, 3, 3" offset="21294" size="288" />
			<output>
				<port id="0" precision="FP16">
					<dim>16</dim>
					<dim>1</dim>
					<dim>1</dim>
					<dim>3</dim>
					<dim>3</dim>
				</port>
			</output>
		</layer>
		<layer id="199" name="bottleneck2_2/inner/dw1/bn/mean/Fused_Mul__copy" type="Convert" version="opset1">
			<data destination_type="f32" />
			<rt_info>
				<attribute name="decompression" version="0" />
			</rt_info>
			<input>
				<port id="0" precision="FP16">
					<dim>16</dim>
					<dim>1</dim>
					<dim>1</dim>
					<dim>3</dim>
					<dim>3</dim>
				</port>
			</input>
			<output>
				<port id="1" precision="FP32">
					<dim>16</dim>
					<dim>1</dim>
					<dim>1</dim>
					<dim>3</dim>
					<dim>3</dim>
				</port>
			</output>
		</layer>
		<layer id="200" name="bottleneck2_2/inner/dw1/conv" type="GroupConvolution" version="opset1">
			<data strides="1, 1" pads_begin="1, 1" pads_end="1, 1" dilations="1, 1" auto_pad="explicit" />
			<input>
				<port id="0" precision="FP32">
					<dim>1</dim>
					<dim>16</dim>
					<dim>100</dim>
					<dim>170</dim>
				</port>
				<port id="1" precision="FP32">
					<dim>16</dim>
					<dim>1</dim>
					<dim>1</dim>
					<dim>3</dim>
					<dim>3</dim>
				</port>
			</input>
			<output>
				<port id="2" precision="FP32">
					<dim>1</dim>
					<dim>16</dim>
					<dim>100</dim>
					<dim>170</dim>
				</port>
			</output>
		</layer>
		<layer id="201" name="data_add_4516845173_compressed" type="Const" version="opset1">
			<data element_type="f16" shape="1, 16, 1, 1" offset="21582" size="32" />
			<output>
				<port id="0" precision="FP16">
					<dim>1</dim>
					<dim>16</dim>
					<dim>1</dim>
					<dim>1</dim>
				</port>
			</output>
		</layer>
		<layer id="202" name="data_add_4516845173" type="Convert" version="opset1">
			<data destination_type="f32" />
			<rt_info>
				<attribute name="decompression" version="0" />
			</rt_info>
			<input>
				<port id="0" precision="FP16">
					<dim>1</dim>
					<dim>16</dim>
					<dim>1</dim>
					<dim>1</dim>
				</port>
			</input>
			<output>
				<port id="1" precision="FP32">
					<dim>1</dim>
					<dim>16</dim>
					<dim>1</dim>
					<dim>1</dim>
				</port>
			</output>
		</layer>
		<layer id="203" name="bottleneck2_2/inner/dw1/bn/variance/Fused_Add_" type="Add" version="opset1">
			<data auto_broadcast="numpy" />
			<input>
				<port id="0" precision="FP32">
					<dim>1</dim>
					<dim>16</dim>
					<dim>100</dim>
					<dim>170</dim>
				</port>
				<port id="1" precision="FP32">
					<dim>1</dim>
					<dim>16</dim>
					<dim>1</dim>
					<dim>1</dim>
				</port>
			</input>
			<output>
				<port id="2" precision="FP32" names="bottleneck2_2/inner/dw1/conv">
					<dim>1</dim>
					<dim>16</dim>
					<dim>100</dim>
					<dim>170</dim>
				</port>
			</output>
		</layer>
		<layer id="204" name="bottleneck2_2/inner/dw1/fn/weights5695075253_compressed" type="Const" version="opset1">
			<data element_type="f16" shape="1" offset="2332" size="2" />
			<output>
				<port id="0" precision="FP16">
					<dim>1</dim>
				</port>
			</output>
		</layer>
		<layer id="205" name="bottleneck2_2/inner/dw1/fn/weights5695075253" type="Convert" version="opset1">
			<data destination_type="f32" />
			<rt_info>
				<attribute name="decompression" version="0" />
			</rt_info>
			<input>
				<port id="0" precision="FP16">
					<dim>1</dim>
				</port>
			</input>
			<output>
				<port id="1" precision="FP32">
					<dim>1</dim>
				</port>
			</output>
		</layer>
		<layer id="206" name="bottleneck2_2/inner/dw1/fn" type="PReLU" version="opset1">
			<input>
				<port id="0" precision="FP32">
					<dim>1</dim>
					<dim>16</dim>
					<dim>100</dim>
					<dim>170</dim>
				</port>
				<port id="1" precision="FP32">
					<dim>1</dim>
				</port>
			</input>
			<output>
				<port id="2" precision="FP32" names="bottleneck2_2/inner/dw1/conv">
					<dim>1</dim>
					<dim>16</dim>
					<dim>100</dim>
					<dim>170</dim>
				</port>
			</output>
		</layer>
		<layer id="207" name="bottleneck2_2/dim_inc/bn/mean/Fused_Mul__copy_compressed" type="Const" version="opset1">
			<data element_type="f16" shape="64, 16, 1, 1" offset="21614" size="2048" />
			<output>
				<port id="0" precision="FP16">
					<dim>64</dim>
					<dim>16</dim>
					<dim>1</dim>
					<dim>1</dim>
				</port>
			</output>
		</layer>
		<layer id="208" name="bottleneck2_2/dim_inc/bn/mean/Fused_Mul__copy" type="Convert" version="opset1">
			<data destination_type="f32" />
			<rt_info>
				<attribute name="decompression" version="0" />
			</rt_info>
			<input>
				<port id="0" precision="FP16">
					<dim>64</dim>
					<dim>16</dim>
					<dim>1</dim>
					<dim>1</dim>
				</port>
			</input>
			<output>
				<port id="1" precision="FP32">
					<dim>64</dim>
					<dim>16</dim>
					<dim>1</dim>
					<dim>1</dim>
				</port>
			</output>
		</layer>
		<layer id="209" name="bottleneck2_2/dim_inc/conv" type="Convolution" version="opset1">
			<data strides="1, 1" dilations="1, 1" pads_begin="0, 0" pads_end="0, 0" auto_pad="explicit" />
			<input>
				<port id="0" precision="FP32">
					<dim>1</dim>
					<dim>16</dim>
					<dim>100</dim>
					<dim>170</dim>
				</port>
				<port id="1" precision="FP32">
					<dim>64</dim>
					<dim>16</dim>
					<dim>1</dim>
					<dim>1</dim>
				</port>
			</input>
			<output>
				<port id="2" precision="FP32">
					<dim>1</dim>
					<dim>64</dim>
					<dim>100</dim>
					<dim>170</dim>
				</port>
			</output>
		</layer>
		<layer id="210" name="data_add_4517645181_compressed" type="Const" version="opset1">
			<data element_type="f16" shape="1, 64, 1, 1" offset="23662" size="128" />
			<output>
				<port id="0" precision="FP16">
					<dim>1</dim>
					<dim>64</dim>
					<dim>1</dim>
					<dim>1</dim>
				</port>
			</output>
		</layer>
		<layer id="211" name="data_add_4517645181" type="Convert" version="opset1">
			<data destination_type="f32" />
			<rt_info>
				<attribute name="decompression" version="0" />
			</rt_info>
			<input>
				<port id="0" precision="FP16">
					<dim>1</dim>
					<dim>64</dim>
					<dim>1</dim>
					<dim>1</dim>
				</port>
			</input>
			<output>
				<port id="1" precision="FP32">
					<dim>1</dim>
					<dim>64</dim>
					<dim>1</dim>
					<dim>1</dim>
				</port>
			</output>
		</layer>
		<layer id="212" name="bottleneck2_2/dim_inc/bn/variance/Fused_Add_" type="Add" version="opset1">
			<data auto_broadcast="numpy" />
			<input>
				<port id="0" precision="FP32">
					<dim>1</dim>
					<dim>64</dim>
					<dim>100</dim>
					<dim>170</dim>
				</port>
				<port id="1" precision="FP32">
					<dim>1</dim>
					<dim>64</dim>
					<dim>1</dim>
					<dim>1</dim>
				</port>
			</input>
			<output>
				<port id="2" precision="FP32" names="bottleneck2_2/dim_inc/conv,bottleneck2_2/dim_inc/dropout">
					<dim>1</dim>
					<dim>64</dim>
					<dim>100</dim>
					<dim>170</dim>
				</port>
			</output>
		</layer>
		<layer id="213" name="bottleneck2_2/add" type="Add" version="opset1">
			<data auto_broadcast="numpy" />
			<input>
				<port id="0" precision="FP32">
					<dim>1</dim>
					<dim>64</dim>
					<dim>100</dim>
					<dim>170</dim>
				</port>
				<port id="1" precision="FP32">
					<dim>1</dim>
					<dim>64</dim>
					<dim>100</dim>
					<dim>170</dim>
				</port>
			</input>
			<output>
				<port id="2" precision="FP32" names="bottleneck2_2/add">
					<dim>1</dim>
					<dim>64</dim>
					<dim>100</dim>
					<dim>170</dim>
				</port>
			</output>
		</layer>
		<layer id="214" name="bottleneck2_2/fn/weights5740274626_compressed" type="Const" version="opset1">
			<data element_type="f16" shape="1" offset="2332" size="2" />
			<output>
				<port id="0" precision="FP16">
					<dim>1</dim>
				</port>
			</output>
		</layer>
		<layer id="215" name="bottleneck2_2/fn/weights5740274626" type="Convert" version="opset1">
			<data destination_type="f32" />
			<rt_info>
				<attribute name="decompression" version="0" />
			</rt_info>
			<input>
				<port id="0" precision="FP16">
					<dim>1</dim>
				</port>
			</input>
			<output>
				<port id="1" precision="FP32">
					<dim>1</dim>
				</port>
			</output>
		</layer>
		<layer id="216" name="bottleneck2_2/fn" type="PReLU" version="opset1">
			<input>
				<port id="0" precision="FP32">
					<dim>1</dim>
					<dim>64</dim>
					<dim>100</dim>
					<dim>170</dim>
				</port>
				<port id="1" precision="FP32">
					<dim>1</dim>
				</port>
			</input>
			<output>
				<port id="2" precision="FP32" names="bottleneck2_2/add">
					<dim>1</dim>
					<dim>64</dim>
					<dim>100</dim>
					<dim>170</dim>
				</port>
			</output>
		</layer>
		<layer id="217" name="bottleneck2_3/dim_red/bn/mean/Fused_Mul__copy_compressed" type="Const" version="opset1">
			<data element_type="f16" shape="16, 64, 1, 1" offset="23790" size="2048" />
			<output>
				<port id="0" precision="FP16">
					<dim>16</dim>
					<dim>64</dim>
					<dim>1</dim>
					<dim>1</dim>
				</port>
			</output>
		</layer>
		<layer id="218" name="bottleneck2_3/dim_red/bn/mean/Fused_Mul__copy" type="Convert" version="opset1">
			<data destination_type="f32" />
			<rt_info>
				<attribute name="decompression" version="0" />
			</rt_info>
			<input>
				<port id="0" precision="FP16">
					<dim>16</dim>
					<dim>64</dim>
					<dim>1</dim>
					<dim>1</dim>
				</port>
			</input>
			<output>
				<port id="1" precision="FP32">
					<dim>16</dim>
					<dim>64</dim>
					<dim>1</dim>
					<dim>1</dim>
				</port>
			</output>
		</layer>
		<layer id="219" name="bottleneck2_3/dim_red/conv" type="Convolution" version="opset1">
			<data strides="1, 1" dilations="1, 1" pads_begin="0, 0" pads_end="0, 0" auto_pad="explicit" />
			<input>
				<port id="0" precision="FP32">
					<dim>1</dim>
					<dim>64</dim>
					<dim>100</dim>
					<dim>170</dim>
				</port>
				<port id="1" precision="FP32">
					<dim>16</dim>
					<dim>64</dim>
					<dim>1</dim>
					<dim>1</dim>
				</port>
			</input>
			<output>
				<port id="2" precision="FP32">
					<dim>1</dim>
					<dim>16</dim>
					<dim>100</dim>
					<dim>170</dim>
				</port>
			</output>
		</layer>
		<layer id="220" name="data_add_4518445189_compressed" type="Const" version="opset1">
			<data element_type="f16" shape="1, 16, 1, 1" offset="25838" size="32" />
			<output>
				<port id="0" precision="FP16">
					<dim>1</dim>
					<dim>16</dim>
					<dim>1</dim>
					<dim>1</dim>
				</port>
			</output>
		</layer>
		<layer id="221" name="data_add_4518445189" type="Convert" version="opset1">
			<data destination_type="f32" />
			<rt_info>
				<attribute name="decompression" version="0" />
			</rt_info>
			<input>
				<port id="0" precision="FP16">
					<dim>1</dim>
					<dim>16</dim>
					<dim>1</dim>
					<dim>1</dim>
				</port>
			</input>
			<output>
				<port id="1" precision="FP32">
					<dim>1</dim>
					<dim>16</dim>
					<dim>1</dim>
					<dim>1</dim>
				</port>
			</output>
		</layer>
		<layer id="222" name="bottleneck2_3/dim_red/bn/variance/Fused_Add_" type="Add" version="opset1">
			<data auto_broadcast="numpy" />
			<input>
				<port id="0" precision="FP32">
					<dim>1</dim>
					<dim>16</dim>
					<dim>100</dim>
					<dim>170</dim>
				</port>
				<port id="1" precision="FP32">
					<dim>1</dim>
					<dim>16</dim>
					<dim>1</dim>
					<dim>1</dim>
				</port>
			</input>
			<output>
				<port id="2" precision="FP32" names="bottleneck2_3/dim_red/conv">
					<dim>1</dim>
					<dim>16</dim>
					<dim>100</dim>
					<dim>170</dim>
				</port>
			</output>
		</layer>
		<layer id="223" name="bottleneck2_3/dim_red/fn/weights5732674815_compressed" type="Const" version="opset1">
			<data element_type="f16" shape="1" offset="2332" size="2" />
			<output>
				<port id="0" precision="FP16">
					<dim>1</dim>
				</port>
			</output>
		</layer>
		<layer id="224" name="bottleneck2_3/dim_red/fn/weights5732674815" type="Convert" version="opset1">
			<data destination_type="f32" />
			<rt_info>
				<attribute name="decompression" version="0" />
			</rt_info>
			<input>
				<port id="0" precision="FP16">
					<dim>1</dim>
				</port>
			</input>
			<output>
				<port id="1" precision="FP32">
					<dim>1</dim>
				</port>
			</output>
		</layer>
		<layer id="225" name="bottleneck2_3/dim_red/fn" type="PReLU" version="opset1">
			<input>
				<port id="0" precision="FP32">
					<dim>1</dim>
					<dim>16</dim>
					<dim>100</dim>
					<dim>170</dim>
				</port>
				<port id="1" precision="FP32">
					<dim>1</dim>
				</port>
			</input>
			<output>
				<port id="2" precision="FP32" names="bottleneck2_3/dim_red/conv">
					<dim>1</dim>
					<dim>16</dim>
					<dim>100</dim>
					<dim>170</dim>
				</port>
			</output>
		</layer>
		<layer id="226" name="bottleneck2_3/inner/dw1/bn/mean/Fused_Mul__copy_compressed" type="Const" version="opset1">
			<data element_type="f16" shape="16, 1, 1, 3, 3" offset="25870" size="288" />
			<output>
				<port id="0" precision="FP16">
					<dim>16</dim>
					<dim>1</dim>
					<dim>1</dim>
					<dim>3</dim>
					<dim>3</dim>
				</port>
			</output>
		</layer>
		<layer id="227" name="bottleneck2_3/inner/dw1/bn/mean/Fused_Mul__copy" type="Convert" version="opset1">
			<data destination_type="f32" />
			<rt_info>
				<attribute name="decompression" version="0" />
			</rt_info>
			<input>
				<port id="0" precision="FP16">
					<dim>16</dim>
					<dim>1</dim>
					<dim>1</dim>
					<dim>3</dim>
					<dim>3</dim>
				</port>
			</input>
			<output>
				<port id="1" precision="FP32">
					<dim>16</dim>
					<dim>1</dim>
					<dim>1</dim>
					<dim>3</dim>
					<dim>3</dim>
				</port>
			</output>
		</layer>
		<layer id="228" name="bottleneck2_3/inner/dw1/conv" type="GroupConvolution" version="opset1">
			<data strides="1, 1" pads_begin="1, 1" pads_end="1, 1" dilations="1, 1" auto_pad="explicit" />
			<input>
				<port id="0" precision="FP32">
					<dim>1</dim>
					<dim>16</dim>
					<dim>100</dim>
					<dim>170</dim>
				</port>
				<port id="1" precision="FP32">
					<dim>16</dim>
					<dim>1</dim>
					<dim>1</dim>
					<dim>3</dim>
					<dim>3</dim>
				</port>
			</input>
			<output>
				<port id="2" precision="FP32">
					<dim>1</dim>
					<dim>16</dim>
					<dim>100</dim>
					<dim>170</dim>
				</port>
			</output>
		</layer>
		<layer id="229" name="data_add_4519245197_compressed" type="Const" version="opset1">
			<data element_type="f16" shape="1, 16, 1, 1" offset="26158" size="32" />
			<output>
				<port id="0" precision="FP16">
					<dim>1</dim>
					<dim>16</dim>
					<dim>1</dim>
					<dim>1</dim>
				</port>
			</output>
		</layer>
		<layer id="230" name="data_add_4519245197" type="Convert" version="opset1">
			<data destination_type="f32" />
			<rt_info>
				<attribute name="decompression" version="0" />
			</rt_info>
			<input>
				<port id="0" precision="FP16">
					<dim>1</dim>
					<dim>16</dim>
					<dim>1</dim>
					<dim>1</dim>
				</port>
			</input>
			<output>
				<port id="1" precision="FP32">
					<dim>1</dim>
					<dim>16</dim>
					<dim>1</dim>
					<dim>1</dim>
				</port>
			</output>
		</layer>
		<layer id="231" name="bottleneck2_3/inner/dw1/bn/variance/Fused_Add_" type="Add" version="opset1">
			<data auto_broadcast="numpy" />
			<input>
				<port id="0" precision="FP32">
					<dim>1</dim>
					<dim>16</dim>
					<dim>100</dim>
					<dim>170</dim>
				</port>
				<port id="1" precision="FP32">
					<dim>1</dim>
					<dim>16</dim>
					<dim>1</dim>
					<dim>1</dim>
				</port>
			</input>
			<output>
				<port id="2" precision="FP32" names="bottleneck2_3/inner/dw1/conv">
					<dim>1</dim>
					<dim>16</dim>
					<dim>100</dim>
					<dim>170</dim>
				</port>
			</output>
		</layer>
		<layer id="232" name="bottleneck2_3/inner/dw1/fn/weights5718674311_compressed" type="Const" version="opset1">
			<data element_type="f16" shape="1" offset="2332" size="2" />
			<output>
				<port id="0" precision="FP16">
					<dim>1</dim>
				</port>
			</output>
		</layer>
		<layer id="233" name="bottleneck2_3/inner/dw1/fn/weights5718674311" type="Convert" version="opset1">
			<data destination_type="f32" />
			<rt_info>
				<attribute name="decompression" version="0" />
			</rt_info>
			<input>
				<port id="0" precision="FP16">
					<dim>1</dim>
				</port>
			</input>
			<output>
				<port id="1" precision="FP32">
					<dim>1</dim>
				</port>
			</output>
		</layer>
		<layer id="234" name="bottleneck2_3/inner/dw1/fn" type="PReLU" version="opset1">
			<input>
				<port id="0" precision="FP32">
					<dim>1</dim>
					<dim>16</dim>
					<dim>100</dim>
					<dim>170</dim>
				</port>
				<port id="1" precision="FP32">
					<dim>1</dim>
				</port>
			</input>
			<output>
				<port id="2" precision="FP32" names="bottleneck2_3/inner/dw1/conv">
					<dim>1</dim>
					<dim>16</dim>
					<dim>100</dim>
					<dim>170</dim>
				</port>
			</output>
		</layer>
		<layer id="235" name="bottleneck2_3/dim_inc/bn/mean/Fused_Mul__copy_compressed" type="Const" version="opset1">
			<data element_type="f16" shape="64, 16, 1, 1" offset="26190" size="2048" />
			<output>
				<port id="0" precision="FP16">
					<dim>64</dim>
					<dim>16</dim>
					<dim>1</dim>
					<dim>1</dim>
				</port>
			</output>
		</layer>
		<layer id="236" name="bottleneck2_3/dim_inc/bn/mean/Fused_Mul__copy" type="Convert" version="opset1">
			<data destination_type="f32" />
			<rt_info>
				<attribute name="decompression" version="0" />
			</rt_info>
			<input>
				<port id="0" precision="FP16">
					<dim>64</dim>
					<dim>16</dim>
					<dim>1</dim>
					<dim>1</dim>
				</port>
			</input>
			<output>
				<port id="1" precision="FP32">
					<dim>64</dim>
					<dim>16</dim>
					<dim>1</dim>
					<dim>1</dim>
				</port>
			</output>
		</layer>
		<layer id="237" name="bottleneck2_3/dim_inc/conv" type="Convolution" version="opset1">
			<data strides="1, 1" dilations="1, 1" pads_begin="0, 0" pads_end="0, 0" auto_pad="explicit" />
			<input>
				<port id="0" precision="FP32">
					<dim>1</dim>
					<dim>16</dim>
					<dim>100</dim>
					<dim>170</dim>
				</port>
				<port id="1" precision="FP32">
					<dim>64</dim>
					<dim>16</dim>
					<dim>1</dim>
					<dim>1</dim>
				</port>
			</input>
			<output>
				<port id="2" precision="FP32">
					<dim>1</dim>
					<dim>64</dim>
					<dim>100</dim>
					<dim>170</dim>
				</port>
			</output>
		</layer>
		<layer id="238" name="data_add_4520045205_compressed" type="Const" version="opset1">
			<data element_type="f16" shape="1, 64, 1, 1" offset="28238" size="128" />
			<output>
				<port id="0" precision="FP16">
					<dim>1</dim>
					<dim>64</dim>
					<dim>1</dim>
					<dim>1</dim>
				</port>
			</output>
		</layer>
		<layer id="239" name="data_add_4520045205" type="Convert" version="opset1">
			<data destination_type="f32" />
			<rt_info>
				<attribute name="decompression" version="0" />
			</rt_info>
			<input>
				<port id="0" precision="FP16">
					<dim>1</dim>
					<dim>64</dim>
					<dim>1</dim>
					<dim>1</dim>
				</port>
			</input>
			<output>
				<port id="1" precision="FP32">
					<dim>1</dim>
					<dim>64</dim>
					<dim>1</dim>
					<dim>1</dim>
				</port>
			</output>
		</layer>
		<layer id="240" name="bottleneck2_3/dim_inc/bn/variance/Fused_Add_" type="Add" version="opset1">
			<data auto_broadcast="numpy" />
			<input>
				<port id="0" precision="FP32">
					<dim>1</dim>
					<dim>64</dim>
					<dim>100</dim>
					<dim>170</dim>
				</port>
				<port id="1" precision="FP32">
					<dim>1</dim>
					<dim>64</dim>
					<dim>1</dim>
					<dim>1</dim>
				</port>
			</input>
			<output>
				<port id="2" precision="FP32" names="bottleneck2_3/dim_inc/conv,bottleneck2_3/dim_inc/dropout">
					<dim>1</dim>
					<dim>64</dim>
					<dim>100</dim>
					<dim>170</dim>
				</port>
			</output>
		</layer>
		<layer id="241" name="bottleneck2_3/add" type="Add" version="opset1">
			<data auto_broadcast="numpy" />
			<input>
				<port id="0" precision="FP32">
					<dim>1</dim>
					<dim>64</dim>
					<dim>100</dim>
					<dim>170</dim>
				</port>
				<port id="1" precision="FP32">
					<dim>1</dim>
					<dim>64</dim>
					<dim>100</dim>
					<dim>170</dim>
				</port>
			</input>
			<output>
				<port id="2" precision="FP32" names="bottleneck2_3/add">
					<dim>1</dim>
					<dim>64</dim>
					<dim>100</dim>
					<dim>170</dim>
				</port>
			</output>
		</layer>
		<layer id="242" name="bottleneck2_3/fn/weights5755874173_compressed" type="Const" version="opset1">
			<data element_type="f16" shape="1" offset="2332" size="2" />
			<output>
				<port id="0" precision="FP16">
					<dim>1</dim>
				</port>
			</output>
		</layer>
		<layer id="243" name="bottleneck2_3/fn/weights5755874173" type="Convert" version="opset1">
			<data destination_type="f32" />
			<rt_info>
				<attribute name="decompression" version="0" />
			</rt_info>
			<input>
				<port id="0" precision="FP16">
					<dim>1</dim>
				</port>
			</input>
			<output>
				<port id="1" precision="FP32">
					<dim>1</dim>
				</port>
			</output>
		</layer>
		<layer id="244" name="bottleneck2_3/fn" type="PReLU" version="opset1">
			<input>
				<port id="0" precision="FP32">
					<dim>1</dim>
					<dim>64</dim>
					<dim>100</dim>
					<dim>170</dim>
				</port>
				<port id="1" precision="FP32">
					<dim>1</dim>
				</port>
			</input>
			<output>
				<port id="2" precision="FP32" names="bottleneck2_3/add">
					<dim>1</dim>
					<dim>64</dim>
					<dim>100</dim>
					<dim>170</dim>
				</port>
			</output>
		</layer>
		<layer id="245" name="bottleneck2_4/dim_red/bn/mean/Fused_Mul__copy_compressed" type="Const" version="opset1">
			<data element_type="f16" shape="16, 64, 1, 1" offset="28366" size="2048" />
			<output>
				<port id="0" precision="FP16">
					<dim>16</dim>
					<dim>64</dim>
					<dim>1</dim>
					<dim>1</dim>
				</port>
			</output>
		</layer>
		<layer id="246" name="bottleneck2_4/dim_red/bn/mean/Fused_Mul__copy" type="Convert" version="opset1">
			<data destination_type="f32" />
			<rt_info>
				<attribute name="decompression" version="0" />
			</rt_info>
			<input>
				<port id="0" precision="FP16">
					<dim>16</dim>
					<dim>64</dim>
					<dim>1</dim>
					<dim>1</dim>
				</port>
			</input>
			<output>
				<port id="1" precision="FP32">
					<dim>16</dim>
					<dim>64</dim>
					<dim>1</dim>
					<dim>1</dim>
				</port>
			</output>
		</layer>
		<layer id="247" name="bottleneck2_4/dim_red/conv" type="Convolution" version="opset1">
			<data strides="1, 1" dilations="1, 1" pads_begin="0, 0" pads_end="0, 0" auto_pad="explicit" />
			<input>
				<port id="0" precision="FP32">
					<dim>1</dim>
					<dim>64</dim>
					<dim>100</dim>
					<dim>170</dim>
				</port>
				<port id="1" precision="FP32">
					<dim>16</dim>
					<dim>64</dim>
					<dim>1</dim>
					<dim>1</dim>
				</port>
			</input>
			<output>
				<port id="2" precision="FP32">
					<dim>1</dim>
					<dim>16</dim>
					<dim>100</dim>
					<dim>170</dim>
				</port>
			</output>
		</layer>
		<layer id="248" name="data_add_4520845213_compressed" type="Const" version="opset1">
			<data element_type="f16" shape="1, 16, 1, 1" offset="30414" size="32" />
			<output>
				<port id="0" precision="FP16">
					<dim>1</dim>
					<dim>16</dim>
					<dim>1</dim>
					<dim>1</dim>
				</port>
			</output>
		</layer>
		<layer id="249" name="data_add_4520845213" type="Convert" version="opset1">
			<data destination_type="f32" />
			<rt_info>
				<attribute name="decompression" version="0" />
			</rt_info>
			<input>
				<port id="0" precision="FP16">
					<dim>1</dim>
					<dim>16</dim>
					<dim>1</dim>
					<dim>1</dim>
				</port>
			</input>
			<output>
				<port id="1" precision="FP32">
					<dim>1</dim>
					<dim>16</dim>
					<dim>1</dim>
					<dim>1</dim>
				</port>
			</output>
		</layer>
		<layer id="250" name="bottleneck2_4/dim_red/bn/variance/Fused_Add_" type="Add" version="opset1">
			<data auto_broadcast="numpy" />
			<input>
				<port id="0" precision="FP32">
					<dim>1</dim>
					<dim>16</dim>
					<dim>100</dim>
					<dim>170</dim>
				</port>
				<port id="1" precision="FP32">
					<dim>1</dim>
					<dim>16</dim>
					<dim>1</dim>
					<dim>1</dim>
				</port>
			</input>
			<output>
				<port id="2" precision="FP32" names="bottleneck2_4/dim_red/conv">
					<dim>1</dim>
					<dim>16</dim>
					<dim>100</dim>
					<dim>170</dim>
				</port>
			</output>
		</layer>
		<layer id="251" name="bottleneck2_4/dim_red/fn/weights5720674752_compressed" type="Const" version="opset1">
			<data element_type="f16" shape="1" offset="2332" size="2" />
			<output>
				<port id="0" precision="FP16">
					<dim>1</dim>
				</port>
			</output>
		</layer>
		<layer id="252" name="bottleneck2_4/dim_red/fn/weights5720674752" type="Convert" version="opset1">
			<data destination_type="f32" />
			<rt_info>
				<attribute name="decompression" version="0" />
			</rt_info>
			<input>
				<port id="0" precision="FP16">
					<dim>1</dim>
				</port>
			</input>
			<output>
				<port id="1" precision="FP32">
					<dim>1</dim>
				</port>
			</output>
		</layer>
		<layer id="253" name="bottleneck2_4/dim_red/fn" type="PReLU" version="opset1">
			<input>
				<port id="0" precision="FP32">
					<dim>1</dim>
					<dim>16</dim>
					<dim>100</dim>
					<dim>170</dim>
				</port>
				<port id="1" precision="FP32">
					<dim>1</dim>
				</port>
			</input>
			<output>
				<port id="2" precision="FP32" names="bottleneck2_4/dim_red/conv">
					<dim>1</dim>
					<dim>16</dim>
					<dim>100</dim>
					<dim>170</dim>
				</port>
			</output>
		</layer>
		<layer id="254" name="bottleneck2_4/inner/dw1/bn/mean/Fused_Mul__copy_compressed" type="Const" version="opset1">
			<data element_type="f16" shape="16, 1, 1, 3, 3" offset="30446" size="288" />
			<output>
				<port id="0" precision="FP16">
					<dim>16</dim>
					<dim>1</dim>
					<dim>1</dim>
					<dim>3</dim>
					<dim>3</dim>
				</port>
			</output>
		</layer>
		<layer id="255" name="bottleneck2_4/inner/dw1/bn/mean/Fused_Mul__copy" type="Convert" version="opset1">
			<data destination_type="f32" />
			<rt_info>
				<attribute name="decompression" version="0" />
			</rt_info>
			<input>
				<port id="0" precision="FP16">
					<dim>16</dim>
					<dim>1</dim>
					<dim>1</dim>
					<dim>3</dim>
					<dim>3</dim>
				</port>
			</input>
			<output>
				<port id="1" precision="FP32">
					<dim>16</dim>
					<dim>1</dim>
					<dim>1</dim>
					<dim>3</dim>
					<dim>3</dim>
				</port>
			</output>
		</layer>
		<layer id="256" name="bottleneck2_4/inner/dw1/conv" type="GroupConvolution" version="opset1">
			<data strides="1, 1" pads_begin="1, 1" pads_end="1, 1" dilations="1, 1" auto_pad="explicit" />
			<input>
				<port id="0" precision="FP32">
					<dim>1</dim>
					<dim>16</dim>
					<dim>100</dim>
					<dim>170</dim>
				</port>
				<port id="1" precision="FP32">
					<dim>16</dim>
					<dim>1</dim>
					<dim>1</dim>
					<dim>3</dim>
					<dim>3</dim>
				</port>
			</input>
			<output>
				<port id="2" precision="FP32">
					<dim>1</dim>
					<dim>16</dim>
					<dim>100</dim>
					<dim>170</dim>
				</port>
			</output>
		</layer>
		<layer id="257" name="data_add_4521645221_compressed" type="Const" version="opset1">
			<data element_type="f16" shape="1, 16, 1, 1" offset="30734" size="32" />
			<output>
				<port id="0" precision="FP16">
					<dim>1</dim>
					<dim>16</dim>
					<dim>1</dim>
					<dim>1</dim>
				</port>
			</output>
		</layer>
		<layer id="258" name="data_add_4521645221" type="Convert" version="opset1">
			<data destination_type="f32" />
			<rt_info>
				<attribute name="decompression" version="0" />
			</rt_info>
			<input>
				<port id="0" precision="FP16">
					<dim>1</dim>
					<dim>16</dim>
					<dim>1</dim>
					<dim>1</dim>
				</port>
			</input>
			<output>
				<port id="1" precision="FP32">
					<dim>1</dim>
					<dim>16</dim>
					<dim>1</dim>
					<dim>1</dim>
				</port>
			</output>
		</layer>
		<layer id="259" name="bottleneck2_4/inner/dw1/bn/variance/Fused_Add_" type="Add" version="opset1">
			<data auto_broadcast="numpy" />
			<input>
				<port id="0" precision="FP32">
					<dim>1</dim>
					<dim>16</dim>
					<dim>100</dim>
					<dim>170</dim>
				</port>
				<port id="1" precision="FP32">
					<dim>1</dim>
					<dim>16</dim>
					<dim>1</dim>
					<dim>1</dim>
				</port>
			</input>
			<output>
				<port id="2" precision="FP32" names="bottleneck2_4/inner/dw1/conv">
					<dim>1</dim>
					<dim>16</dim>
					<dim>100</dim>
					<dim>170</dim>
				</port>
			</output>
		</layer>
		<layer id="260" name="bottleneck2_4/inner/dw1/fn/weights5698674083_compressed" type="Const" version="opset1">
			<data element_type="f16" shape="1" offset="2332" size="2" />
			<output>
				<port id="0" precision="FP16">
					<dim>1</dim>
				</port>
			</output>
		</layer>
		<layer id="261" name="bottleneck2_4/inner/dw1/fn/weights5698674083" type="Convert" version="opset1">
			<data destination_type="f32" />
			<rt_info>
				<attribute name="decompression" version="0" />
			</rt_info>
			<input>
				<port id="0" precision="FP16">
					<dim>1</dim>
				</port>
			</input>
			<output>
				<port id="1" precision="FP32">
					<dim>1</dim>
				</port>
			</output>
		</layer>
		<layer id="262" name="bottleneck2_4/inner/dw1/fn" type="PReLU" version="opset1">
			<input>
				<port id="0" precision="FP32">
					<dim>1</dim>
					<dim>16</dim>
					<dim>100</dim>
					<dim>170</dim>
				</port>
				<port id="1" precision="FP32">
					<dim>1</dim>
				</port>
			</input>
			<output>
				<port id="2" precision="FP32" names="bottleneck2_4/inner/dw1/conv">
					<dim>1</dim>
					<dim>16</dim>
					<dim>100</dim>
					<dim>170</dim>
				</port>
			</output>
		</layer>
		<layer id="263" name="bottleneck2_4/dim_inc/bn/mean/Fused_Mul__copy_compressed" type="Const" version="opset1">
			<data element_type="f16" shape="64, 16, 1, 1" offset="30766" size="2048" />
			<output>
				<port id="0" precision="FP16">
					<dim>64</dim>
					<dim>16</dim>
					<dim>1</dim>
					<dim>1</dim>
				</port>
			</output>
		</layer>
		<layer id="264" name="bottleneck2_4/dim_inc/bn/mean/Fused_Mul__copy" type="Convert" version="opset1">
			<data destination_type="f32" />
			<rt_info>
				<attribute name="decompression" version="0" />
			</rt_info>
			<input>
				<port id="0" precision="FP16">
					<dim>64</dim>
					<dim>16</dim>
					<dim>1</dim>
					<dim>1</dim>
				</port>
			</input>
			<output>
				<port id="1" precision="FP32">
					<dim>64</dim>
					<dim>16</dim>
					<dim>1</dim>
					<dim>1</dim>
				</port>
			</output>
		</layer>
		<layer id="265" name="bottleneck2_4/dim_inc/conv" type="Convolution" version="opset1">
			<data strides="1, 1" dilations="1, 1" pads_begin="0, 0" pads_end="0, 0" auto_pad="explicit" />
			<input>
				<port id="0" precision="FP32">
					<dim>1</dim>
					<dim>16</dim>
					<dim>100</dim>
					<dim>170</dim>
				</port>
				<port id="1" precision="FP32">
					<dim>64</dim>
					<dim>16</dim>
					<dim>1</dim>
					<dim>1</dim>
				</port>
			</input>
			<output>
				<port id="2" precision="FP32">
					<dim>1</dim>
					<dim>64</dim>
					<dim>100</dim>
					<dim>170</dim>
				</port>
			</output>
		</layer>
		<layer id="266" name="data_add_4522445229_compressed" type="Const" version="opset1">
			<data element_type="f16" shape="1, 64, 1, 1" offset="32814" size="128" />
			<output>
				<port id="0" precision="FP16">
					<dim>1</dim>
					<dim>64</dim>
					<dim>1</dim>
					<dim>1</dim>
				</port>
			</output>
		</layer>
		<layer id="267" name="data_add_4522445229" type="Convert" version="opset1">
			<data destination_type="f32" />
			<rt_info>
				<attribute name="decompression" version="0" />
			</rt_info>
			<input>
				<port id="0" precision="FP16">
					<dim>1</dim>
					<dim>64</dim>
					<dim>1</dim>
					<dim>1</dim>
				</port>
			</input>
			<output>
				<port id="1" precision="FP32">
					<dim>1</dim>
					<dim>64</dim>
					<dim>1</dim>
					<dim>1</dim>
				</port>
			</output>
		</layer>
		<layer id="268" name="bottleneck2_4/dim_inc/bn/variance/Fused_Add_" type="Add" version="opset1">
			<data auto_broadcast="numpy" />
			<input>
				<port id="0" precision="FP32">
					<dim>1</dim>
					<dim>64</dim>
					<dim>100</dim>
					<dim>170</dim>
				</port>
				<port id="1" precision="FP32">
					<dim>1</dim>
					<dim>64</dim>
					<dim>1</dim>
					<dim>1</dim>
				</port>
			</input>
			<output>
				<port id="2" precision="FP32" names="bottleneck2_4/dim_inc/conv,bottleneck2_4/dim_inc/dropout">
					<dim>1</dim>
					<dim>64</dim>
					<dim>100</dim>
					<dim>170</dim>
				</port>
			</output>
		</layer>
		<layer id="269" name="bottleneck2_4/add" type="Add" version="opset1">
			<data auto_broadcast="numpy" />
			<input>
				<port id="0" precision="FP32">
					<dim>1</dim>
					<dim>64</dim>
					<dim>100</dim>
					<dim>170</dim>
				</port>
				<port id="1" precision="FP32">
					<dim>1</dim>
					<dim>64</dim>
					<dim>100</dim>
					<dim>170</dim>
				</port>
			</input>
			<output>
				<port id="2" precision="FP32" names="bottleneck2_4/add">
					<dim>1</dim>
					<dim>64</dim>
					<dim>100</dim>
					<dim>170</dim>
				</port>
			</output>
		</layer>
		<layer id="270" name="bottleneck2_4/fn/weights5704674761_compressed" type="Const" version="opset1">
			<data element_type="f16" shape="1" offset="2332" size="2" />
			<output>
				<port id="0" precision="FP16">
					<dim>1</dim>
				</port>
			</output>
		</layer>
		<layer id="271" name="bottleneck2_4/fn/weights5704674761" type="Convert" version="opset1">
			<data destination_type="f32" />
			<rt_info>
				<attribute name="decompression" version="0" />
			</rt_info>
			<input>
				<port id="0" precision="FP16">
					<dim>1</dim>
				</port>
			</input>
			<output>
				<port id="1" precision="FP32">
					<dim>1</dim>
				</port>
			</output>
		</layer>
		<layer id="272" name="bottleneck2_4/fn" type="PReLU" version="opset1">
			<input>
				<port id="0" precision="FP32">
					<dim>1</dim>
					<dim>64</dim>
					<dim>100</dim>
					<dim>170</dim>
				</port>
				<port id="1" precision="FP32">
					<dim>1</dim>
				</port>
			</input>
			<output>
				<port id="2" precision="FP32" names="bottleneck2_4/add">
					<dim>1</dim>
					<dim>64</dim>
					<dim>100</dim>
					<dim>170</dim>
				</port>
			</output>
		</layer>
		<layer id="273" name="bottleneck2_5/dim_red/bn/mean/Fused_Mul__copy_compressed" type="Const" version="opset1">
			<data element_type="f16" shape="16, 64, 1, 1" offset="32942" size="2048" />
			<output>
				<port id="0" precision="FP16">
					<dim>16</dim>
					<dim>64</dim>
					<dim>1</dim>
					<dim>1</dim>
				</port>
			</output>
		</layer>
		<layer id="274" name="bottleneck2_5/dim_red/bn/mean/Fused_Mul__copy" type="Convert" version="opset1">
			<data destination_type="f32" />
			<rt_info>
				<attribute name="decompression" version="0" />
			</rt_info>
			<input>
				<port id="0" precision="FP16">
					<dim>16</dim>
					<dim>64</dim>
					<dim>1</dim>
					<dim>1</dim>
				</port>
			</input>
			<output>
				<port id="1" precision="FP32">
					<dim>16</dim>
					<dim>64</dim>
					<dim>1</dim>
					<dim>1</dim>
				</port>
			</output>
		</layer>
		<layer id="275" name="bottleneck2_5/dim_red/conv" type="Convolution" version="opset1">
			<data strides="1, 1" dilations="1, 1" pads_begin="0, 0" pads_end="0, 0" auto_pad="explicit" />
			<input>
				<port id="0" precision="FP32">
					<dim>1</dim>
					<dim>64</dim>
					<dim>100</dim>
					<dim>170</dim>
				</port>
				<port id="1" precision="FP32">
					<dim>16</dim>
					<dim>64</dim>
					<dim>1</dim>
					<dim>1</dim>
				</port>
			</input>
			<output>
				<port id="2" precision="FP32">
					<dim>1</dim>
					<dim>16</dim>
					<dim>100</dim>
					<dim>170</dim>
				</port>
			</output>
		</layer>
		<layer id="276" name="data_add_4523245237_compressed" type="Const" version="opset1">
			<data element_type="f16" shape="1, 16, 1, 1" offset="34990" size="32" />
			<output>
				<port id="0" precision="FP16">
					<dim>1</dim>
					<dim>16</dim>
					<dim>1</dim>
					<dim>1</dim>
				</port>
			</output>
		</layer>
		<layer id="277" name="data_add_4523245237" type="Convert" version="opset1">
			<data destination_type="f32" />
			<rt_info>
				<attribute name="decompression" version="0" />
			</rt_info>
			<input>
				<port id="0" precision="FP16">
					<dim>1</dim>
					<dim>16</dim>
					<dim>1</dim>
					<dim>1</dim>
				</port>
			</input>
			<output>
				<port id="1" precision="FP32">
					<dim>1</dim>
					<dim>16</dim>
					<dim>1</dim>
					<dim>1</dim>
				</port>
			</output>
		</layer>
		<layer id="278" name="bottleneck2_5/dim_red/bn/variance/Fused_Add_" type="Add" version="opset1">
			<data auto_broadcast="numpy" />
			<input>
				<port id="0" precision="FP32">
					<dim>1</dim>
					<dim>16</dim>
					<dim>100</dim>
					<dim>170</dim>
				</port>
				<port id="1" precision="FP32">
					<dim>1</dim>
					<dim>16</dim>
					<dim>1</dim>
					<dim>1</dim>
				</port>
			</input>
			<output>
				<port id="2" precision="FP32" names="bottleneck2_5/dim_red/conv">
					<dim>1</dim>
					<dim>16</dim>
					<dim>100</dim>
					<dim>170</dim>
				</port>
			</output>
		</layer>
		<layer id="279" name="bottleneck2_5/dim_red/fn/weights5695474764_compressed" type="Const" version="opset1">
			<data element_type="f16" shape="1" offset="2332" size="2" />
			<output>
				<port id="0" precision="FP16">
					<dim>1</dim>
				</port>
			</output>
		</layer>
		<layer id="280" name="bottleneck2_5/dim_red/fn/weights5695474764" type="Convert" version="opset1">
			<data destination_type="f32" />
			<rt_info>
				<attribute name="decompression" version="0" />
			</rt_info>
			<input>
				<port id="0" precision="FP16">
					<dim>1</dim>
				</port>
			</input>
			<output>
				<port id="1" precision="FP32">
					<dim>1</dim>
				</port>
			</output>
		</layer>
		<layer id="281" name="bottleneck2_5/dim_red/fn" type="PReLU" version="opset1">
			<input>
				<port id="0" precision="FP32">
					<dim>1</dim>
					<dim>16</dim>
					<dim>100</dim>
					<dim>170</dim>
				</port>
				<port id="1" precision="FP32">
					<dim>1</dim>
				</port>
			</input>
			<output>
				<port id="2" precision="FP32" names="bottleneck2_5/dim_red/conv">
					<dim>1</dim>
					<dim>16</dim>
					<dim>100</dim>
					<dim>170</dim>
				</port>
			</output>
		</layer>
		<layer id="282" name="bottleneck2_5/inner/dw1/bn/mean/Fused_Mul__copy_compressed" type="Const" version="opset1">
			<data element_type="f16" shape="16, 1, 1, 3, 3" offset="35022" size="288" />
			<output>
				<port id="0" precision="FP16">
					<dim>16</dim>
					<dim>1</dim>
					<dim>1</dim>
					<dim>3</dim>
					<dim>3</dim>
				</port>
			</output>
		</layer>
		<layer id="283" name="bottleneck2_5/inner/dw1/bn/mean/Fused_Mul__copy" type="Convert" version="opset1">
			<data destination_type="f32" />
			<rt_info>
				<attribute name="decompression" version="0" />
			</rt_info>
			<input>
				<port id="0" precision="FP16">
					<dim>16</dim>
					<dim>1</dim>
					<dim>1</dim>
					<dim>3</dim>
					<dim>3</dim>
				</port>
			</input>
			<output>
				<port id="1" precision="FP32">
					<dim>16</dim>
					<dim>1</dim>
					<dim>1</dim>
					<dim>3</dim>
					<dim>3</dim>
				</port>
			</output>
		</layer>
		<layer id="284" name="bottleneck2_5/inner/dw1/conv" type="GroupConvolution" version="opset1">
			<data strides="1, 1" pads_begin="1, 1" pads_end="1, 1" dilations="1, 1" auto_pad="explicit" />
			<input>
				<port id="0" precision="FP32">
					<dim>1</dim>
					<dim>16</dim>
					<dim>100</dim>
					<dim>170</dim>
				</port>
				<port id="1" precision="FP32">
					<dim>16</dim>
					<dim>1</dim>
					<dim>1</dim>
					<dim>3</dim>
					<dim>3</dim>
				</port>
			</input>
			<output>
				<port id="2" precision="FP32">
					<dim>1</dim>
					<dim>16</dim>
					<dim>100</dim>
					<dim>170</dim>
				</port>
			</output>
		</layer>
		<layer id="285" name="data_add_4524045245_compressed" type="Const" version="opset1">
			<data element_type="f16" shape="1, 16, 1, 1" offset="35310" size="32" />
			<output>
				<port id="0" precision="FP16">
					<dim>1</dim>
					<dim>16</dim>
					<dim>1</dim>
					<dim>1</dim>
				</port>
			</output>
		</layer>
		<layer id="286" name="data_add_4524045245" type="Convert" version="opset1">
			<data destination_type="f32" />
			<rt_info>
				<attribute name="decompression" version="0" />
			</rt_info>
			<input>
				<port id="0" precision="FP16">
					<dim>1</dim>
					<dim>16</dim>
					<dim>1</dim>
					<dim>1</dim>
				</port>
			</input>
			<output>
				<port id="1" precision="FP32">
					<dim>1</dim>
					<dim>16</dim>
					<dim>1</dim>
					<dim>1</dim>
				</port>
			</output>
		</layer>
		<layer id="287" name="bottleneck2_5/inner/dw1/bn/variance/Fused_Add_" type="Add" version="opset1">
			<data auto_broadcast="numpy" />
			<input>
				<port id="0" precision="FP32">
					<dim>1</dim>
					<dim>16</dim>
					<dim>100</dim>
					<dim>170</dim>
				</port>
				<port id="1" precision="FP32">
					<dim>1</dim>
					<dim>16</dim>
					<dim>1</dim>
					<dim>1</dim>
				</port>
			</input>
			<output>
				<port id="2" precision="FP32" names="bottleneck2_5/inner/dw1/conv">
					<dim>1</dim>
					<dim>16</dim>
					<dim>100</dim>
					<dim>170</dim>
				</port>
			</output>
		</layer>
		<layer id="288" name="bottleneck2_5/inner/dw1/fn/weights5707074539_compressed" type="Const" version="opset1">
			<data element_type="f16" shape="1" offset="2332" size="2" />
			<output>
				<port id="0" precision="FP16">
					<dim>1</dim>
				</port>
			</output>
		</layer>
		<layer id="289" name="bottleneck2_5/inner/dw1/fn/weights5707074539" type="Convert" version="opset1">
			<data destination_type="f32" />
			<rt_info>
				<attribute name="decompression" version="0" />
			</rt_info>
			<input>
				<port id="0" precision="FP16">
					<dim>1</dim>
				</port>
			</input>
			<output>
				<port id="1" precision="FP32">
					<dim>1</dim>
				</port>
			</output>
		</layer>
		<layer id="290" name="bottleneck2_5/inner/dw1/fn" type="PReLU" version="opset1">
			<input>
				<port id="0" precision="FP32">
					<dim>1</dim>
					<dim>16</dim>
					<dim>100</dim>
					<dim>170</dim>
				</port>
				<port id="1" precision="FP32">
					<dim>1</dim>
				</port>
			</input>
			<output>
				<port id="2" precision="FP32" names="bottleneck2_5/inner/dw1/conv">
					<dim>1</dim>
					<dim>16</dim>
					<dim>100</dim>
					<dim>170</dim>
				</port>
			</output>
		</layer>
		<layer id="291" name="bottleneck2_5/dim_inc/bn/mean/Fused_Mul__copy_compressed" type="Const" version="opset1">
			<data element_type="f16" shape="64, 16, 1, 1" offset="35342" size="2048" />
			<output>
				<port id="0" precision="FP16">
					<dim>64</dim>
					<dim>16</dim>
					<dim>1</dim>
					<dim>1</dim>
				</port>
			</output>
		</layer>
		<layer id="292" name="bottleneck2_5/dim_inc/bn/mean/Fused_Mul__copy" type="Convert" version="opset1">
			<data destination_type="f32" />
			<rt_info>
				<attribute name="decompression" version="0" />
			</rt_info>
			<input>
				<port id="0" precision="FP16">
					<dim>64</dim>
					<dim>16</dim>
					<dim>1</dim>
					<dim>1</dim>
				</port>
			</input>
			<output>
				<port id="1" precision="FP32">
					<dim>64</dim>
					<dim>16</dim>
					<dim>1</dim>
					<dim>1</dim>
				</port>
			</output>
		</layer>
		<layer id="293" name="bottleneck2_5/dim_inc/conv" type="Convolution" version="opset1">
			<data strides="1, 1" dilations="1, 1" pads_begin="0, 0" pads_end="0, 0" auto_pad="explicit" />
			<input>
				<port id="0" precision="FP32">
					<dim>1</dim>
					<dim>16</dim>
					<dim>100</dim>
					<dim>170</dim>
				</port>
				<port id="1" precision="FP32">
					<dim>64</dim>
					<dim>16</dim>
					<dim>1</dim>
					<dim>1</dim>
				</port>
			</input>
			<output>
				<port id="2" precision="FP32">
					<dim>1</dim>
					<dim>64</dim>
					<dim>100</dim>
					<dim>170</dim>
				</port>
			</output>
		</layer>
		<layer id="294" name="data_add_4524845253_compressed" type="Const" version="opset1">
			<data element_type="f16" shape="1, 64, 1, 1" offset="37390" size="128" />
			<output>
				<port id="0" precision="FP16">
					<dim>1</dim>
					<dim>64</dim>
					<dim>1</dim>
					<dim>1</dim>
				</port>
			</output>
		</layer>
		<layer id="295" name="data_add_4524845253" type="Convert" version="opset1">
			<data destination_type="f32" />
			<rt_info>
				<attribute name="decompression" version="0" />
			</rt_info>
			<input>
				<port id="0" precision="FP16">
					<dim>1</dim>
					<dim>64</dim>
					<dim>1</dim>
					<dim>1</dim>
				</port>
			</input>
			<output>
				<port id="1" precision="FP32">
					<dim>1</dim>
					<dim>64</dim>
					<dim>1</dim>
					<dim>1</dim>
				</port>
			</output>
		</layer>
		<layer id="296" name="bottleneck2_5/dim_inc/bn/variance/Fused_Add_" type="Add" version="opset1">
			<data auto_broadcast="numpy" />
			<input>
				<port id="0" precision="FP32">
					<dim>1</dim>
					<dim>64</dim>
					<dim>100</dim>
					<dim>170</dim>
				</port>
				<port id="1" precision="FP32">
					<dim>1</dim>
					<dim>64</dim>
					<dim>1</dim>
					<dim>1</dim>
				</port>
			</input>
			<output>
				<port id="2" precision="FP32" names="bottleneck2_5/dim_inc/conv,bottleneck2_5/dim_inc/dropout">
					<dim>1</dim>
					<dim>64</dim>
					<dim>100</dim>
					<dim>170</dim>
				</port>
			</output>
		</layer>
		<layer id="297" name="bottleneck2_5/add" type="Add" version="opset1">
			<data auto_broadcast="numpy" />
			<input>
				<port id="0" precision="FP32">
					<dim>1</dim>
					<dim>64</dim>
					<dim>100</dim>
					<dim>170</dim>
				</port>
				<port id="1" precision="FP32">
					<dim>1</dim>
					<dim>64</dim>
					<dim>100</dim>
					<dim>170</dim>
				</port>
			</input>
			<output>
				<port id="2" precision="FP32" names="bottleneck2_5/add">
					<dim>1</dim>
					<dim>64</dim>
					<dim>100</dim>
					<dim>170</dim>
				</port>
			</output>
		</layer>
		<layer id="298" name="bottleneck2_5/fn/weights5683874350_compressed" type="Const" version="opset1">
			<data element_type="f16" shape="1" offset="2332" size="2" />
			<output>
				<port id="0" precision="FP16">
					<dim>1</dim>
				</port>
			</output>
		</layer>
		<layer id="299" name="bottleneck2_5/fn/weights5683874350" type="Convert" version="opset1">
			<data destination_type="f32" />
			<rt_info>
				<attribute name="decompression" version="0" />
			</rt_info>
			<input>
				<port id="0" precision="FP16">
					<dim>1</dim>
				</port>
			</input>
			<output>
				<port id="1" precision="FP32">
					<dim>1</dim>
				</port>
			</output>
		</layer>
		<layer id="300" name="bottleneck2_5/fn" type="PReLU" version="opset1">
			<input>
				<port id="0" precision="FP32">
					<dim>1</dim>
					<dim>64</dim>
					<dim>100</dim>
					<dim>170</dim>
				</port>
				<port id="1" precision="FP32">
					<dim>1</dim>
				</port>
			</input>
			<output>
				<port id="2" precision="FP32" names="bottleneck2_5/add">
					<dim>1</dim>
					<dim>64</dim>
					<dim>100</dim>
					<dim>170</dim>
				</port>
			</output>
		</layer>
		<layer id="301" name="bottleneck2_6/dim_red/bn/mean/Fused_Mul__copy_compressed" type="Const" version="opset1">
			<data element_type="f16" shape="16, 64, 1, 1" offset="37518" size="2048" />
			<output>
				<port id="0" precision="FP16">
					<dim>16</dim>
					<dim>64</dim>
					<dim>1</dim>
					<dim>1</dim>
				</port>
			</output>
		</layer>
		<layer id="302" name="bottleneck2_6/dim_red/bn/mean/Fused_Mul__copy" type="Convert" version="opset1">
			<data destination_type="f32" />
			<rt_info>
				<attribute name="decompression" version="0" />
			</rt_info>
			<input>
				<port id="0" precision="FP16">
					<dim>16</dim>
					<dim>64</dim>
					<dim>1</dim>
					<dim>1</dim>
				</port>
			</input>
			<output>
				<port id="1" precision="FP32">
					<dim>16</dim>
					<dim>64</dim>
					<dim>1</dim>
					<dim>1</dim>
				</port>
			</output>
		</layer>
		<layer id="303" name="bottleneck2_6/dim_red/conv" type="Convolution" version="opset1">
			<data strides="1, 1" dilations="1, 1" pads_begin="0, 0" pads_end="0, 0" auto_pad="explicit" />
			<input>
				<port id="0" precision="FP32">
					<dim>1</dim>
					<dim>64</dim>
					<dim>100</dim>
					<dim>170</dim>
				</port>
				<port id="1" precision="FP32">
					<dim>16</dim>
					<dim>64</dim>
					<dim>1</dim>
					<dim>1</dim>
				</port>
			</input>
			<output>
				<port id="2" precision="FP32">
					<dim>1</dim>
					<dim>16</dim>
					<dim>100</dim>
					<dim>170</dim>
				</port>
			</output>
		</layer>
		<layer id="304" name="data_add_4525645261_compressed" type="Const" version="opset1">
			<data element_type="f16" shape="1, 16, 1, 1" offset="39566" size="32" />
			<output>
				<port id="0" precision="FP16">
					<dim>1</dim>
					<dim>16</dim>
					<dim>1</dim>
					<dim>1</dim>
				</port>
			</output>
		</layer>
		<layer id="305" name="data_add_4525645261" type="Convert" version="opset1">
			<data destination_type="f32" />
			<rt_info>
				<attribute name="decompression" version="0" />
			</rt_info>
			<input>
				<port id="0" precision="FP16">
					<dim>1</dim>
					<dim>16</dim>
					<dim>1</dim>
					<dim>1</dim>
				</port>
			</input>
			<output>
				<port id="1" precision="FP32">
					<dim>1</dim>
					<dim>16</dim>
					<dim>1</dim>
					<dim>1</dim>
				</port>
			</output>
		</layer>
		<layer id="306" name="bottleneck2_6/dim_red/bn/variance/Fused_Add_" type="Add" version="opset1">
			<data auto_broadcast="numpy" />
			<input>
				<port id="0" precision="FP32">
					<dim>1</dim>
					<dim>16</dim>
					<dim>100</dim>
					<dim>170</dim>
				</port>
				<port id="1" precision="FP32">
					<dim>1</dim>
					<dim>16</dim>
					<dim>1</dim>
					<dim>1</dim>
				</port>
			</input>
			<output>
				<port id="2" precision="FP32" names="bottleneck2_6/dim_red/conv">
					<dim>1</dim>
					<dim>16</dim>
					<dim>100</dim>
					<dim>170</dim>
				</port>
			</output>
		</layer>
		<layer id="307" name="bottleneck2_6/dim_red/fn/weights5725475199_compressed" type="Const" version="opset1">
			<data element_type="f16" shape="1" offset="2332" size="2" />
			<output>
				<port id="0" precision="FP16">
					<dim>1</dim>
				</port>
			</output>
		</layer>
		<layer id="308" name="bottleneck2_6/dim_red/fn/weights5725475199" type="Convert" version="opset1">
			<data destination_type="f32" />
			<rt_info>
				<attribute name="decompression" version="0" />
			</rt_info>
			<input>
				<port id="0" precision="FP16">
					<dim>1</dim>
				</port>
			</input>
			<output>
				<port id="1" precision="FP32">
					<dim>1</dim>
				</port>
			</output>
		</layer>
		<layer id="309" name="bottleneck2_6/dim_red/fn" type="PReLU" version="opset1">
			<input>
				<port id="0" precision="FP32">
					<dim>1</dim>
					<dim>16</dim>
					<dim>100</dim>
					<dim>170</dim>
				</port>
				<port id="1" precision="FP32">
					<dim>1</dim>
				</port>
			</input>
			<output>
				<port id="2" precision="FP32" names="bottleneck2_6/dim_red/conv">
					<dim>1</dim>
					<dim>16</dim>
					<dim>100</dim>
					<dim>170</dim>
				</port>
			</output>
		</layer>
		<layer id="310" name="bottleneck2_6/inner/dw1/bn/mean/Fused_Mul__copy_compressed" type="Const" version="opset1">
			<data element_type="f16" shape="16, 1, 1, 3, 3" offset="39598" size="288" />
			<output>
				<port id="0" precision="FP16">
					<dim>16</dim>
					<dim>1</dim>
					<dim>1</dim>
					<dim>3</dim>
					<dim>3</dim>
				</port>
			</output>
		</layer>
		<layer id="311" name="bottleneck2_6/inner/dw1/bn/mean/Fused_Mul__copy" type="Convert" version="opset1">
			<data destination_type="f32" />
			<rt_info>
				<attribute name="decompression" version="0" />
			</rt_info>
			<input>
				<port id="0" precision="FP16">
					<dim>16</dim>
					<dim>1</dim>
					<dim>1</dim>
					<dim>3</dim>
					<dim>3</dim>
				</port>
			</input>
			<output>
				<port id="1" precision="FP32">
					<dim>16</dim>
					<dim>1</dim>
					<dim>1</dim>
					<dim>3</dim>
					<dim>3</dim>
				</port>
			</output>
		</layer>
		<layer id="312" name="bottleneck2_6/inner/dw1/conv" type="GroupConvolution" version="opset1">
			<data strides="1, 1" pads_begin="1, 1" pads_end="1, 1" dilations="1, 1" auto_pad="explicit" />
			<input>
				<port id="0" precision="FP32">
					<dim>1</dim>
					<dim>16</dim>
					<dim>100</dim>
					<dim>170</dim>
				</port>
				<port id="1" precision="FP32">
					<dim>16</dim>
					<dim>1</dim>
					<dim>1</dim>
					<dim>3</dim>
					<dim>3</dim>
				</port>
			</input>
			<output>
				<port id="2" precision="FP32">
					<dim>1</dim>
					<dim>16</dim>
					<dim>100</dim>
					<dim>170</dim>
				</port>
			</output>
		</layer>
		<layer id="313" name="data_add_4526445269_compressed" type="Const" version="opset1">
			<data element_type="f16" shape="1, 16, 1, 1" offset="39886" size="32" />
			<output>
				<port id="0" precision="FP16">
					<dim>1</dim>
					<dim>16</dim>
					<dim>1</dim>
					<dim>1</dim>
				</port>
			</output>
		</layer>
		<layer id="314" name="data_add_4526445269" type="Convert" version="opset1">
			<data destination_type="f32" />
			<rt_info>
				<attribute name="decompression" version="0" />
			</rt_info>
			<input>
				<port id="0" precision="FP16">
					<dim>1</dim>
					<dim>16</dim>
					<dim>1</dim>
					<dim>1</dim>
				</port>
			</input>
			<output>
				<port id="1" precision="FP32">
					<dim>1</dim>
					<dim>16</dim>
					<dim>1</dim>
					<dim>1</dim>
				</port>
			</output>
		</layer>
		<layer id="315" name="bottleneck2_6/inner/dw1/bn/variance/Fused_Add_" type="Add" version="opset1">
			<data auto_broadcast="numpy" />
			<input>
				<port id="0" precision="FP32">
					<dim>1</dim>
					<dim>16</dim>
					<dim>100</dim>
					<dim>170</dim>
				</port>
				<port id="1" precision="FP32">
					<dim>1</dim>
					<dim>16</dim>
					<dim>1</dim>
					<dim>1</dim>
				</port>
			</input>
			<output>
				<port id="2" precision="FP32" names="bottleneck2_6/inner/dw1/conv">
					<dim>1</dim>
					<dim>16</dim>
					<dim>100</dim>
					<dim>170</dim>
				</port>
			</output>
		</layer>
		<layer id="316" name="bottleneck2_6/inner/dw1/fn/weights5691873699_compressed" type="Const" version="opset1">
			<data element_type="f16" shape="1" offset="2332" size="2" />
			<output>
				<port id="0" precision="FP16">
					<dim>1</dim>
				</port>
			</output>
		</layer>
		<layer id="317" name="bottleneck2_6/inner/dw1/fn/weights5691873699" type="Convert" version="opset1">
			<data destination_type="f32" />
			<rt_info>
				<attribute name="decompression" version="0" />
			</rt_info>
			<input>
				<port id="0" precision="FP16">
					<dim>1</dim>
				</port>
			</input>
			<output>
				<port id="1" precision="FP32">
					<dim>1</dim>
				</port>
			</output>
		</layer>
		<layer id="318" name="bottleneck2_6/inner/dw1/fn" type="PReLU" version="opset1">
			<input>
				<port id="0" precision="FP32">
					<dim>1</dim>
					<dim>16</dim>
					<dim>100</dim>
					<dim>170</dim>
				</port>
				<port id="1" precision="FP32">
					<dim>1</dim>
				</port>
			</input>
			<output>
				<port id="2" precision="FP32" names="bottleneck2_6/inner/dw1/conv">
					<dim>1</dim>
					<dim>16</dim>
					<dim>100</dim>
					<dim>170</dim>
				</port>
			</output>
		</layer>
		<layer id="319" name="bottleneck2_6/dim_inc/bn/mean/Fused_Mul__copy_compressed" type="Const" version="opset1">
			<data element_type="f16" shape="64, 16, 1, 1" offset="39918" size="2048" />
			<output>
				<port id="0" precision="FP16">
					<dim>64</dim>
					<dim>16</dim>
					<dim>1</dim>
					<dim>1</dim>
				</port>
			</output>
		</layer>
		<layer id="320" name="bottleneck2_6/dim_inc/bn/mean/Fused_Mul__copy" type="Convert" version="opset1">
			<data destination_type="f32" />
			<rt_info>
				<attribute name="decompression" version="0" />
			</rt_info>
			<input>
				<port id="0" precision="FP16">
					<dim>64</dim>
					<dim>16</dim>
					<dim>1</dim>
					<dim>1</dim>
				</port>
			</input>
			<output>
				<port id="1" precision="FP32">
					<dim>64</dim>
					<dim>16</dim>
					<dim>1</dim>
					<dim>1</dim>
				</port>
			</output>
		</layer>
		<layer id="321" name="bottleneck2_6/dim_inc/conv" type="Convolution" version="opset1">
			<data strides="1, 1" dilations="1, 1" pads_begin="0, 0" pads_end="0, 0" auto_pad="explicit" />
			<input>
				<port id="0" precision="FP32">
					<dim>1</dim>
					<dim>16</dim>
					<dim>100</dim>
					<dim>170</dim>
				</port>
				<port id="1" precision="FP32">
					<dim>64</dim>
					<dim>16</dim>
					<dim>1</dim>
					<dim>1</dim>
				</port>
			</input>
			<output>
				<port id="2" precision="FP32">
					<dim>1</dim>
					<dim>64</dim>
					<dim>100</dim>
					<dim>170</dim>
				</port>
			</output>
		</layer>
		<layer id="322" name="data_add_4527245277_compressed" type="Const" version="opset1">
			<data element_type="f16" shape="1, 64, 1, 1" offset="41966" size="128" />
			<output>
				<port id="0" precision="FP16">
					<dim>1</dim>
					<dim>64</dim>
					<dim>1</dim>
					<dim>1</dim>
				</port>
			</output>
		</layer>
		<layer id="323" name="data_add_4527245277" type="Convert" version="opset1">
			<data destination_type="f32" />
			<rt_info>
				<attribute name="decompression" version="0" />
			</rt_info>
			<input>
				<port id="0" precision="FP16">
					<dim>1</dim>
					<dim>64</dim>
					<dim>1</dim>
					<dim>1</dim>
				</port>
			</input>
			<output>
				<port id="1" precision="FP32">
					<dim>1</dim>
					<dim>64</dim>
					<dim>1</dim>
					<dim>1</dim>
				</port>
			</output>
		</layer>
		<layer id="324" name="bottleneck2_6/dim_inc/bn/variance/Fused_Add_" type="Add" version="opset1">
			<data auto_broadcast="numpy" />
			<input>
				<port id="0" precision="FP32">
					<dim>1</dim>
					<dim>64</dim>
					<dim>100</dim>
					<dim>170</dim>
				</port>
				<port id="1" precision="FP32">
					<dim>1</dim>
					<dim>64</dim>
					<dim>1</dim>
					<dim>1</dim>
				</port>
			</input>
			<output>
				<port id="2" precision="FP32" names="bottleneck2_6/dim_inc/conv,bottleneck2_6/dim_inc/dropout">
					<dim>1</dim>
					<dim>64</dim>
					<dim>100</dim>
					<dim>170</dim>
				</port>
			</output>
		</layer>
		<layer id="325" name="bottleneck2_6/add" type="Add" version="opset1">
			<data auto_broadcast="numpy" />
			<input>
				<port id="0" precision="FP32">
					<dim>1</dim>
					<dim>64</dim>
					<dim>100</dim>
					<dim>170</dim>
				</port>
				<port id="1" precision="FP32">
					<dim>1</dim>
					<dim>64</dim>
					<dim>100</dim>
					<dim>170</dim>
				</port>
			</input>
			<output>
				<port id="2" precision="FP32" names="bottleneck2_6/add">
					<dim>1</dim>
					<dim>64</dim>
					<dim>100</dim>
					<dim>170</dim>
				</port>
			</output>
		</layer>
		<layer id="326" name="bottleneck2_6/fn/weights5738274164_compressed" type="Const" version="opset1">
			<data element_type="f16" shape="1" offset="2332" size="2" />
			<output>
				<port id="0" precision="FP16">
					<dim>1</dim>
				</port>
			</output>
		</layer>
…
		<edge from-layer="1275" from-port="2" to-layer="1278" to-port="0" />
		<edge from-layer="1276" from-port="0" to-layer="1277" to-port="0" />
		<edge from-layer="1277" from-port="1" to-layer="1278" to-port="1" />
		<edge from-layer="1278" from-port="2" to-layer="1281" to-port="0" />
		<edge from-layer="1279" from-port="0" to-layer="1280" to-port="0" />
		<edge from-layer="1280" from-port="1" to-layer="1281" to-port="1" />
		<edge from-layer="1281" from-port="2" to-layer="1284" to-port="0" />
		<edge from-layer="1282" from-port="0" to-layer="1283" to-port="0" />
		<edge from-layer="1283" from-port="1" to-layer="1284" to-port="1" />
		<edge from-layer="1284" from-port="2" to-layer="1287" to-port="0" />
		<edge from-layer="1285" from-port="0" to-layer="1286" to-port="0" />
		<edge from-layer="1286" from-port="1" to-layer="1287" to-port="1" />
		<edge from-layer="1287" from-port="2" to-layer="1290" to-port="0" />
		<edge from-layer="1288" from-port="0" to-layer="1289" to-port="0" />
		<edge from-layer="1289" from-port="1" to-layer="1290" to-port="1" />
		<edge from-layer="1290" from-port="2" to-layer="1293" to-port="0" />
		<edge from-layer="1291" from-port="0" to-layer="1292" to-port="0" />
		<edge from-layer="1292" from-port="1" to-layer="1293" to-port="1" />
		<edge from-layer="1293" from-port="2" to-layer="1294" to-port="1" />
		<edge from-layer="1294" from-port="2" to-layer="1297" to-port="0" />
		<edge from-layer="1295" from-port="0" to-layer="1296" to-port="0" />
		<edge from-layer="1296" from-port="1" to-layer="1297" to-port="1" />
		<edge from-layer="1297" from-port="2" to-layer="1300" to-port="0" />
		<edge from-layer="1297" from-port="2" to-layer="1322" to-port="0" />
		<edge from-layer="1298" from-port="0" to-layer="1299" to-port="0" />
		<edge from-layer="1299" from-port="1" to-layer="1300" to-port="1" />
		<edge from-layer="1300" from-port="2" to-layer="1303" to-port="0" />
		<edge from-layer="1301" from-port="0" to-layer="1302" to-port="0" />
		<edge from-layer="1302" from-port="1" to-layer="1303" to-port="1" />
		<edge from-layer="1303" from-port="2" to-layer="1306" to-port="0" />
		<edge from-layer="1304" from-port="0" to-layer="1305" to-port="0" />
		<edge from-layer="1305" from-port="1" to-layer="1306" to-port="1" />
		<edge from-layer="1306" from-port="2" to-layer="1309" to-port="0" />
		<edge from-layer="1307" from-port="0" to-layer="1308" to-port="0" />
		<edge from-layer="1308" from-port="1" to-layer="1309" to-port="1" />
		<edge from-layer="1309" from-port="2" to-layer="1312" to-port="0" />
		<edge from-layer="1310" from-port="0" to-layer="1311" to-port="0" />
		<edge from-layer="1311" from-port="1" to-layer="1312" to-port="1" />
		<edge from-layer="1312" from-port="2" to-layer="1315" to-port="0" />
		<edge from-layer="1313" from-port="0" to-layer="1314" to-port="0" />
		<edge from-layer="1314" from-port="1" to-layer="1315" to-port="1" />
		<edge from-layer="1315" from-port="2" to-layer="1318" to-port="0" />
		<edge from-layer="1316" from-port="0" to-layer="1317" to-port="0" />
		<edge from-layer="1317" from-port="1" to-layer="1318" to-port="1" />
		<edge from-layer="1318" from-port="2" to-layer="1321" to-port="0" />
		<edge from-layer="1319" from-port="0" to-layer="1320" to-port="0" />
		<edge from-layer="1320" from-port="1" to-layer="1321" to-port="1" />
		<edge from-layer="1321" from-port="2" to-layer="1322" to-port="1" />
		<edge from-layer="1322" from-port="2" to-layer="1325" to-port="0" />
		<edge from-layer="1323" from-port="0" to-layer="1324" to-port="0" />
		<edge from-layer="1324" from-port="1" to-layer="1325" to-port="1" />
		<edge from-layer="1325" from-port="2" to-layer="1328" to-port="0" />
		<edge from-layer="1325" from-port="2" to-layer="1350" to-port="0" />
		<edge from-layer="1326" from-port="0" to-layer="1327" to-port="0" />
		<edge from-layer="1327" from-port="1" to-layer="1328" to-port="1" />
		<edge from-layer="1328" from-port="2" to-layer="1331" to-port="0" />
		<edge from-layer="1329" from-port="0" to-layer="1330" to-port="0" />
		<edge from-layer="1330" from-port="1" to-layer="1331" to-port="1" />
		<edge from-layer="1331" from-port="2" to-layer="1334" to-port="0" />
		<edge from-layer="1332" from-port="0" to-layer="1333" to-port="0" />
		<edge from-layer="1333" from-port="1" to-layer="1334" to-port="1" />
		<edge from-layer="1334" from-port="2" to-layer="1337" to-port="0" />
		<edge from-layer="1335" from-port="0" to-layer="1336" to-port="0" />
		<edge from-layer="1336" from-port="1" to-layer="1337" to-port="1" />
		<edge from-layer="1337" from-port="2" to-layer="1340" to-port="0" />
		<edge from-layer="1338" from-port="0" to-layer="1339" to-port="0" />
		<edge from-layer="1339" from-port="1" to-layer="1340" to-port="1" />
		<edge from-layer="1340" from-port="2" to-layer="1343" to-port="0" />
		<edge from-layer="1341" from-port="0" to-layer="1342" to-port="0" />
		<edge from-layer="1342" from-port="1" to-layer="1343" to-port="1" />
		<edge from-layer="1343" from-port="2" to-layer="1346" to-port="0" />
		<edge from-layer="1344" from-port="0" to-layer="1345" to-port="0" />
		<edge from-layer="1345" from-port="1" to-layer="1346" to-port="1" />
		<edge from-layer="1346" from-port="2" to-layer="1349" to-port="0" />
		<edge from-layer="1347" from-port="0" to-layer="1348" to-port="0" />
		<edge from-layer="1348" from-port="1" to-layer="1349" to-port="1" />
		<edge from-layer="1349" from-port="2" to-layer="1350" to-port="1" />
		<edge from-layer="1350" from-port="2" to-layer="1353" to-port="0" />
		<edge from-layer="1351" from-port="0" to-layer="1352" to-port="0" />
		<edge from-layer="1352" from-port="1" to-layer="1353" to-port="1" />
		<edge from-layer="1353" from-port="2" to-layer="1378" to-port="0" />
		<edge from-layer="1353" from-port="2" to-layer="1356" to-port="0" />
		<edge from-layer="1354" from-port="0" to-layer="1355" to-port="0" />
		<edge from-layer="1355" from-port="1" to-layer="1356" to-port="1" />
		<edge from-layer="1356" from-port="2" to-layer="1359" to-port="0" />
		<edge from-layer="1357" from-port="0" to-layer="1358" to-port="0" />
		<edge from-layer="1358" from-port="1" to-layer="1359" to-port="1" />
		<edge from-layer="1359" from-port="2" to-layer="1362" to-port="0" />
		<edge from-layer="1360" from-port="0" to-layer="1361" to-port="0" />
		<edge from-layer="1361" from-port="1" to-layer="1362" to-port="1" />
		<edge from-layer="1362" from-port="2" to-layer="1365" to-port="0" />
		<edge from-layer="1363" from-port="0" to-layer="1364" to-port="0" />
		<edge from-layer="1364" from-port="1" to-layer="1365" to-port="1" />
		<edge from-layer="1365" from-port="2" to-layer="1368" to-port="0" />
		<edge from-layer="1366" from-port="0" to-layer="1367" to-port="0" />
		<edge from-layer="1367" from-port="1" to-layer="1368" to-port="1" />
		<edge from-layer="1368" from-port="2" to-layer="1371" to-port="0" />
		<edge from-layer="1369" from-port="0" to-layer="1370" to-port="0" />
		<edge from-layer="1370" from-port="1" to-layer="1371" to-port="1" />
		<edge from-layer="1371" from-port="2" to-layer="1374" to-port="0" />
		<edge from-layer="1372" from-port="0" to-layer="1373" to-port="0" />
		<edge from-layer="1373" from-port="1" to-layer="1374" to-port="1" />
		<edge from-layer="1374" from-port="2" to-layer="1377" to-port="0" />
		<edge from-layer="1375" from-port="0" to-layer="1376" to-port="0" />
		<edge from-layer="1376" from-port="1" to-layer="1377" to-port="1" />
		<edge from-layer="1377" from-port="2" to-layer="1378" to-port="1" />
		<edge from-layer="1378" from-port="2" to-layer="1381" to-port="0" />
		<edge from-layer="1379" from-port="0" to-layer="1380" to-port="0" />
		<edge from-layer="1380" from-port="1" to-layer="1381" to-port="1" />
		<edge from-layer="1381" from-port="2" to-layer="1382" to-port="0" />
		<edge from-layer="1381" from-port="2" to-layer="1391" to-port="0" />
		<edge from-layer="1382" from-port="1" to-layer="1385" to-port="0" />
		<edge from-layer="1383" from-port="0" to-layer="1384" to-port="0" />
		<edge from-layer="1384" from-port="1" to-layer="1385" to-port="1" />
		<edge from-layer="1385" from-port="2" to-layer="1388" to-port="0" />
		<edge from-layer="1386" from-port="0" to-layer="1387" to-port="0" />
		<edge from-layer="1387" from-port="1" to-layer="1388" to-port="1" />
		<edge from-layer="1388" from-port="2" to-layer="1413" to-port="0" />
		<edge from-layer="1389" from-port="0" to-layer="1390" to-port="0" />
		<edge from-layer="1390" from-port="1" to-layer="1391" to-port="1" />
		<edge from-layer="1391" from-port="2" to-layer="1394" to-port="0" />
		<edge from-layer="1392" from-port="0" to-layer="1393" to-port="0" />
		<edge from-layer="1393" from-port="1" to-layer="1394" to-port="1" />
		<edge from-layer="1394" from-port="2" to-layer="1397" to-port="0" />
		<edge from-layer="1395" from-port="0" to-layer="1396" to-port="0" />
		<edge from-layer="1396" from-port="1" to-layer="1397" to-port="1" />
		<edge from-layer="1397" from-port="2" to-layer="1400" to-port="0" />
		<edge from-layer="1398" from-port="0" to-layer="1399" to-port="0" />
		<edge from-layer="1399" from-port="1" to-layer="1400" to-port="1" />
		<edge from-layer="1400" from-port="2" to-layer="1403" to-port="0" />
		<edge from-layer="1401" from-port="0" to-layer="1402" to-port="0" />
		<edge from-layer="1402" from-port="1" to-layer="1403" to-port="1" />
		<edge from-layer="1403" from-port="2" to-layer="1406" to-port="0" />
		<edge from-layer="1404" from-port="0" to-layer="1405" to-port="0" />
		<edge from-layer="1405" from-port="1" to-layer="1406" to-port="1" />
		<edge from-layer="1406" from-port="2" to-layer="1409" to-port="0" />
		<edge from-layer="1407" from-port="0" to-layer="1408" to-port="0" />
		<edge from-layer="1408" from-port="1" to-layer="1409" to-port="1" />
		<edge from-layer="1409" from-port="2" to-layer="1412" to-port="0" />
		<edge from-layer="1410" from-port="0" to-layer="1411" to-port="0" />
		<edge from-layer="1411" from-port="1" to-layer="1412" to-port="1" />
		<edge from-layer="1412" from-port="2" to-layer="1413" to-port="1" />
		<edge from-layer="1413" from-port="2" to-layer="1416" to-port="0" />
		<edge from-layer="1414" from-port="0" to-layer="1415" to-port="0" />
		<edge from-layer="1415" from-port="1" to-layer="1416" to-port="1" />
		<edge from-layer="1416" from-port="2" to-layer="1441" to-port="0" />
		<edge from-layer="1416" from-port="2" to-layer="1419" to-port="0" />
		<edge from-layer="1417" from-port="0" to-layer="1418" to-port="0" />
		<edge from-layer="1418" from-port="1" to-layer="1419" to-port="1" />
		<edge from-layer="1419" from-port="2" to-layer="1422" to-port="0" />
		<edge from-layer="1420" from-port="0" to-layer="1421" to-port="0" />
		<edge from-layer="1421" from-port="1" to-layer="1422" to-port="1" />
		<edge from-layer="1422" from-port="2" to-layer="1425" to-port="0" />
		<edge from-layer="1423" from-port="0" to-layer="1424" to-port="0" />
		<edge from-layer="1424" from-port="1" to-layer="1425" to-port="1" />
		<edge from-layer="1425" from-port="2" to-layer="1428" to-port="0" />
		<edge from-layer="1426" from-port="0" to-layer="1427" to-port="0" />
		<edge from-layer="1427" from-port="1" to-layer="1428" to-port="1" />
		<edge from-layer="1428" from-port="2" to-layer="1431" to-port="0" />
		<edge from-layer="1429" from-port="0" to-layer="1430" to-port="0" />
		<edge from-layer="1430" from-port="1" to-layer="1431" to-port="1" />
		<edge from-layer="1431" from-port="2" to-layer="1434" to-port="0" />
		<edge from-layer="1432" from-port="0" to-layer="1433" to-port="0" />
		<edge from-layer="1433" from-port="1" to-layer="1434" to-port="1" />
		<edge from-layer="1434" from-port="2" to-layer="1437" to-port="0" />
		<edge from-layer="1435" from-port="0" to-layer="1436" to-port="0" />
		<edge from-layer="1436" from-port="1" to-layer="1437" to-port="1" />
		<edge from-layer="1437" from-port="2" to-layer="1440" to-port="0" />
		<edge from-layer="1438" from-port="0" to-layer="1439" to-port="0" />
		<edge from-layer="1439" from-port="1" to-layer="1440" to-port="1" />
		<edge from-layer="1440" from-port="2" to-layer="1441" to-port="1" />
		<edge from-layer="1441" from-port="2" to-layer="1444" to-port="0" />
		<edge from-layer="1442" from-port="0" to-layer="1443" to-port="0" />
		<edge from-layer="1443" from-port="1" to-layer="1444" to-port="1" />
		<edge from-layer="1444" from-port="2" to-layer="1447" to-port="0" />
		<edge from-layer="1444" from-port="2" to-layer="1469" to-port="0" />
		<edge from-layer="1445" from-port="0" to-layer="1446" to-port="0" />
		<edge from-layer="1446" from-port="1" to-layer="1447" to-port="1" />
		<edge from-layer="1447" from-port="2" to-layer="1450" to-port="0" />
		<edge from-layer="1448" from-port="0" to-layer="1449" to-port="0" />
		<edge from-layer="1449" from-port="1" to-layer="1450" to-port="1" />
		<edge from-layer="1450" from-port="2" to-layer="1453" to-port="0" />
		<edge from-layer="1451" from-port="0" to-layer="1452" to-port="0" />
		<edge from-layer="1452" from-port="1" to-layer="1453" to-port="1" />
		<edge from-layer="1453" from-port="2" to-layer="1456" to-port="0" />
		<edge from-layer="1454" from-port="0" to-layer="1455" to-port="0" />
		<edge from-layer="1455" from-port="1" to-layer="1456" to-port="1" />
		<edge from-layer="1456" from-port="2" to-layer="1459" to-port="0" />
		<edge from-layer="1457" from-port="0" to-layer="1458" to-port="0" />
		<edge from-layer="1458" from-port="1" to-layer="1459" to-port="1" />
		<edge from-layer="1459" from-port="2" to-layer="1462" to-port="0" />
		<edge from-layer="1460" from-port="0" to-layer="1461" to-port="0" />
		<edge from-layer="1461" from-port="1" to-layer="1462" to-port="1" />
		<edge from-layer="1462" from-port="2" to-layer="1465" to-port="0" />
		<edge from-layer="1463" from-port="0" to-layer="1464" to-port="0" />
		<edge from-layer="1464" from-port="1" to-layer="1465" to-port="1" />
		<edge from-layer="1465" from-port="2" to-layer="1468" to-port="0" />
		<edge from-layer="1466" from-port="0" to-layer="1467" to-port="0" />
		<edge from-layer="1467" from-port="1" to-layer="1468" to-port="1" />
		<edge from-layer="1468" from-port="2" to-layer="1469" to-port="1" />
		<edge from-layer="1469" from-port="2" to-layer="1472" to-port="0" />
		<edge from-layer="1470" from-port="0" to-layer="1471" to-port="0" />
		<edge from-layer="1471" from-port="1" to-layer="1472" to-port="1" />
		<edge from-layer="1472" from-port="2" to-layer="1475" to-port="0" />
		<edge from-layer="1472" from-port="2" to-layer="1497" to-port="0" />
		<edge from-layer="1473" from-port="0" to-layer="1474" to-port="0" />
		<edge from-layer="1474" from-port="1" to-layer="1475" to-port="1" />
		<edge from-layer="1475" from-port="2" to-layer="1478" to-port="0" />
		<edge from-layer="1476" from-port="0" to-layer="1477" to-port="0" />
		<edge from-layer="1477" from-port="1" to-layer="1478" to-port="1" />
		<edge from-layer="1478" from-port="2" to-layer="1481" to-port="0" />
		<edge from-layer="1479" from-port="0" to-layer="1480" to-port="0" />
		<edge from-layer="1480" from-port="1" to-layer="1481" to-port="1" />
		<edge from-layer="1481" from-port="2" to-layer="1484" to-port="0" />
		<edge from-layer="1482" from-port="0" to-layer="1483" to-port="0" />
		<edge from-layer="1483" from-port="1" to-layer="1484" to-port="1" />
		<edge from-layer="1484" from-port="2" to-layer="1487" to-port="0" />
		<edge from-layer="1485" from-port="0" to-layer="1486" to-port="0" />
		<edge from-layer="1486" from-port="1" to-layer="1487" to-port="1" />
		<edge from-layer="1487" from-port="2" to-layer="1490" to-port="0" />
		<edge from-layer="1488" from-port="0" to-layer="1489" to-port="0" />
		<edge from-layer="1489" from-port="1" to-layer="1490" to-port="1" />
		<edge from-layer="1490" from-port="2" to-layer="1493" to-port="0" />
		<edge from-layer="1491" from-port="0" to-layer="1492" to-port="0" />
		<edge from-layer="1492" from-port="1" to-layer="1493" to-port="1" />
		<edge from-layer="1493" from-port="2" to-layer="1496" to-port="0" />
		<edge from-layer="1494" from-port="0" to-layer="1495" to-port="0" />
		<edge from-layer="1495" from-port="1" to-layer="1496" to-port="1" />
		<edge from-layer="1496" from-port="2" to-layer="1497" to-port="1" />
		<edge from-layer="1497" from-port="2" to-layer="1500" to-port="0" />
		<edge from-layer="1498" from-port="0" to-layer="1499" to-port="0" />
		<edge from-layer="1499" from-port="1" to-layer="1500" to-port="1" />
		<edge from-layer="1500" from-port="2" to-layer="1503" to-port="0" />
		<edge from-layer="1500" from-port="2" to-layer="1525" to-port="0" />
		<edge from-layer="1501" from-port="0" to-layer="1502" to-port="0" />
		<edge from-layer="1502" from-port="1" to-layer="1503" to-port="1" />
		<edge from-layer="1503" from-port="2" to-layer="1506" to-port="0" />
		<edge from-layer="1504" from-port="0" to-layer="1505" to-port="0" />
		<edge from-layer="1505" from-port="1" to-layer="1506" to-port="1" />
		<edge from-layer="1506" from-port="2" to-layer="1509" to-port="0" />
		<edge from-layer="1507" from-port="0" to-layer="1508" to-port="0" />
		<edge from-layer="1508" from-port="1" to-layer="1509" to-port="1" />
		<edge from-layer="1509" from-port="2" to-layer="1512" to-port="0" />
		<edge from-layer="1510" from-port="0" to-layer="1511" to-port="0" />
		<edge from-layer="1511" from-port="1" to-layer="1512" to-port="1" />
		<edge from-layer="1512" from-port="2" to-layer="1515" to-port="0" />
		<edge from-layer="1513" from-port="0" to-layer="1514" to-port="0" />
		<edge from-layer="1514" from-port="1" to-layer="1515" to-port="1" />
		<edge from-layer="1515" from-port="2" to-layer="1518" to-port="0" />
		<edge from-layer="1516" from-port="0" to-layer="1517" to-port="0" />
		<edge from-layer="1517" from-port="1" to-layer="1518" to-port="1" />
		<edge from-layer="1518" from-port="2" to-layer="1521" to-port="0" />
		<edge from-layer="1519" from-port="0" to-layer="1520" to-port="0" />
		<edge from-layer="1520" from-port="1" to-layer="1521" to-port="1" />
		<edge from-layer="1521" from-port="2" to-layer="1524" to-port="0" />
		<edge from-layer="1522" from-port="0" to-layer="1523" to-port="0" />
		<edge from-layer="1523" from-port="1" to-layer="1524" to-port="1" />
		<edge from-layer="1524" from-port="2" to-layer="1525" to-port="1" />
		<edge from-layer="1525" from-port="2" to-layer="1528" to-port="0" />
		<edge from-layer="1526" from-port="0" to-layer="1527" to-port="0" />
		<edge from-layer="1527" from-port="1" to-layer="1528" to-port="1" />
		<edge from-layer="1528" from-port="2" to-layer="1553" to-port="0" />
		<edge from-layer="1528" from-port="2" to-layer="1531" to-port="0" />
		<edge from-layer="1529" from-port="0" to-layer="1530" to-port="0" />
		<edge from-layer="1530" from-port="1" to-layer="1531" to-port="1" />
		<edge from-layer="1531" from-port="2" to-layer="1534" to-port="0" />
		<edge from-layer="1532" from-port="0" to-layer="1533" to-port="0" />
		<edge from-layer="1533" from-port="1" to-layer="1534" to-port="1" />
		<edge from-layer="1534" from-port="2" to-layer="1537" to-port="0" />
		<edge from-layer="1535" from-port="0" to-layer="1536" to-port="0" />
		<edge from-layer="1536" from-port="1" to-layer="1537" to-port="1" />
		<edge from-layer="1537" from-port="2" to-layer="1540" to-port="0" />
		<edge from-layer="1538" from-port="0" to-layer="1539" to-port="0" />
		<edge from-layer="1539" from-port="1" to-layer="1540" to-port="1" />
		<edge from-layer="1540" from-port="2" to-layer="1543" to-port="0" />
		<edge from-layer="1541" from-port="0" to-layer="1542" to-port="0" />
		<edge from-layer="1542" from-port="1" to-layer="1543" to-port="1" />
		<edge from-layer="1543" from-port="2" to-layer="1546" to-port="0" />
		<edge from-layer="1544" from-port="0" to-layer="1545" to-port="0" />
		<edge from-layer="1545" from-port="1" to-layer="1546" to-port="1" />
		<edge from-layer="1546" from-port="2" to-layer="1549" to-port="0" />
		<edge from-layer="1547" from-port="0" to-layer="1548" to-port="0" />
		<edge from-layer="1548" from-port="1" to-layer="1549" to-port="1" />
		<edge from-layer="1549" from-port="2" to-layer="1552" to-port="0" />
		<edge from-layer="1550" from-port="0" to-layer="1551" to-port="0" />
		<edge from-layer="1551" from-port="1" to-layer="1552" to-port="1" />
		<edge from-layer="1552" from-port="2" to-layer="1553" to-port="1" />
		<edge from-layer="1553" from-port="2" to-layer="1556" to-port="0" />
		<edge from-layer="1554" from-port="0" to-layer="1555" to-port="0" />
		<edge from-layer="1555" from-port="1" to-layer="1556" to-port="1" />
		<edge from-layer="1556" from-port="2" to-layer="1557" to-port="1" />
		<edge from-layer="1557" from-port="2" to-layer="1560" to-port="0" />
		<edge from-layer="1558" from-port="0" to-layer="1559" to-port="0" />
		<edge from-layer="1559" from-port="1" to-layer="1560" to-port="1" />
		<edge from-layer="1560" from-port="2" to-layer="1563" to-port="0" />
		<edge from-layer="1560" from-port="2" to-layer="1585" to-port="0" />
		<edge from-layer="1561" from-port="0" to-layer="1562" to-port="0" />
		<edge from-layer="1562" from-port="1" to-layer="1563" to-port="1" />
		<edge from-layer="1563" from-port="2" to-layer="1566" to-port="0" />
		<edge from-layer="1564" from-port="0" to-layer="1565" to-port="0" />
		<edge from-layer="1565" from-port="1" to-layer="1566" to-port="1" />
		<edge from-layer="1566" from-port="2" to-layer="1569" to-port="0" />
		<edge from-layer="1567" from-port="0" to-layer="1568" to-port="0" />
		<edge from-layer="1568" from-port="1" to-layer="1569" to-port="1" />
		<edge from-layer="1569" from-port="2" to-layer="1572" to-port="0" />
		<edge from-layer="1570" from-port="0" to-layer="1571" to-port="0" />
		<edge from-layer="1571" from-port="1" to-layer="1572" to-port="1" />
		<edge from-layer="1572" from-port="2" to-layer="1575" to-port="0" />
		<edge from-layer="1573" from-port="0" to-layer="1574" to-port="0" />
		<edge from-layer="1574" from-port="1" to-layer="1575" to-port="1" />
		<edge from-layer="1575" from-port="2" to-layer="1578" to-port="0" />
		<edge from-layer="1576" from-port="0" to-layer="1577" to-port="0" />
		<edge from-layer="1577" from-port="1" to-layer="1578" to-port="1" />
		<edge from-layer="1578" from-port="2" to-layer="1581" to-port="0" />
		<edge from-layer="1579" from-port="0" to-layer="1580" to-port="0" />
		<edge from-layer="1580" from-port="1" to-layer="1581" to-port="1" />
		<edge from-layer="1581" from-port="2" to-layer="1584" to-port="0" />
		<edge from-layer="1582" from-port="0" to-layer="1583" to-port="0" />
		<edge from-layer="1583" from-port="1" to-layer="1584" to-port="1" />
		<edge from-layer="1584" from-port="2" to-layer="1585" to-port="1" />
		<edge from-layer="1585" from-port="2" to-layer="1588" to-port="0" />
		<edge from-layer="1586" from-port="0" to-layer="1587" to-port="0" />
		<edge from-layer="1587" from-port="1" to-layer="1588" to-port="1" />
		<edge from-layer="1588" from-port="2" to-layer="1591" to-port="0" />
		<edge from-layer="1588" from-port="2" to-layer="1613" to-port="0" />
		<edge from-layer="1589" from-port="0" to-layer="1590" to-port="0" />
		<edge from-layer="1590" from-port="1" to-layer="1591" to-port="1" />
		<edge from-layer="1591" from-port="2" to-layer="1594" to-port="0" />
		<edge from-layer="1592" from-port="0" to-layer="1593" to-port="0" />
		<edge from-layer="1593" from-port="1" to-layer="1594" to-port="1" />
		<edge from-layer="1594" from-port="2" to-layer="1597" to-port="0" />
		<edge from-layer="1595" from-port="0" to-layer="1596" to-port="0" />
		<edge from-layer="1596" from-port="1" to-layer="1597" to-port="1" />
		<edge from-layer="1597" from-port="2" to-layer="1600" to-port="0" />
		<edge from-layer="1598" from-port="0" to-layer="1599" to-port="0" />
		<edge from-layer="1599" from-port="1" to-layer="1600" to-port="1" />
		<edge from-layer="1600" from-port="2" to-layer="1603" to-port="0" />
		<edge from-layer="1601" from-port="0" to-layer="1602" to-port="0" />
		<edge from-layer="1602" from-port="1" to-layer="1603" to-port="1" />
		<edge from-layer="1603" from-port="2" to-layer="1606" to-port="0" />
		<edge from-layer="1604" from-port="0" to-layer="1605" to-port="0" />
		<edge from-layer="1605" from-port="1" to-layer="1606" to-port="1" />
		<edge from-layer="1606" from-port="2" to-layer="1609" to-port="0" />
		<edge from-layer="1607" from-port="0" to-layer="1608" to-port="0" />
		<edge from-layer="1608" from-port="1" to-layer="1609" to-port="1" />
		<edge from-layer="1609" from-port="2" to-layer="1612" to-port="0" />
		<edge from-layer="1610" from-port="0" to-layer="1611" to-port="0" />
		<edge from-layer="1611" from-port="1" to-layer="1612" to-port="1" />
		<edge from-layer="1612" from-port="2" to-layer="1613" to-port="1" />
		<edge from-layer="1613" from-port="2" to-layer="1616" to-port="0" />
		<edge from-layer="1614" from-port="0" to-layer="1615" to-port="0" />
		<edge from-layer="1615" from-port="1" to-layer="1616" to-port="1" />
		<edge from-layer="1616" from-port="2" to-layer="1619" to-port="0" />
		<edge from-layer="1616" from-port="2" to-layer="1641" to-port="0" />
		<edge from-layer="1617" from-port="0" to-layer="1618" to-port="0" />
		<edge from-layer="1618" from-port="1" to-layer="1619" to-port="1" />
		<edge from-layer="1619" from-port="2" to-layer="1622" to-port="0" />
		<edge from-layer="1620" from-port="0" to-layer="1621" to-port="0" />
		<edge from-layer="1621" from-port="1" to-layer="1622" to-port="1" />
		<edge from-layer="1622" from-port="2" to-layer="1625" to-port="0" />
		<edge from-layer="1623" from-port="0" to-layer="1624" to-port="0" />
		<edge from-layer="1624" from-port="1" to-layer="1625" to-port="1" />
		<edge from-layer="1625" from-port="2" to-layer="1628" to-port="0" />
		<edge from-layer="1626" from-port="0" to-layer="1627" to-port="0" />
		<edge from-layer="1627" from-port="1" to-layer="1628" to-port="1" />
		<edge from-layer="1628" from-port="2" to-layer="1631" to-port="0" />
		<edge from-layer="1629" from-port="0" to-layer="1630" to-port="0" />
		<edge from-layer="1630" from-port="1" to-layer="1631" to-port="1" />
		<edge from-layer="1631" from-port="2" to-layer="1634" to-port="0" />
		<edge from-layer="1632" from-port="0" to-layer="1633" to-port="0" />
		<edge from-layer="1633" from-port="1" to-layer="1634" to-port="1" />
		<edge from-layer="1634" from-port="2" to-layer="1637" to-port="0" />
		<edge from-layer="1635" from-port="0" to-layer="1636" to-port="0" />
		<edge from-layer="1636" from-port="1" to-layer="1637" to-port="1" />
		<edge from-layer="1637" from-port="2" to-layer="1640" to-port="0" />
		<edge from-layer="1638" from-port="0" to-layer="1639" to-port="0" />
		<edge from-layer="1639" from-port="1" to-layer="1640" to-port="1" />
		<edge from-layer="1640" from-port="2" to-layer="1641" to-port="1" />
		<edge from-layer="1641" from-port="2" to-layer="1644" to-port="0" />
		<edge from-layer="1642" from-port="0" to-layer="1643" to-port="0" />
		<edge from-layer="1643" from-port="1" to-layer="1644" to-port="1" />
		<edge from-layer="1644" from-port="2" to-layer="1669" to-port="0" />
		<edge from-layer="1644" from-port="2" to-layer="1647" to-port="0" />
		<edge from-layer="1645" from-port="0" to-layer="1646" to-port="0" />
		<edge from-layer="1646" from-port="1" to-layer="1647" to-port="1" />
		<edge from-layer="1647" from-port="2" to-layer="1650" to-port="0" />
		<edge from-layer="1648" from-port="0" to-layer="1649" to-port="0" />
		<edge from-layer="1649" from-port="1" to-layer="1650" to-port="1" />
		<edge from-layer="1650" from-port="2" to-layer="1653" to-port="0" />
		<edge from-layer="1651" from-port="0" to-layer="1652" to-port="0" />
		<edge from-layer="1652" from-port="1" to-layer="1653" to-port="1" />
		<edge from-layer="1653" from-port="2" to-layer="1656" to-port="0" />
		<edge from-layer="1654" from-port="0" to-layer="1655" to-port="0" />
		<edge from-layer="1655" from-port="1" to-layer="1656" to-port="1" />
		<edge from-layer="1656" from-port="2" to-layer="1659" to-port="0" />
		<edge from-layer="1657" from-port="0" to-layer="1658" to-port="0" />
		<edge from-layer="1658" from-port="1" to-layer="1659" to-port="1" />
		<edge from-layer="1659" from-port="2" to-layer="1662" to-port="0" />
		<edge from-layer="1660" from-port="0" to-layer="1661" to-port="0" />
		<edge from-layer="1661" from-port="1" to-layer="1662" to-port="1" />
		<edge from-layer="1662" from-port="2" to-layer="1665" to-port="0" />
		<edge from-layer="1663" from-port="0" to-layer="1664" to-port="0" />
		<edge from-layer="1664" from-port="1" to-layer="1665" to-port="1" />
		<edge from-layer="1665" from-port="2" to-layer="1668" to-port="0" />
		<edge from-layer="1666" from-port="0" to-layer="1667" to-port="0" />
		<edge from-layer="1667" from-port="1" to-layer="1668" to-port="1" />
		<edge from-layer="1668" from-port="2" to-layer="1669" to-port="1" />
		<edge from-layer="1669" from-port="2" to-layer="1672" to-port="0" />
		<edge from-layer="1670" from-port="0" to-layer="1671" to-port="0" />
		<edge from-layer="1671" from-port="1" to-layer="1672" to-port="1" />
		<edge from-layer="1672" from-port="2" to-layer="1675" to-port="0" />
		<edge from-layer="1672" from-port="2" to-layer="1697" to-port="0" />
		<edge from-layer="1673" from-port="0" to-layer="1674" to-port="0" />
		<edge from-layer="1674" from-port="1" to-layer="1675" to-port="1" />
		<edge from-layer="1675" from-port="2" to-layer="1678" to-port="0" />
		<edge from-layer="1676" from-port="0" to-layer="1677" to-port="0" />
		<edge from-layer="1677" from-port="1" to-layer="1678" to-port="1" />
		<edge from-layer="1678" from-port="2" to-layer="1681" to-port="0" />
		<edge from-layer="1679" from-port="0" to-layer="1680" to-port="0" />
		<edge from-layer="1680" from-port="1" to-layer="1681" to-port="1" />
		<edge from-layer="1681" from-port="2" to-layer="1684" to-port="0" />
		<edge from-layer="1682" from-port="0" to-layer="1683" to-port="0" />
		<edge from-layer="1683" from-port="1" to-layer="1684" to-port="1" />
		<edge from-layer="1684" from-port="2" to-layer="1687" to-port="0" />
		<edge from-layer="1685" from-port="0" to-layer="1686" to-port="0" />
		<edge from-layer="1686" from-port="1" to-layer="1687" to-port="1" />
		<edge from-layer="1687" from-port="2" to-layer="1690" to-port="0" />
		<edge from-layer="1688" from-port="0" to-layer="1689" to-port="0" />
		<edge from-layer="1689" from-port="1" to-layer="1690" to-port="1" />
		<edge from-layer="1690" from-port="2" to-layer="1693" to-port="0" />
		<edge from-layer="1691" from-port="0" to-layer="1692" to-port="0" />
		<edge from-layer="1692" from-port="1" to-layer="1693" to-port="1" />
		<edge from-layer="1693" from-port="2" to-layer="1696" to-port="0" />
		<edge from-layer="1694" from-port="0" to-layer="1695" to-port="0" />
		<edge from-layer="1695" from-port="1" to-layer="1696" to-port="1" />
		<edge from-layer="1696" from-port="2" to-layer="1697" to-port="1" />
		<edge from-layer="1697" from-port="2" to-layer="1700" to-port="0" />
		<edge from-layer="1698" from-port="0" to-layer="1699" to-port="0" />
		<edge from-layer="1699" from-port="1" to-layer="1700" to-port="1" />
		<edge from-layer="1700" from-port="2" to-layer="1725" to-port="0" />
		<edge from-layer="1700" from-port="2" to-layer="1703" to-port="0" />
		<edge from-layer="1701" from-port="0" to-layer="1702" to-port="0" />
		<edge from-layer="1702" from-port="1" to-layer="1703" to-port="1" />
		<edge from-layer="1703" from-port="2" to-layer="1706" to-port="0" />
		<edge from-layer="1704" from-port="0" to-layer="1705" to-port="0" />
		<edge from-layer="1705" from-port="1" to-layer="1706" to-port="1" />
		<edge from-layer="1706" from-port="2" to-layer="1709" to-port="0" />
		<edge from-layer="1707" from-port="0" to-layer="1708" to-port="0" />
		<edge from-layer="1708" from-port="1" to-layer="1709" to-port="1" />
		<edge from-layer="1709" from-port="2" to-layer="1712" to-port="0" />
		<edge from-layer="1710" from-port="0" to-layer="1711" to-port="0" />
		<edge from-layer="1711" from-port="1" to-layer="1712" to-port="1" />
		<edge from-layer="1712" from-port="2" to-layer="1715" to-port="0" />
		<edge from-layer="1713" from-port="0" to-layer="1714" to-port="0" />
		<edge from-layer="1714" from-port="1" to-layer="1715" to-port="1" />
		<edge from-layer="1715" from-port="2" to-layer="1718" to-port="0" />
		<edge from-layer="1716" from-port="0" to-layer="1717" to-port="0" />
		<edge from-layer="1717" from-port="1" to-layer="1718" to-port="1" />
		<edge from-layer="1718" from-port="2" to-layer="1721" to-port="0" />
		<edge from-layer="1719" from-port="0" to-layer="1720" to-port="0" />
		<edge from-layer="1720" from-port="1" to-layer="1721" to-port="1" />
		<edge from-layer="1721" from-port="2" to-layer="1724" to-port="0" />
		<edge from-layer="1722" from-port="0" to-layer="1723" to-port="0" />
		<edge from-layer="1723" from-port="1" to-layer="1724" to-port="1" />
		<edge from-layer="1724" from-port="2" to-layer="1725" to-port="1" />
		<edge from-layer="1725" from-port="2" to-layer="1728" to-port="0" />
		<edge from-layer="1726" from-port="0" to-layer="1727" to-port="0" />
		<edge from-layer="1727" from-port="1" to-layer="1728" to-port="1" />
		<edge from-layer="1728" from-port="2" to-layer="1829" to-port="0" />
		<edge from-layer="1728" from-port="2" to-layer="1731" to-port="0" />
		<edge from-layer="1728" from-port="2" to-layer="1878" to-port="0" />
		<edge from-layer="1728" from-port="2" to-layer="1780" to-port="0" />
		<edge from-layer="1729" from-port="0" to-layer="1730" to-port="0" />
		<edge from-layer="1730" from-port="1" to-layer="1731" to-port="1" />
		<edge from-layer="1731" from-port="2" to-layer="1734" to-port="0" />
		<edge from-layer="1732" from-port="0" to-layer="1733" to-port="0" />
		<edge from-layer="1733" from-port="1" to-layer="1734" to-port="1" />
		<edge from-layer="1734" from-port="2" to-layer="1736" to-port="0" />
		<edge from-layer="1735" from-port="0" to-layer="1736" to-port="1" />
		<edge from-layer="1736" from-port="2" to-layer="1737" to-port="1" />
		<edge from-layer="1737" from-port="2" to-layer="1740" to-port="0" />
		<edge from-layer="1738" from-port="0" to-layer="1739" to-port="0" />
		<edge from-layer="1739" from-port="1" to-layer="1740" to-port="1" />
		<edge from-layer="1740" from-port="2" to-layer="1743" to-port="0" />
		<edge from-layer="1741" from-port="0" to-layer="1742" to-port="0" />
		<edge from-layer="1742" from-port="1" to-layer="1743" to-port="1" />
		<edge from-layer="1743" from-port="2" to-layer="1746" to-port="0" />
		<edge from-layer="1744" from-port="0" to-layer="1745" to-port="0" />
		<edge from-layer="1745" from-port="1" to-layer="1746" to-port="1" />
		<edge from-layer="1746" from-port="2" to-layer="1749" to-port="0" />
		<edge from-layer="1747" from-port="0" to-layer="1748" to-port="0" />
		<edge from-layer="1748" from-port="1" to-layer="1749" to-port="1" />
		<edge from-layer="1749" from-port="2" to-layer="1752" to-port="0" />
		<edge from-layer="1750" from-port="0" to-layer="1751" to-port="0" />
		<edge from-layer="1751" from-port="1" to-layer="1752" to-port="1" />
		<edge from-layer="1752" from-port="2" to-layer="1755" to-port="0" />
		<edge from-layer="1753" from-port="0" to-layer="1754" to-port="0" />
		<edge from-layer="1754" from-port="1" to-layer="1755" to-port="1" />
		<edge from-layer="1755" from-port="2" to-layer="1758" to-port="0" />
		<edge from-layer="1756" from-port="0" to-layer="1757" to-port="0" />
		<edge from-layer="1757" from-port="1" to-layer="1758" to-port="1" />
		<edge from-layer="1758" from-port="2" to-layer="1761" to-port="0" />
		<edge from-layer="1759" from-port="0" to-layer="1760" to-port="0" />
		<edge from-layer="1760" from-port="1" to-layer="1761" to-port="1" />
		<edge from-layer="1761" from-port="2" to-layer="1763" to-port="0" />
		<edge from-layer="1762" from-port="0" to-layer="1763" to-port="1" />
		<edge from-layer="1763" from-port="2" to-layer="1766" to-port="0" />
		<edge from-layer="1764" from-port="0" to-layer="1765" to-port="0" />
		<edge from-layer="1765" from-port="1" to-layer="1766" to-port="1" />
		<edge from-layer="1766" from-port="2" to-layer="1768" to-port="0" />
		<edge from-layer="1767" from-port="0" to-layer="1768" to-port="1" />
		<edge from-layer="1768" from-port="2" to-layer="1769" to-port="0" />
		<edge from-layer="1770" from-port="0" to-layer="1771" to-port="0" />
		<edge from-layer="1771" from-port="1" to-layer="1772" to-port="1" />
		<edge from-layer="1772" from-port="2" to-layer="1775" to-port="0" />
		<edge from-layer="1773" from-port="0" to-layer="1774" to-port="0" />
		<edge from-layer="1774" from-port="1" to-layer="1775" to-port="1" />
		<edge from-layer="1775" from-port="2" to-layer="1777" to-port="0" />
		<edge from-layer="1776" from-port="0" to-layer="1777" to-port="1" />
		<edge from-layer="1777" from-port="2" to-layer="1786" to-port="0" />
		<edge from-layer="1778" from-port="0" to-layer="1779" to-port="0" />
		<edge from-layer="1779" from-port="1" to-layer="1780" to-port="1" />
		<edge from-layer="1780" from-port="2" to-layer="1783" to-port="0" />
		<edge from-layer="1781" from-port="0" to-layer="1782" to-port="0" />
		<edge from-layer="1782" from-port="1" to-layer="1783" to-port="1" />
		<edge from-layer="1783" from-port="2" to-layer="1785" to-port="0" />
		<edge from-layer="1784" from-port="0" to-layer="1785" to-port="1" />
		<edge from-layer="1785" from-port="2" to-layer="1786" to-port="1" />
		<edge from-layer="1786" from-port="2" to-layer="1789" to-port="0" />
		<edge from-layer="1787" from-port="0" to-layer="1788" to-port="0" />
		<edge from-layer="1788" from-port="1" to-layer="1789" to-port="1" />
		<edge from-layer="1789" from-port="2" to-layer="1792" to-port="0" />
		<edge from-layer="1790" from-port="0" to-layer="1791" to-port="0" />
		<edge from-layer="1791" from-port="1" to-layer="1792" to-port="1" />
		<edge from-layer="1792" from-port="2" to-layer="1795" to-port="0" />
		<edge from-layer="1793" from-port="0" to-layer="1794" to-port="0" />
		<edge from-layer="1794" from-port="1" to-layer="1795" to-port="1" />
		<edge from-layer="1795" from-port="2" to-layer="1798" to-port="0" />
		<edge from-layer="1796" from-port="0" to-layer="1797" to-port="0" />
		<edge from-layer="1797" from-port="1" to-layer="1798" to-port="1" />
		<edge from-layer="1798" from-port="2" to-layer="1801" to-port="0" />
		<edge from-layer="1799" from-port="0" to-layer="1800" to-port="0" />
		<edge from-layer="1800" from-port="1" to-layer="1801" to-port="1" />
		<edge from-layer="1801" from-port="2" to-layer="1804" to-port="0" />
		<edge from-layer="1802" from-port="0" to-layer="1803" to-port="0" />
		<edge from-layer="1803" from-port="1" to-layer="1804" to-port="1" />
		<edge from-layer="1804" from-port="2" to-layer="1807" to-port="0" />
		<edge from-layer="1805" from-port="0" to-layer="1806" to-port="0" />
		<edge from-layer="1806" from-port="1" to-layer="1807" to-port="1" />
		<edge from-layer="1807" from-port="2" to-layer="1810" to-port="0" />
		<edge from-layer="1808" from-port="0" to-layer="1809" to-port="0" />
		<edge from-layer="1809" from-port="1" to-layer="1810" to-port="1" />
		<edge from-layer="1810" from-port="2" to-layer="1812" to-port="0" />
		<edge from-layer="1811" from-port="0" to-layer="1812" to-port="1" />
		<edge from-layer="1812" from-port="2" to-layer="1815" to-port="0" />
		<edge from-layer="1813" from-port="0" to-layer="1814" to-port="0" />
		<edge from-layer="1814" from-port="1" to-layer="1815" to-port="1" />
		<edge from-layer="1815" from-port="2" to-layer="1817" to-port="0" />
		<edge from-layer="1816" from-port="0" to-layer="1817" to-port="1" />
		<edge from-layer="1817" from-port="2" to-layer="1818" to-port="0" />
		<edge from-layer="1819" from-port="0" to-layer="1820" to-port="0" />
		<edge from-layer="1820" from-port="1" to-layer="1821" to-port="1" />
		<edge from-layer="1821" from-port="2" to-layer="1824" to-port="0" />
		<edge from-layer="1822" from-port="0" to-layer="1823" to-port="0" />
		<edge from-layer="1823" from-port="1" to-layer="1824" to-port="1" />
		<edge from-layer="1824" from-port="2" to-layer="1826" to-port="0" />
		<edge from-layer="1825" from-port="0" to-layer="1826" to-port="1" />
		<edge from-layer="1826" from-port="2" to-layer="1835" to-port="0" />
		<edge from-layer="1827" from-port="0" to-layer="1828" to-port="0" />
		<edge from-layer="1828" from-port="1" to-layer="1829" to-port="1" />
		<edge from-layer="1829" from-port="2" to-layer="1832" to-port="0" />
		<edge from-layer="1830" from-port="0" to-layer="1831" to-port="0" />
		<edge from-layer="1831" from-port="1" to-layer="1832" to-port="1" />
		<edge from-layer="1832" from-port="2" to-layer="1834" to-port="0" />
		<edge from-layer="1833" from-port="0" to-layer="1834" to-port="1" />
		<edge from-layer="1834" from-port="2" to-layer="1835" to-port="1" />
		<edge from-layer="1835" from-port="2" to-layer="1838" to-port="0" />
		<edge from-layer="1836" from-port="0" to-layer="1837" to-port="0" />
		<edge from-layer="1837" from-port="1" to-layer="1838" to-port="1" />
		<edge from-layer="1838" from-port="2" to-layer="1841" to-port="0" />
		<edge from-layer="1839" from-port="0" to-layer="1840" to-port="0" />
		<edge from-layer="1840" from-port="1" to-layer="1841" to-port="1" />
		<edge from-layer="1841" from-port="2" to-layer="1844" to-port="0" />
		<edge from-layer="1842" from-port="0" to-layer="1843" to-port="0" />
		<edge from-layer="1843" from-port="1" to-layer="1844" to-port="1" />
		<edge from-layer="1844" from-port="2" to-layer="1847" to-port="0" />
		<edge from-layer="1845" from-port="0" to-layer="1846" to-port="0" />
		<edge from-layer="1846" from-port="1" to-layer="1847" to-port="1" />
		<edge from-layer="1847" from-port="2" to-layer="1850" to-port="0" />
		<edge from-layer="1848" from-port="0" to-layer="1849" to-port="0" />
		<edge from-layer="1849" from-port="1" to-layer="1850" to-port="1" />
		<edge from-layer="1850" from-port="2" to-layer="1853" to-port="0" />
		<edge from-layer="1851" from-port="0" to-layer="1852" to-port="0" />
		<edge from-layer="1852" from-port="1" to-layer="1853" to-port="1" />
		<edge from-layer="1853" from-port="2" to-layer="1856" to-port="0" />
		<edge from-layer="1854" from-port="0" to-layer="1855" to-port="0" />
		<edge from-layer="1855" from-port="1" to-layer="1856" to-port="1" />
		<edge from-layer="1856" from-port="2" to-layer="1859" to-port="0" />
		<edge from-layer="1857" from-port="0" to-layer="1858" to-port="0" />
		<edge from-layer="1858" from-port="1" to-layer="1859" to-port="1" />
		<edge from-layer="1859" from-port="2" to-layer="1861" to-port="0" />
		<edge from-layer="1860" from-port="0" to-layer="1861" to-port="1" />
		<edge from-layer="1861" from-port="2" to-layer="1864" to-port="0" />
		<edge from-layer="1862" from-port="0" to-layer="1863" to-port="0" />
		<edge from-layer="1863" from-port="1" to-layer="1864" to-port="1" />
		<edge from-layer="1864" from-port="2" to-layer="1866" to-port="0" />
		<edge from-layer="1865" from-port="0" to-layer="1866" to-port="1" />
		<edge from-layer="1866" from-port="2" to-layer="1867" to-port="0" />
		<edge from-layer="1868" from-port="0" to-layer="1869" to-port="0" />
		<edge from-layer="1869" from-port="1" to-layer="1870" to-port="1" />
		<edge from-layer="1870" from-port="2" to-layer="1873" to-port="0" />
		<edge from-layer="1871" from-port="0" to-layer="1872" to-port="0" />
		<edge from-layer="1872" from-port="1" to-layer="1873" to-port="1" />
		<edge from-layer="1873" from-port="2" to-layer="1875" to-port="0" />
		<edge from-layer="1874" from-port="0" to-layer="1875" to-port="1" />
		<edge from-layer="1875" from-port="2" to-layer="1884" to-port="0" />
		<edge from-layer="1876" from-port="0" to-layer="1877" to-port="0" />
		<edge from-layer="1877" from-port="1" to-layer="1878" to-port="1" />
		<edge from-layer="1878" from-port="2" to-layer="1881" to-port="0" />
		<edge from-layer="1879" from-port="0" to-layer="1880" to-port="0" />
		<edge from-layer="1880" from-port="1" to-layer="1881" to-port="1" />
		<edge from-layer="1881" from-port="2" to-layer="1883" to-port="0" />
		<edge from-layer="1882" from-port="0" to-layer="1883" to-port="1" />
		<edge from-layer="1883" from-port="2" to-layer="1884" to-port="1" />
		<edge from-layer="1884" from-port="2" to-layer="1887" to-port="0" />
		<edge from-layer="1885" from-port="0" to-layer="1886" to-port="0" />
		<edge from-layer="1886" from-port="1" to-layer="1887" to-port="1" />
		<edge from-layer="1887" from-port="2" to-layer="1890" to-port="0" />
		<edge from-layer="1888" from-port="0" to-layer="1889" to-port="0" />
		<edge from-layer="1889" from-port="1" to-layer="1890" to-port="1" />
		<edge from-layer="1890" from-port="2" to-layer="1893" to-port="0" />
		<edge from-layer="1891" from-port="0" to-layer="1892" to-port="0" />
		<edge from-layer="1892" from-port="1" to-layer="1893" to-port="1" />
		<edge from-layer="1893" from-port="2" to-layer="1896" to-port="0" />
		<edge from-layer="1894" from-port="0" to-layer="1895" to-port="0" />
		<edge from-layer="1895" from-port="1" to-layer="1896" to-port="1" />
		<edge from-layer="1896" from-port="2" to-layer="1899" to-port="0" />
		<edge from-layer="1897" from-port="0" to-layer="1898" to-port="0" />
		<edge from-layer="1898" from-port="1" to-layer="1899" to-port="1" />
		<edge from-layer="1899" from-port="2" to-layer="1902" to-port="0" />
		<edge from-layer="1900" from-port="0" to-layer="1901" to-port="0" />
		<edge from-layer="1901" from-port="1" to-layer="1902" to-port="1" />
		<edge from-layer="1902" from-port="2" to-layer="1905" to-port="0" />
		<edge from-layer="1903" from-port="0" to-layer="1904" to-port="0" />
		<edge from-layer="1904" from-port="1" to-layer="1905" to-port="1" />
		<edge from-layer="1905" from-port="2" to-layer="1908" to-port="0" />
		<edge from-layer="1906" from-port="0" to-layer="1907" to-port="0" />
		<edge from-layer="1907" from-port="1" to-layer="1908" to-port="1" />
		<edge from-layer="1908" from-port="2" to-layer="1910" to-port="0" />
		<edge from-layer="1909" from-port="0" to-layer="1910" to-port="1" />
		<edge from-layer="1910" from-port="2" to-layer="1913" to-port="0" />
		<edge from-layer="1911" from-port="0" to-layer="1912" to-port="0" />
		<edge from-layer="1912" from-port="1" to-layer="1913" to-port="1" />
		<edge from-layer="1913" from-port="2" to-layer="1915" to-port="0" />
		<edge from-layer="1914" from-port="0" to-layer="1915" to-port="1" />
		<edge from-layer="1915" from-port="2" to-layer="1916" to-port="0" />
		<edge from-layer="1917" from-port="1" to-layer="1921" to-port="0" />
		<edge from-layer="1918" from-port="0" to-layer="1921" to-port="1" />
		<edge from-layer="1919" from-port="0" to-layer="1921" to-port="2" />
		<edge from-layer="1920" from-port="0" to-layer="1921" to-port="3" />
		<edge from-layer="1921" from-port="4" to-layer="1927" to-port="0" />
		<edge from-layer="1922" from-port="1" to-layer="1926" to-port="0" />
		<edge from-layer="1923" from-port="0" to-layer="1926" to-port="1" />
		<edge from-layer="1924" from-port="0" to-layer="1926" to-port="2" />
		<edge from-layer="1925" from-port="0" to-layer="1926" to-port="3" />
		<edge from-layer="1926" from-port="4" to-layer="1927" to-port="1" />
		<edge from-layer="1927" from-port="2" to-layer="1929" to-port="0" />
		<edge from-layer="1928" from-port="0" to-layer="1929" to-port="1" />
		<edge from-layer="1929" from-port="2" to-layer="1930" to-port="0" />
		<edge from-layer="1931" from-port="0" to-layer="1932" to-port="0" />
		<edge from-layer="1932" from-port="1" to-layer="1933" to-port="1" />
		<edge from-layer="1933" from-port="2" to-layer="1936" to-port="0" />
		<edge from-layer="1934" from-port="0" to-layer="1935" to-port="0" />
		<edge from-layer="1935" from-port="1" to-layer="1936" to-port="1" />
		<edge from-layer="1936" from-port="2" to-layer="1938" to-port="0" />
		<edge from-layer="1937" from-port="0" to-layer="1938" to-port="1" />
		<edge from-layer="1938" from-port="2" to-layer="1940" to-port="0" />
		<edge from-layer="1939" from-port="0" to-layer="1940" to-port="1" />
		<edge from-layer="1940" from-port="2" to-layer="1942" to-port="0" />
		<edge from-layer="1941" from-port="0" to-layer="1942" to-port="1" />
		<edge from-layer="1942" from-port="2" to-layer="1943" to-port="0" />
		<edge from-layer="1943" from-port="1" to-layer="1945" to-port="0" />
		<edge from-layer="1944" from-port="0" to-layer="1945" to-port="1" />
		<edge from-layer="1945" from-port="2" to-layer="1946" to-port="0" />
		<edge from-layer="1947" from-port="0" to-layer="1948" to-port="0" />
		<edge from-layer="1948" from-port="1" to-layer="1949" to-port="1" />
		<edge from-layer="1949" from-port="2" to-layer="1952" to-port="0" />
		<edge from-layer="1950" from-port="0" to-layer="1951" to-port="0" />
		<edge from-layer="1951" from-port="1" to-layer="1952" to-port="1" />
		<edge from-layer="1952" from-port="2" to-layer="1954" to-port="0" />
		<edge from-layer="1953" from-port="0" to-layer="1954" to-port="1" />
		<edge from-layer="1954" from-port="2" to-layer="1956" to-port="0" />
		<edge from-layer="1955" from-port="0" to-layer="1956" to-port="1" />
		<edge from-layer="1956" from-port="2" to-layer="1957" to-port="0" />
	</edges>
	<rt_info>
		<MO_version value="custom_HEAD_f6ee6e92f846a8c665e4a7089c51481f9689a3b5" />
		<Runtime_version value="2023.0.0-10521-f6ee6e92f84-HEAD" />
		<conversion_parameters>
			<caffe_parser_path value="DIR" />
			<framework value="caffe" />
			<input value="data" />
			<input_model value="DIR/weights.caffemodel" />
			<input_proto value="DIR/deploy.prototxt" />
			<input_shape value="[1,3,400,680]" />
			<layout value="data(nchw)" />
			<model_name value="person-detection-action-recognition-0005" />
			<output value="mbox_loc1/out/conv/flat,mbox_main_conf/out/conv/flat/softmax/flat,mbox/priorbox,out/anchor1,out/anchor2,out/anchor3,out/anchor4" />
			<output_dir value="DIR" />
		</conversion_parameters>
		<legacy_frontend value="True" />
	</rt_info>
</net>
