<?xml version="1.0" ?>
<net name="RMNet_LReLU with SSD head for Action Detection and Action Recognition" version="11">
	<layers>
		<layer id="24" name="data" type="Parameter" version="opset1">
			<data shape="1,3,400,680" element_type="f32"/>
			<rt_info>
				<attribute name="old_api_map_element_type" version="0" value="f16"/>
			</rt_info>
			<output>
				<port id="0" precision="FP32" names="data">
					<dim>1</dim>
					<dim>3</dim>
					<dim>400</dim>
					<dim>680</dim>
					<rt_info>
						<attribute name="layout" version="0" layout="[N,C,H,W]"/>
					</rt_info>
				</port>
			</output>
		</layer>
		<layer id="0" name="7229723351141" type="Const" version="opset1">
			<data offset="0" size="4" shape="1,1,1,1" element_type="f32"/>
			<output>
				<port id="0" precision="FP32">
					<dim>1</dim>
					<dim>1</dim>
					<dim>1</dim>
					<dim>1</dim>
				</port>
			</output>
		</layer>
		<layer id="1" name="7230723450727" type="Const" version="opset1">
			<data offset="4" size="4" shape="1,1,1,1" element_type="f32"/>
			<output>
				<port id="0" precision="FP32">
					<dim>1</dim>
					<dim>1</dim>
					<dim>1</dim>
					<dim>1</dim>
				</port>
			</output>
		</layer>
		<layer id="2" name="7231723553262" type="Const" version="opset1">
			<data offset="0" size="4" shape="1,1,1,1" element_type="f32"/>
			<output>
				<port id="0" precision="FP32">
					<dim>1</dim>
					<dim>1</dim>
					<dim>1</dim>
					<dim>1</dim>
				</port>
			</output>
		</layer>
		<layer id="3" name="7232723651819" type="Const" version="opset1">
			<data offset="4" size="4" shape="1,1,1,1" element_type="f32"/>
			<output>
				<port id="0" precision="FP32">
					<dim>1</dim>
					<dim>1</dim>
					<dim>1</dim>
					<dim>1</dim>
				</port>
			</output>
		</layer>
		<layer id="4" name="117491175348687" type="Const" version="opset1">
			<data offset="8" size="4" shape="1,1,1,1" element_type="f32"/>
			<output>
				<port id="0" precision="FP32">
					<dim>1</dim>
					<dim>1</dim>
					<dim>1</dim>
					<dim>1</dim>
				</port>
			</output>
		</layer>
		<layer id="5" name="117501175447961" type="Const" version="opset1">
			<data offset="12" size="4" shape="1,1,1,1" element_type="f32"/>
			<output>
				<port id="0" precision="FP32">
					<dim>1</dim>
					<dim>1</dim>
					<dim>1</dim>
					<dim>1</dim>
				</port>
			</output>
		</layer>
		<layer id="6" name="117511175552095" type="Const" version="opset1">
			<data offset="8" size="4" shape="1,1,1,1" element_type="f32"/>
			<output>
				<port id="0" precision="FP32">
					<dim>1</dim>
					<dim>1</dim>
					<dim>1</dim>
					<dim>1</dim>
				</port>
			</output>
		</layer>
		<layer id="7" name="117521175647532" type="Const" version="opset1">
			<data offset="12" size="4" shape="1,1,1,1" element_type="f32"/>
			<output>
				<port id="0" precision="FP32">
					<dim>1</dim>
					<dim>1</dim>
					<dim>1</dim>
					<dim>1</dim>
				</port>
			</output>
		</layer>
		<layer id="8" name="9829983351840" type="Const" version="opset1">
			<data offset="16" size="4" shape="1,1,1,1" element_type="f32"/>
			<output>
				<port id="0" precision="FP32">
					<dim>1</dim>
					<dim>1</dim>
					<dim>1</dim>
					<dim>1</dim>
				</port>
			</output>
		</layer>
		<layer id="9" name="9830983450607" type="Const" version="opset1">
			<data offset="20" size="4" shape="1,1,1,1" element_type="f32"/>
			<output>
				<port id="0" precision="FP32">
					<dim>1</dim>
					<dim>1</dim>
					<dim>1</dim>
					<dim>1</dim>
				</port>
			</output>
		</layer>
		<layer id="10" name="9831983553082" type="Const" version="opset1">
			<data offset="16" size="4" shape="1,1,1,1" element_type="f32"/>
			<output>
				<port id="0" precision="FP32">
					<dim>1</dim>
					<dim>1</dim>
					<dim>1</dim>
					<dim>1</dim>
				</port>
			</output>
		</layer>
		<layer id="11" name="9832983652320" type="Const" version="opset1">
			<data offset="20" size="4" shape="1,1,1,1" element_type="f32"/>
			<output>
				<port id="0" precision="FP32">
					<dim>1</dim>
					<dim>1</dim>
					<dim>1</dim>
					<dim>1</dim>
				</port>
			</output>
		</layer>
		<layer id="12" name="7759776353409" type="Const" version="opset1">
			<data offset="24" size="4" shape="1,1,1,1" element_type="f32"/>
			<output>
				<port id="0" precision="FP32">
					<dim>1</dim>
					<dim>1</dim>
					<dim>1</dim>
					<dim>1</dim>
				</port>
			</output>
		</layer>
		<layer id="13" name="7760776448399" type="Const" version="opset1">
			<data offset="28" size="4" shape="1,1,1,1" element_type="f32"/>
			<output>
				<port id="0" precision="FP32">
					<dim>1</dim>
					<dim>1</dim>
					<dim>1</dim>
					<dim>1</dim>
				</port>
			</output>
		</layer>
		<layer id="14" name="7761776549689" type="Const" version="opset1">
			<data offset="24" size="4" shape="1,1,1,1" element_type="f32"/>
			<output>
				<port id="0" precision="FP32">
					<dim>1</dim>
					<dim>1</dim>
					<dim>1</dim>
					<dim>1</dim>
				</port>
			</output>
		</layer>
		<layer id="15" name="7762776652959" type="Const" version="opset1">
			<data offset="28" size="4" shape="1,1,1,1" element_type="f32"/>
			<output>
				<port id="0" precision="FP32">
					<dim>1</dim>
					<dim>1</dim>
					<dim>1</dim>
					<dim>1</dim>
				</port>
			</output>
		</layer>
		<layer id="16" name="6509651352071" type="Const" version="opset1">
			<data offset="32" size="4" shape="1,1,1,1" element_type="f32"/>
			<output>
				<port id="0" precision="FP32">
					<dim>1</dim>
					<dim>1</dim>
					<dim>1</dim>
					<dim>1</dim>
				</port>
			</output>
		</layer>
		<layer id="17" name="6510651449788" type="Const" version="opset1">
			<data offset="36" size="4" shape="1,1,1,1" element_type="f32"/>
			<output>
				<port id="0" precision="FP32">
					<dim>1</dim>
					<dim>1</dim>
					<dim>1</dim>
					<dim>1</dim>
				</port>
			</output>
		</layer>
		<layer id="18" name="6511651551609" type="Const" version="opset1">
			<data offset="32" size="4" shape="1,1,1,1" element_type="f32"/>
			<output>
				<port id="0" precision="FP32">
					<dim>1</dim>
					<dim>1</dim>
					<dim>1</dim>
					<dim>1</dim>
				</port>
			</output>
		</layer>
		<layer id="19" name="6512651649182" type="Const" version="opset1">
			<data offset="36" size="4" shape="1,1,1,1" element_type="f32"/>
			<output>
				<port id="0" precision="FP32">
					<dim>1</dim>
					<dim>1</dim>
					<dim>1</dim>
					<dim>1</dim>
				</port>
			</output>
		</layer>
		<layer id="20" name="7579758348591" type="Const" version="opset1">
			<data offset="40" size="4" shape="1,1,1,1" element_type="f32"/>
			<output>
				<port id="0" precision="FP32">
					<dim>1</dim>
					<dim>1</dim>
					<dim>1</dim>
					<dim>1</dim>
				</port>
			</output>
		</layer>
		<layer id="21" name="7580758449482" type="Const" version="opset1">
			<data offset="44" size="4" shape="1,1,1,1" element_type="f32"/>
			<output>
				<port id="0" precision="FP32">
					<dim>1</dim>
					<dim>1</dim>
					<dim>1</dim>
					<dim>1</dim>
				</port>
			</output>
		</layer>
		<layer id="22" name="7581758548447" type="Const" version="opset1">
			<data offset="40" size="4" shape="1,1,1,1" element_type="f32"/>
			<output>
				<port id="0" precision="FP32">
					<dim>1</dim>
					<dim>1</dim>
					<dim>1</dim>
					<dim>1</dim>
				</port>
			</output>
		</layer>
		<layer id="23" name="7582758647955" type="Const" version="opset1">
			<data offset="44" size="4" shape="1,1,1,1" element_type="f32"/>
			<output>
				<port id="0" precision="FP32">
					<dim>1</dim>
					<dim>1</dim>
					<dim>1</dim>
					<dim>1</dim>
				</port>
			</output>
		</layer>
		<layer id="25" name="data_mul_44995196151246" type="Const" version="opset1">
			<data offset="48" size="6" shape="1,3,1,1" element_type="f16"/>
			<output>
				<port id="0" precision="FP16">
					<dim>1</dim>
					<dim>3</dim>
					<dim>1</dim>
					<dim>1</dim>
				</port>
			</output>
		</layer>
		<layer id="26" name="data_mul_44995196125722/restored_convert" type="Convert" version="opset1">
			<data destination_type="f32"/>
			<rt_info>
				<attribute name="decompression" version="0"/>
			</rt_info>
			<input>
				<port id="0">
					<dim>1</dim>
					<dim>3</dim>
					<dim>1</dim>
					<dim>1</dim>
				</port>
			</input>
			<output>
				<port id="1" precision="FP32">
					<dim>1</dim>
					<dim>3</dim>
					<dim>1</dim>
					<dim>1</dim>
				</port>
			</output>
		</layer>
		<layer id="27" name="data/norm/bn/mean/Fused_Mul_" type="Multiply" version="opset1">
			<data auto_broadcast="numpy"/>
			<input>
				<port id="0">
					<dim>1</dim>
					<dim>3</dim>
					<dim>400</dim>
					<dim>680</dim>
				</port>
				<port id="1">
					<dim>1</dim>
					<dim>3</dim>
					<dim>1</dim>
					<dim>1</dim>
				</port>
			</input>
			<output>
				<port id="2" precision="FP32">
					<dim>1</dim>
					<dim>3</dim>
					<dim>400</dim>
					<dim>680</dim>
				</port>
			</output>
		</layer>
		<layer id="28" name="data_add_44997196448867" type="Const" version="opset1">
			<data offset="54" size="6" shape="1,3,1,1" element_type="f16"/>
			<output>
				<port id="0" precision="FP16">
					<dim>1</dim>
					<dim>3</dim>
					<dim>1</dim>
					<dim>1</dim>
				</port>
			</output>
		</layer>
		<layer id="29" name="data_add_44997196425723/restored_convert" type="Convert" version="opset1">
			<data destination_type="f32"/>
			<rt_info>
				<attribute name="decompression" version="0"/>
			</rt_info>
			<input>
				<port id="0">
					<dim>1</dim>
					<dim>3</dim>
					<dim>1</dim>
					<dim>1</dim>
				</port>
			</input>
			<output>
				<port id="1" precision="FP32">
					<dim>1</dim>
					<dim>3</dim>
					<dim>1</dim>
					<dim>1</dim>
				</port>
			</output>
		</layer>
		<layer id="30" name="data/norm/bn/variance/Fused_Add_" type="Add" version="opset1">
			<data auto_broadcast="numpy"/>
			<input>
				<port id="0">
					<dim>1</dim>
					<dim>3</dim>
					<dim>400</dim>
					<dim>680</dim>
				</port>
				<port id="1">
					<dim>1</dim>
					<dim>3</dim>
					<dim>1</dim>
					<dim>1</dim>
				</port>
			</input>
			<output>
				<port id="2" precision="FP32" names="data/norm/bn">
					<dim>1</dim>
					<dim>3</dim>
					<dim>400</dim>
					<dim>680</dim>
				</port>
			</output>
		</layer>
		<layer id="31" name="init_block1/dim_inc/conv/fq_input_0" type="FakeQuantize" version="opset1">
			<data levels="256" auto_broadcast="numpy"/>
			<input>
				<port id="0">
					<dim>1</dim>
					<dim>3</dim>
					<dim>400</dim>
					<dim>680</dim>
				</port>
				<port id="1">
					<dim>1</dim>
					<dim>1</dim>
					<dim>1</dim>
					<dim>1</dim>
				</port>
				<port id="2">
					<dim>1</dim>
					<dim>1</dim>
					<dim>1</dim>
					<dim>1</dim>
				</port>
				<port id="3">
					<dim>1</dim>
					<dim>1</dim>
					<dim>1</dim>
					<dim>1</dim>
				</port>
				<port id="4">
					<dim>1</dim>
					<dim>1</dim>
					<dim>1</dim>
					<dim>1</dim>
				</port>
			</input>
			<output>
				<port id="5" precision="FP32">
					<dim>1</dim>
					<dim>3</dim>
					<dim>400</dim>
					<dim>680</dim>
				</port>
			</output>
		</layer>
		<layer id="32" name="init_block1/dim_inc/conv/fq_weights_1/scale3021150031" type="Const" version="opset1">
			<data offset="60" size="128" shape="32,1,1,1" element_type="f32"/>
			<output>
				<port id="0" precision="FP32">
					<dim>32</dim>
					<dim>1</dim>
					<dim>1</dim>
					<dim>1</dim>
				</port>
			</output>
		</layer>
		<layer id="33" name="init_block1/dim_inc/bn/mean/Fused_Mul__copy196725724/restored_convert/quantized3020353178" type="Const" version="opset1">
			<data offset="188" size="864" shape="32,3,3,3" element_type="i8"/>
			<output>
				<port id="0" precision="I8">
					<dim>32</dim>
					<dim>3</dim>
					<dim>3</dim>
					<dim>3</dim>
				</port>
			</output>
		</layer>
		<layer id="34" name="init_block1/dim_inc/bn/mean/Fused_Mul__copy196725724/restored_convert/quantized/to_f32" type="Convert" version="opset1">
			<data destination_type="f32"/>
			<input>
				<port id="0">
					<dim>32</dim>
					<dim>3</dim>
					<dim>3</dim>
					<dim>3</dim>
				</port>
			</input>
			<output>
				<port id="1" precision="FP32">
					<dim>32</dim>
					<dim>3</dim>
					<dim>3</dim>
					<dim>3</dim>
				</port>
			</output>
		</layer>
		<layer id="35" name="init_block1/dim_inc/conv/fq_weights_1/mulpiply_by_scale" type="Multiply" version="opset1">
			<data auto_broadcast="numpy"/>
			<input>
				<port id="0">
					<dim>32</dim>
					<dim>3</dim>
					<dim>3</dim>
					<dim>3</dim>
				</port>
				<port id="1">
					<dim>32</dim>
					<dim>1</dim>
					<dim>1</dim>
					<dim>1</dim>
				</port>
			</input>
			<output>
				<port id="2" precision="FP32">
					<dim>32</dim>
					<dim>3</dim>
					<dim>3</dim>
					<dim>3</dim>
				</port>
			</output>
		</layer>
		<layer id="36" name="init_block1/dim_inc/conv" type="Convolution" version="opset1">
			<data auto_pad="explicit" strides="2,2" dilations="1,1" pads_begin="1,1" pads_end="1,1"/>
			<input>
				<port id="0">
					<dim>1</dim>
					<dim>3</dim>
					<dim>400</dim>
					<dim>680</dim>
				</port>
				<port id="1">
					<dim>32</dim>
					<dim>3</dim>
					<dim>3</dim>
					<dim>3</dim>
				</port>
			</input>
			<output>
				<port id="2" precision="FP32">
					<dim>1</dim>
					<dim>32</dim>
					<dim>200</dim>
					<dim>340</dim>
				</port>
			</output>
		</layer>
		<layer id="37" name="data_add_4500045005197051591" type="Const" version="opset1">
			<data offset="1052" size="64" shape="1,32,1,1" element_type="f16"/>
			<output>
				<port id="0" precision="FP16">
					<dim>1</dim>
					<dim>32</dim>
					<dim>1</dim>
					<dim>1</dim>
				</port>
			</output>
		</layer>
		<layer id="38" name="data_add_4500045005197025725/restored_convert" type="Convert" version="opset1">
			<data destination_type="f32"/>
			<rt_info>
				<attribute name="decompression" version="0"/>
			</rt_info>
			<input>
				<port id="0">
					<dim>1</dim>
					<dim>32</dim>
					<dim>1</dim>
					<dim>1</dim>
				</port>
			</input>
			<output>
				<port id="1" precision="FP32">
					<dim>1</dim>
					<dim>32</dim>
					<dim>1</dim>
					<dim>1</dim>
				</port>
			</output>
		</layer>
		<layer id="39" name="init_block1/dim_inc/bn/variance/Fused_Add_" type="Add" version="opset1">
			<data auto_broadcast="numpy"/>
			<input>
				<port id="0">
					<dim>1</dim>
					<dim>32</dim>
					<dim>200</dim>
					<dim>340</dim>
				</port>
				<port id="1">
					<dim>1</dim>
					<dim>32</dim>
					<dim>1</dim>
					<dim>1</dim>
				</port>
			</input>
			<output>
				<port id="2" precision="FP32" names="init_block1/dim_inc/conv">
					<dim>1</dim>
					<dim>32</dim>
					<dim>200</dim>
					<dim>340</dim>
				</port>
			</output>
		</layer>
		<layer id="40" name="init_block1/dim_inc/fn" type="ReLU" version="opset1">
			<input>
				<port id="0">
					<dim>1</dim>
					<dim>32</dim>
					<dim>200</dim>
					<dim>340</dim>
				</port>
			</input>
			<output>
				<port id="1" precision="FP32" names="init_block1/dim_inc/conv">
					<dim>1</dim>
					<dim>32</dim>
					<dim>200</dim>
					<dim>340</dim>
				</port>
			</output>
		</layer>
		<layer id="41" name="bottleneck1_1/add/fq_input_0" type="FakeQuantize" version="opset1">
			<data levels="256" auto_broadcast="numpy"/>
			<input>
				<port id="0">
					<dim>1</dim>
					<dim>32</dim>
					<dim>200</dim>
					<dim>340</dim>
				</port>
				<port id="1">
					<dim>1</dim>
					<dim>1</dim>
					<dim>1</dim>
					<dim>1</dim>
				</port>
				<port id="2">
					<dim>1</dim>
					<dim>1</dim>
					<dim>1</dim>
					<dim>1</dim>
				</port>
				<port id="3">
					<dim>1</dim>
					<dim>1</dim>
					<dim>1</dim>
					<dim>1</dim>
				</port>
				<port id="4">
					<dim>1</dim>
					<dim>1</dim>
					<dim>1</dim>
					<dim>1</dim>
				</port>
			</input>
			<output>
				<port id="5" precision="FP32">
					<dim>1</dim>
					<dim>32</dim>
					<dim>200</dim>
					<dim>340</dim>
				</port>
			</output>
		</layer>
		<layer id="42" name="6519652349353" type="Const" version="opset1">
			<data offset="1116" size="4" shape="1,1,1,1" element_type="f32"/>
			<output>
				<port id="0" precision="FP32">
					<dim>1</dim>
					<dim>1</dim>
					<dim>1</dim>
					<dim>1</dim>
				</port>
			</output>
		</layer>
		<layer id="43" name="6520652452911" type="Const" version="opset1">
			<data offset="1120" size="4" shape="1,1,1,1" element_type="f32"/>
			<output>
				<port id="0" precision="FP32">
					<dim>1</dim>
					<dim>1</dim>
					<dim>1</dim>
					<dim>1</dim>
				</port>
			</output>
		</layer>
		<layer id="44" name="6521652549845" type="Const" version="opset1">
			<data offset="1116" size="4" shape="1,1,1,1" element_type="f32"/>
			<output>
				<port id="0" precision="FP32">
					<dim>1</dim>
					<dim>1</dim>
					<dim>1</dim>
					<dim>1</dim>
				</port>
			</output>
		</layer>
		<layer id="45" name="6522652650676" type="Const" version="opset1">
			<data offset="1120" size="4" shape="1,1,1,1" element_type="f32"/>
			<output>
				<port id="0" precision="FP32">
					<dim>1</dim>
					<dim>1</dim>
					<dim>1</dim>
					<dim>1</dim>
				</port>
			</output>
		</layer>
		<layer id="46" name="105791058350133" type="Const" version="opset1">
			<data offset="1124" size="4" shape="1,1,1,1" element_type="f32"/>
			<output>
				<port id="0" precision="FP32">
					<dim>1</dim>
					<dim>1</dim>
					<dim>1</dim>
					<dim>1</dim>
				</port>
			</output>
		</layer>
		<layer id="47" name="105801058450265" type="Const" version="opset1">
			<data offset="1128" size="4" shape="1,1,1,1" element_type="f32"/>
			<output>
				<port id="0" precision="FP32">
					<dim>1</dim>
					<dim>1</dim>
					<dim>1</dim>
					<dim>1</dim>
				</port>
			</output>
		</layer>
		<layer id="48" name="105811058548408" type="Const" version="opset1">
			<data offset="1124" size="4" shape="1,1,1,1" element_type="f32"/>
			<output>
				<port id="0" precision="FP32">
					<dim>1</dim>
					<dim>1</dim>
					<dim>1</dim>
					<dim>1</dim>
				</port>
			</output>
		</layer>
		<layer id="49" name="105821058648675" type="Const" version="opset1">
			<data offset="1128" size="4" shape="1,1,1,1" element_type="f32"/>
			<output>
				<port id="0" precision="FP32">
					<dim>1</dim>
					<dim>1</dim>
					<dim>1</dim>
					<dim>1</dim>
				</port>
			</output>
		</layer>
		<layer id="50" name="7839784348033" type="Const" version="opset1">
			<data offset="1132" size="32" shape="1,8,1,1" element_type="f32"/>
			<output>
				<port id="0" precision="FP32">
					<dim>1</dim>
					<dim>8</dim>
					<dim>1</dim>
					<dim>1</dim>
				</port>
			</output>
		</layer>
		<layer id="51" name="7840784452179" type="Const" version="opset1">
			<data offset="1164" size="32" shape="1,8,1,1" element_type="f32"/>
			<output>
				<port id="0" precision="FP32">
					<dim>1</dim>
					<dim>8</dim>
					<dim>1</dim>
					<dim>1</dim>
				</port>
			</output>
		</layer>
		<layer id="52" name="7841784549740" type="Const" version="opset1">
			<data offset="1132" size="32" shape="1,8,1,1" element_type="f32"/>
			<output>
				<port id="0" precision="FP32">
					<dim>1</dim>
					<dim>8</dim>
					<dim>1</dim>
					<dim>1</dim>
				</port>
			</output>
		</layer>
		<layer id="53" name="7842784653151" type="Const" version="opset1">
			<data offset="1164" size="32" shape="1,8,1,1" element_type="f32"/>
			<output>
				<port id="0" precision="FP32">
					<dim>1</dim>
					<dim>8</dim>
					<dim>1</dim>
					<dim>1</dim>
				</port>
			</output>
		</layer>
		<layer id="54" name="bottleneck1_1/dim_red/conv/fq_weights_1/scale3507148723" type="Const" version="opset1">
			<data offset="1196" size="32" shape="8,1,1,1" element_type="f32"/>
			<output>
				<port id="0" precision="FP32">
					<dim>8</dim>
					<dim>1</dim>
					<dim>1</dim>
					<dim>1</dim>
				</port>
			</output>
		</layer>
		<layer id="55" name="bottleneck1_1/dim_red/bn/mean/Fused_Mul__copy197425726/restored_convert/quantized3506349878" type="Const" version="opset1">
			<data offset="1228" size="256" shape="8,32,1,1" element_type="i8"/>
			<output>
				<port id="0" precision="I8">
					<dim>8</dim>
					<dim>32</dim>
					<dim>1</dim>
					<dim>1</dim>
				</port>
			</output>
		</layer>
		<layer id="56" name="bottleneck1_1/dim_red/bn/mean/Fused_Mul__copy197425726/restored_convert/quantized/to_f32" type="Convert" version="opset1">
			<data destination_type="f32"/>
			<input>
				<port id="0">
					<dim>8</dim>
					<dim>32</dim>
					<dim>1</dim>
					<dim>1</dim>
				</port>
			</input>
			<output>
				<port id="1" precision="FP32">
					<dim>8</dim>
					<dim>32</dim>
					<dim>1</dim>
					<dim>1</dim>
				</port>
			</output>
		</layer>
		<layer id="57" name="bottleneck1_1/dim_red/conv/fq_weights_1/mulpiply_by_scale" type="Multiply" version="opset1">
			<data auto_broadcast="numpy"/>
			<input>
				<port id="0">
					<dim>8</dim>
					<dim>32</dim>
					<dim>1</dim>
					<dim>1</dim>
				</port>
				<port id="1">
					<dim>8</dim>
					<dim>1</dim>
					<dim>1</dim>
					<dim>1</dim>
				</port>
			</input>
			<output>
				<port id="2" precision="FP32">
					<dim>8</dim>
					<dim>32</dim>
					<dim>1</dim>
					<dim>1</dim>
				</port>
			</output>
		</layer>
		<layer id="58" name="bottleneck1_1/dim_red/conv" type="Convolution" version="opset1">
			<data auto_pad="explicit" strides="1,1" dilations="1,1" pads_begin="0,0" pads_end="0,0"/>
			<input>
				<port id="0">
					<dim>1</dim>
					<dim>32</dim>
					<dim>200</dim>
					<dim>340</dim>
				</port>
				<port id="1">
					<dim>8</dim>
					<dim>32</dim>
					<dim>1</dim>
					<dim>1</dim>
				</port>
			</input>
			<output>
				<port id="2" precision="FP32">
					<dim>1</dim>
					<dim>8</dim>
					<dim>200</dim>
					<dim>340</dim>
				</port>
			</output>
		</layer>
		<layer id="59" name="data_add_4500845013197750304" type="Const" version="opset1">
			<data offset="1484" size="16" shape="1,8,1,1" element_type="f16"/>
			<output>
				<port id="0" precision="FP16">
					<dim>1</dim>
					<dim>8</dim>
					<dim>1</dim>
					<dim>1</dim>
				</port>
			</output>
		</layer>
		<layer id="60" name="data_add_4500845013197725727/restored_convert" type="Convert" version="opset1">
			<data destination_type="f32"/>
			<rt_info>
				<attribute name="decompression" version="0"/>
			</rt_info>
			<input>
				<port id="0">
					<dim>1</dim>
					<dim>8</dim>
					<dim>1</dim>
					<dim>1</dim>
				</port>
			</input>
			<output>
				<port id="1" precision="FP32">
					<dim>1</dim>
					<dim>8</dim>
					<dim>1</dim>
					<dim>1</dim>
				</port>
			</output>
		</layer>
		<layer id="61" name="bottleneck1_1/dim_red/bn/variance/Fused_Add_" type="Add" version="opset1">
			<data auto_broadcast="numpy"/>
			<input>
				<port id="0">
					<dim>1</dim>
					<dim>8</dim>
					<dim>200</dim>
					<dim>340</dim>
				</port>
				<port id="1">
					<dim>1</dim>
					<dim>8</dim>
					<dim>1</dim>
					<dim>1</dim>
				</port>
			</input>
			<output>
				<port id="2" precision="FP32" names="bottleneck1_1/dim_red/conv">
					<dim>1</dim>
					<dim>8</dim>
					<dim>200</dim>
					<dim>340</dim>
				</port>
			</output>
		</layer>
		<layer id="62" name="bottleneck1_1/dim_red/fn/weights5705874959198049464" type="Const" version="opset1">
			<data offset="1500" size="2" shape="1" element_type="f16"/>
			<output>
				<port id="0" precision="FP16">
					<dim>1</dim>
				</port>
			</output>
		</layer>
		<layer id="63" name="bottleneck1_1/dim_red/fn/weights5705874959198025728/restored_convert" type="Convert" version="opset1">
			<data destination_type="f32"/>
			<rt_info>
				<attribute name="decompression" version="0"/>
			</rt_info>
			<input>
				<port id="0">
					<dim>1</dim>
				</port>
			</input>
			<output>
				<port id="1" precision="FP32">
					<dim>1</dim>
				</port>
			</output>
		</layer>
		<layer id="64" name="bottleneck1_1/dim_red/fn" type="PReLU" version="opset1">
			<input>
				<port id="0">
					<dim>1</dim>
					<dim>8</dim>
					<dim>200</dim>
					<dim>340</dim>
				</port>
				<port id="1">
					<dim>1</dim>
				</port>
			</input>
			<output>
				<port id="2" precision="FP32" names="bottleneck1_1/dim_red/conv">
					<dim>1</dim>
					<dim>8</dim>
					<dim>200</dim>
					<dim>340</dim>
				</port>
			</output>
		</layer>
		<layer id="65" name="bottleneck1_1/inner/dw1/conv/fq_input_0" type="FakeQuantize" version="opset1">
			<data levels="256" auto_broadcast="numpy"/>
			<input>
				<port id="0">
					<dim>1</dim>
					<dim>8</dim>
					<dim>200</dim>
					<dim>340</dim>
				</port>
				<port id="1">
					<dim>1</dim>
					<dim>8</dim>
					<dim>1</dim>
					<dim>1</dim>
				</port>
				<port id="2">
					<dim>1</dim>
					<dim>8</dim>
					<dim>1</dim>
					<dim>1</dim>
				</port>
				<port id="3">
					<dim>1</dim>
					<dim>8</dim>
					<dim>1</dim>
					<dim>1</dim>
				</port>
				<port id="4">
					<dim>1</dim>
					<dim>8</dim>
					<dim>1</dim>
					<dim>1</dim>
				</port>
			</input>
			<output>
				<port id="5" precision="FP32">
					<dim>1</dim>
					<dim>8</dim>
					<dim>200</dim>
					<dim>340</dim>
				</port>
			</output>
		</layer>
		<layer id="66" name="bottleneck1_1/inner/dw1/conv/weights_shape4238848678" type="Const" version="opset1">
			<data offset="1502" size="40" shape="5" element_type="i64"/>
			<output>
				<port id="0" precision="I64">
					<dim>5</dim>
				</port>
			</output>
		</layer>
		<layer id="67" name="bottleneck1_1/inner/dw1/conv/fq_weights_1/scale3381152131" type="Const" version="opset1">
			<data offset="1542" size="32" shape="8,1,1,1" element_type="f32"/>
			<output>
				<port id="0" precision="FP32">
					<dim>8</dim>
					<dim>1</dim>
					<dim>1</dim>
					<dim>1</dim>
				</port>
			</output>
		</layer>
		<layer id="68" name="bottleneck1_1/inner/dw1/bn/mean/Fused_Mul__copy198325729/restored_convert/quantized3380347694" type="Const" version="opset1">
			<data offset="1574" size="72" shape="8,1,3,3" element_type="i8"/>
			<output>
				<port id="0" precision="I8">
					<dim>8</dim>
					<dim>1</dim>
					<dim>3</dim>
					<dim>3</dim>
				</port>
			</output>
		</layer>
		<layer id="69" name="bottleneck1_1/inner/dw1/bn/mean/Fused_Mul__copy198325729/restored_convert/quantized/to_f32" type="Convert" version="opset1">
			<data destination_type="f32"/>
			<input>
				<port id="0">
					<dim>8</dim>
					<dim>1</dim>
					<dim>3</dim>
					<dim>3</dim>
				</port>
			</input>
			<output>
				<port id="1" precision="FP32">
					<dim>8</dim>
					<dim>1</dim>
					<dim>3</dim>
					<dim>3</dim>
				</port>
			</output>
		</layer>
		<layer id="70" name="bottleneck1_1/inner/dw1/conv/fq_weights_1/mulpiply_by_scale" type="Multiply" version="opset1">
			<data auto_broadcast="numpy"/>
			<input>
				<port id="0">
					<dim>8</dim>
					<dim>1</dim>
					<dim>3</dim>
					<dim>3</dim>
				</port>
				<port id="1">
					<dim>8</dim>
					<dim>1</dim>
					<dim>1</dim>
					<dim>1</dim>
				</port>
			</input>
			<output>
				<port id="2" precision="FP32">
					<dim>8</dim>
					<dim>1</dim>
					<dim>3</dim>
					<dim>3</dim>
				</port>
			</output>
		</layer>
		<layer id="71" name="42387" type="Reshape" version="opset1">
			<data special_zero="true"/>
			<input>
				<port id="0">
					<dim>8</dim>
					<dim>1</dim>
					<dim>3</dim>
					<dim>3</dim>
				</port>
				<port id="1">
					<dim>5</dim>
				</port>
			</input>
			<output>
				<port id="2" precision="FP32">
					<dim>8</dim>
					<dim>1</dim>
					<dim>1</dim>
					<dim>3</dim>
					<dim>3</dim>
				</port>
			</output>
		</layer>
		<layer id="72" name="bottleneck1_1/inner/dw1/conv" type="GroupConvolution" version="opset1">
			<data auto_pad="explicit" strides="1,1" dilations="1,1" pads_begin="1,1" pads_end="1,1"/>
			<input>
				<port id="0">
					<dim>1</dim>
					<dim>8</dim>
					<dim>200</dim>
					<dim>340</dim>
				</port>
				<port id="1">
					<dim>8</dim>
					<dim>1</dim>
					<dim>1</dim>
					<dim>3</dim>
					<dim>3</dim>
				</port>
			</input>
			<output>
				<port id="2" precision="FP32">
					<dim>1</dim>
					<dim>8</dim>
					<dim>200</dim>
					<dim>340</dim>
				</port>
			</output>
		</layer>
		<layer id="73" name="data_add_4501645021198647631" type="Const" version="opset1">
			<data offset="1646" size="16" shape="1,8,1,1" element_type="f16"/>
			<output>
				<port id="0" precision="FP16">
					<dim>1</dim>
					<dim>8</dim>
					<dim>1</dim>
					<dim>1</dim>
				</port>
			</output>
		</layer>
		<layer id="74" name="data_add_4501645021198625730/restored_convert" type="Convert" version="opset1">
			<data destination_type="f32"/>
			<rt_info>
				<attribute name="decompression" version="0"/>
			</rt_info>
			<input>
				<port id="0">
					<dim>1</dim>
					<dim>8</dim>
					<dim>1</dim>
					<dim>1</dim>
				</port>
			</input>
			<output>
				<port id="1" precision="FP32">
					<dim>1</dim>
					<dim>8</dim>
					<dim>1</dim>
					<dim>1</dim>
				</port>
			</output>
		</layer>
		<layer id="75" name="bottleneck1_1/inner/dw1/bn/variance/Fused_Add_" type="Add" version="opset1">
			<data auto_broadcast="numpy"/>
			<input>
				<port id="0">
					<dim>1</dim>
					<dim>8</dim>
					<dim>200</dim>
					<dim>340</dim>
				</port>
				<port id="1">
					<dim>1</dim>
					<dim>8</dim>
					<dim>1</dim>
					<dim>1</dim>
				</port>
			</input>
			<output>
				<port id="2" precision="FP32" names="bottleneck1_1/inner/dw1/conv">
					<dim>1</dim>
					<dim>8</dim>
					<dim>200</dim>
					<dim>340</dim>
				</port>
			</output>
		</layer>
		<layer id="76" name="bottleneck1_1/inner/dw1/fn/weights5745473546198950430" type="Const" version="opset1">
			<data offset="1500" size="2" shape="1" element_type="f16"/>
			<output>
				<port id="0" precision="FP16">
					<dim>1</dim>
				</port>
			</output>
		</layer>
		<layer id="77" name="bottleneck1_1/inner/dw1/fn/weights5745473546198925731/restored_convert" type="Convert" version="opset1">
			<data destination_type="f32"/>
			<rt_info>
				<attribute name="decompression" version="0"/>
			</rt_info>
			<input>
				<port id="0">
					<dim>1</dim>
				</port>
			</input>
			<output>
				<port id="1" precision="FP32">
					<dim>1</dim>
				</port>
			</output>
		</layer>
		<layer id="78" name="bottleneck1_1/inner/dw1/fn" type="PReLU" version="opset1">
			<input>
				<port id="0">
					<dim>1</dim>
					<dim>8</dim>
					<dim>200</dim>
					<dim>340</dim>
				</port>
				<port id="1">
					<dim>1</dim>
				</port>
			</input>
			<output>
				<port id="2" precision="FP32" names="bottleneck1_1/inner/dw1/conv">
					<dim>1</dim>
					<dim>8</dim>
					<dim>200</dim>
					<dim>340</dim>
				</port>
			</output>
		</layer>
		<layer id="79" name="bottleneck1_1/dim_inc/conv/fq_input_0" type="FakeQuantize" version="opset1">
			<data levels="256" auto_broadcast="numpy"/>
			<input>
				<port id="0">
					<dim>1</dim>
					<dim>8</dim>
					<dim>200</dim>
					<dim>340</dim>
				</port>
				<port id="1">
					<dim>1</dim>
					<dim>1</dim>
					<dim>1</dim>
					<dim>1</dim>
				</port>
				<port id="2">
					<dim>1</dim>
					<dim>1</dim>
					<dim>1</dim>
					<dim>1</dim>
				</port>
				<port id="3">
					<dim>1</dim>
					<dim>1</dim>
					<dim>1</dim>
					<dim>1</dim>
				</port>
				<port id="4">
					<dim>1</dim>
					<dim>1</dim>
					<dim>1</dim>
					<dim>1</dim>
				</port>
			</input>
			<output>
				<port id="5" precision="FP32">
					<dim>1</dim>
					<dim>8</dim>
					<dim>200</dim>
					<dim>340</dim>
				</port>
			</output>
		</layer>
		<layer id="80" name="bottleneck1_1/dim_inc/conv/fq_weights_1/scale3318151783" type="Const" version="opset1">
			<data offset="1662" size="128" shape="32,1,1,1" element_type="f32"/>
			<output>
				<port id="0" precision="FP32">
					<dim>32</dim>
					<dim>1</dim>
					<dim>1</dim>
					<dim>1</dim>
				</port>
			</output>
		</layer>
		<layer id="81" name="bottleneck1_1/dim_inc/bn/mean/Fused_Mul__copy199225732/restored_convert/quantized3317348744" type="Const" version="opset1">
			<data offset="1790" size="256" shape="32,8,1,1" element_type="i8"/>
			<output>
				<port id="0" precision="I8">
					<dim>32</dim>
					<dim>8</dim>
					<dim>1</dim>
					<dim>1</dim>
				</port>
			</output>
		</layer>
		<layer id="82" name="bottleneck1_1/dim_inc/bn/mean/Fused_Mul__copy199225732/restored_convert/quantized/to_f32" type="Convert" version="opset1">
			<data destination_type="f32"/>
			<input>
				<port id="0">
					<dim>32</dim>
					<dim>8</dim>
					<dim>1</dim>
					<dim>1</dim>
				</port>
			</input>
			<output>
				<port id="1" precision="FP32">
					<dim>32</dim>
					<dim>8</dim>
					<dim>1</dim>
					<dim>1</dim>
				</port>
			</output>
		</layer>
		<layer id="83" name="bottleneck1_1/dim_inc/conv/fq_weights_1/mulpiply_by_scale" type="Multiply" version="opset1">
			<data auto_broadcast="numpy"/>
			<input>
				<port id="0">
					<dim>32</dim>
					<dim>8</dim>
					<dim>1</dim>
					<dim>1</dim>
				</port>
				<port id="1">
					<dim>32</dim>
					<dim>1</dim>
					<dim>1</dim>
					<dim>1</dim>
				</port>
			</input>
			<output>
				<port id="2" precision="FP32">
					<dim>32</dim>
					<dim>8</dim>
					<dim>1</dim>
					<dim>1</dim>
				</port>
			</output>
		</layer>
		<layer id="84" name="bottleneck1_1/dim_inc/conv" type="Convolution" version="opset1">
			<data auto_pad="explicit" strides="1,1" dilations="1,1" pads_begin="0,0" pads_end="0,0"/>
			<input>
				<port id="0">
					<dim>1</dim>
					<dim>8</dim>
					<dim>200</dim>
					<dim>340</dim>
				</port>
				<port id="1">
					<dim>32</dim>
					<dim>8</dim>
					<dim>1</dim>
					<dim>1</dim>
				</port>
			</input>
			<output>
				<port id="2" precision="FP32">
					<dim>1</dim>
					<dim>32</dim>
					<dim>200</dim>
					<dim>340</dim>
				</port>
			</output>
		</layer>
		<layer id="85" name="data_add_4502445029199551996" type="Const" version="opset1">
			<data offset="2046" size="64" shape="1,32,1,1" element_type="f16"/>
			<output>
				<port id="0" precision="FP16">
					<dim>1</dim>
					<dim>32</dim>
					<dim>1</dim>
					<dim>1</dim>
				</port>
			</output>
		</layer>
		<layer id="86" name="data_add_4502445029199525733/restored_convert" type="Convert" version="opset1">
			<data destination_type="f32"/>
			<rt_info>
				<attribute name="decompression" version="0"/>
			</rt_info>
			<input>
				<port id="0">
					<dim>1</dim>
					<dim>32</dim>
					<dim>1</dim>
					<dim>1</dim>
				</port>
			</input>
			<output>
				<port id="1" precision="FP32">
					<dim>1</dim>
					<dim>32</dim>
					<dim>1</dim>
					<dim>1</dim>
				</port>
			</output>
		</layer>
		<layer id="87" name="bottleneck1_1/dim_inc/bn/variance/Fused_Add_" type="Add" version="opset1">
			<data auto_broadcast="numpy"/>
			<input>
				<port id="0">
					<dim>1</dim>
					<dim>32</dim>
					<dim>200</dim>
					<dim>340</dim>
				</port>
				<port id="1">
					<dim>1</dim>
					<dim>32</dim>
					<dim>1</dim>
					<dim>1</dim>
				</port>
			</input>
			<output>
				<port id="2" precision="FP32" names="bottleneck1_1/dim_inc/conv,bottleneck1_1/dim_inc/dropout">
					<dim>1</dim>
					<dim>32</dim>
					<dim>200</dim>
					<dim>340</dim>
				</port>
			</output>
		</layer>
		<layer id="88" name="bottleneck1_1/add/fq_input_1" type="FakeQuantize" version="opset1">
			<data levels="256" auto_broadcast="numpy"/>
			<input>
				<port id="0">
					<dim>1</dim>
					<dim>32</dim>
					<dim>200</dim>
					<dim>340</dim>
				</port>
				<port id="1">
					<dim>1</dim>
					<dim>1</dim>
					<dim>1</dim>
					<dim>1</dim>
				</port>
				<port id="2">
					<dim>1</dim>
					<dim>1</dim>
					<dim>1</dim>
					<dim>1</dim>
				</port>
				<port id="3">
					<dim>1</dim>
					<dim>1</dim>
					<dim>1</dim>
					<dim>1</dim>
				</port>
				<port id="4">
					<dim>1</dim>
					<dim>1</dim>
					<dim>1</dim>
					<dim>1</dim>
				</port>
			</input>
			<output>
				<port id="5" precision="FP32">
					<dim>1</dim>
					<dim>32</dim>
					<dim>200</dim>
					<dim>340</dim>
				</port>
			</output>
		</layer>
		<layer id="89" name="bottleneck1_1/add" type="Add" version="opset1">
			<data auto_broadcast="numpy"/>
			<input>
				<port id="0">
					<dim>1</dim>
					<dim>32</dim>
					<dim>200</dim>
					<dim>340</dim>
				</port>
				<port id="1">
					<dim>1</dim>
					<dim>32</dim>
					<dim>200</dim>
					<dim>340</dim>
				</port>
			</input>
			<output>
				<port id="2" precision="FP32" names="bottleneck1_1/add">
					<dim>1</dim>
					<dim>32</dim>
					<dim>200</dim>
					<dim>340</dim>
				</port>
			</output>
		</layer>
		<layer id="90" name="bottleneck1_1/fn/weights5722674539199949710" type="Const" version="opset1">
			<data offset="1500" size="2" shape="1" element_type="f16"/>
			<output>
				<port id="0" precision="FP16">
					<dim>1</dim>
				</port>
			</output>
		</layer>
		<layer id="91" name="bottleneck1_1/fn/weights5722674539199925734/restored_convert" type="Convert" version="opset1">
			<data destination_type="f32"/>
			<rt_info>
				<attribute name="decompression" version="0"/>
			</rt_info>
			<input>
				<port id="0">
					<dim>1</dim>
				</port>
			</input>
			<output>
				<port id="1" precision="FP32">
					<dim>1</dim>
				</port>
			</output>
		</layer>
		<layer id="92" name="bottleneck1_1/fn" type="PReLU" version="opset1">
			<input>
				<port id="0">
					<dim>1</dim>
					<dim>32</dim>
					<dim>200</dim>
					<dim>340</dim>
				</port>
				<port id="1">
					<dim>1</dim>
				</port>
			</input>
			<output>
				<port id="2" precision="FP32" names="bottleneck1_1/add">
					<dim>1</dim>
					<dim>32</dim>
					<dim>200</dim>
					<dim>340</dim>
				</port>
			</output>
		</layer>
		<layer id="93" name="bottleneck1_2/add/fq_input_0" type="FakeQuantize" version="opset1">
			<data levels="256" auto_broadcast="numpy"/>
			<input>
				<port id="0">
					<dim>1</dim>
					<dim>32</dim>
					<dim>200</dim>
					<dim>340</dim>
				</port>
				<port id="1">
					<dim>1</dim>
					<dim>1</dim>
					<dim>1</dim>
					<dim>1</dim>
				</port>
				<port id="2">
					<dim>1</dim>
					<dim>1</dim>
					<dim>1</dim>
					<dim>1</dim>
				</port>
				<port id="3">
					<dim>1</dim>
					<dim>1</dim>
					<dim>1</dim>
					<dim>1</dim>
				</port>
				<port id="4">
					<dim>1</dim>
					<dim>1</dim>
					<dim>1</dim>
					<dim>1</dim>
				</port>
			</input>
			<output>
				<port id="5" precision="FP32">
					<dim>1</dim>
					<dim>32</dim>
					<dim>200</dim>
					<dim>340</dim>
				</port>
			</output>
		</layer>
		<layer id="94" name="7769777353352" type="Const" version="opset1">
			<data offset="2110" size="4" shape="1,1,1,1" element_type="f32"/>
			<output>
				<port id="0" precision="FP32">
					<dim>1</dim>
					<dim>1</dim>
					<dim>1</dim>
					<dim>1</dim>
				</port>
			</output>
		</layer>
		<layer id="95" name="7770777447973" type="Const" version="opset1">
			<data offset="2114" size="4" shape="1,1,1,1" element_type="f32"/>
			<output>
				<port id="0" precision="FP32">
					<dim>1</dim>
					<dim>1</dim>
					<dim>1</dim>
					<dim>1</dim>
				</port>
			</output>
		</layer>
		<layer id="96" name="7771777552935" type="Const" version="opset1">
			<data offset="2110" size="4" shape="1,1,1,1" element_type="f32"/>
			<output>
				<port id="0" precision="FP32">
					<dim>1</dim>
					<dim>1</dim>
					<dim>1</dim>
					<dim>1</dim>
				</port>
			</output>
		</layer>
		<layer id="97" name="7772777652113" type="Const" version="opset1">
			<data offset="2114" size="4" shape="1,1,1,1" element_type="f32"/>
			<output>
				<port id="0" precision="FP32">
					<dim>1</dim>
					<dim>1</dim>
					<dim>1</dim>
					<dim>1</dim>
				</port>
			</output>
		</layer>
		<layer id="98" name="107191072351159" type="Const" version="opset1">
			<data offset="2118" size="4" shape="1,1,1,1" element_type="f32"/>
			<output>
				<port id="0" precision="FP32">
					<dim>1</dim>
					<dim>1</dim>
					<dim>1</dim>
					<dim>1</dim>
				</port>
			</output>
		</layer>
		<layer id="99" name="107201072452020" type="Const" version="opset1">
			<data offset="2122" size="4" shape="1,1,1,1" element_type="f32"/>
			<output>
				<port id="0" precision="FP32">
					<dim>1</dim>
					<dim>1</dim>
					<dim>1</dim>
					<dim>1</dim>
				</port>
			</output>
		</layer>
		<layer id="100" name="107211072548174" type="Const" version="opset1">
			<data offset="2118" size="4" shape="1,1,1,1" element_type="f32"/>
			<output>
				<port id="0" precision="FP32">
					<dim>1</dim>
					<dim>1</dim>
					<dim>1</dim>
					<dim>1</dim>
				</port>
			</output>
		</layer>
		<layer id="101" name="107221072648546" type="Const" version="opset1">
			<data offset="2122" size="4" shape="1,1,1,1" element_type="f32"/>
			<output>
				<port id="0" precision="FP32">
					<dim>1</dim>
					<dim>1</dim>
					<dim>1</dim>
					<dim>1</dim>
				</port>
			</output>
		</layer>
		<layer id="102" name="119091191350103" type="Const" version="opset1">
			<data offset="2126" size="32" shape="1,8,1,1" element_type="f32"/>
			<output>
				<port id="0" precision="FP32">
					<dim>1</dim>
					<dim>8</dim>
					<dim>1</dim>
					<dim>1</dim>
				</port>
			</output>
		</layer>
		<layer id="103" name="119101191452257" type="Const" version="opset1">
			<data offset="2158" size="32" shape="1,8,1,1" element_type="f32"/>
			<output>
				<port id="0" precision="FP32">
					<dim>1</dim>
					<dim>8</dim>
					<dim>1</dim>
					<dim>1</dim>
				</port>
			</output>
		</layer>
		<layer id="104" name="119111191551369" type="Const" version="opset1">
			<data offset="2126" size="32" shape="1,8,1,1" element_type="f32"/>
			<output>
				<port id="0" precision="FP32">
					<dim>1</dim>
					<dim>8</dim>
					<dim>1</dim>
					<dim>1</dim>
				</port>
			</output>
		</layer>
		<layer id="105" name="119121191647868" type="Const" version="opset1">
			<data offset="2158" size="32" shape="1,8,1,1" element_type="f32"/>
			<output>
				<port id="0" precision="FP32">
					<dim>1</dim>
					<dim>8</dim>
					<dim>1</dim>
					<dim>1</dim>
				</port>
			</output>
		</layer>
		<layer id="106" name="bottleneck1_2/dim_red/conv/fq_weights_1/scale3558150982" type="Const" version="opset1">
			<data offset="2190" size="32" shape="8,1,1,1" element_type="f32"/>
			<output>
				<port id="0" precision="FP32">
					<dim>8</dim>
					<dim>1</dim>
					<dim>1</dim>
					<dim>1</dim>
				</port>
			</output>
		</layer>
		<layer id="107" name="bottleneck1_2/dim_red/bn/mean/Fused_Mul__copy200225735/restored_convert/quantized3557350604" type="Const" version="opset1">
			<data offset="2222" size="256" shape="8,32,1,1" element_type="i8"/>
			<output>
				<port id="0" precision="I8">
					<dim>8</dim>
					<dim>32</dim>
					<dim>1</dim>
					<dim>1</dim>
				</port>
			</output>
		</layer>
		<layer id="108" name="bottleneck1_2/dim_red/bn/mean/Fused_Mul__copy200225735/restored_convert/quantized/to_f32" type="Convert" version="opset1">
			<data destination_type="f32"/>
			<input>
				<port id="0">
					<dim>8</dim>
					<dim>32</dim>
					<dim>1</dim>
					<dim>1</dim>
				</port>
			</input>
			<output>
				<port id="1" precision="FP32">
					<dim>8</dim>
					<dim>32</dim>
					<dim>1</dim>
					<dim>1</dim>
				</port>
			</output>
		</layer>
		<layer id="109" name="bottleneck1_2/dim_red/conv/fq_weights_1/mulpiply_by_scale" type="Multiply" version="opset1">
			<data auto_broadcast="numpy"/>
			<input>
				<port id="0">
					<dim>8</dim>
					<dim>32</dim>
					<dim>1</dim>
					<dim>1</dim>
				</port>
				<port id="1">
					<dim>8</dim>
					<dim>1</dim>
					<dim>1</dim>
					<dim>1</dim>
				</port>
			</input>
			<output>
				<port id="2" precision="FP32">
					<dim>8</dim>
					<dim>32</dim>
					<dim>1</dim>
					<dim>1</dim>
				</port>
			</output>
		</layer>
		<layer id="110" name="bottleneck1_2/dim_red/conv" type="Convolution" version="opset1">
			<data auto_pad="explicit" strides="1,1" dilations="1,1" pads_begin="0,0" pads_end="0,0"/>
			<input>
				<port id="0">
					<dim>1</dim>
					<dim>32</dim>
					<dim>200</dim>
					<dim>340</dim>
				</port>
				<port id="1">
					<dim>8</dim>
					<dim>32</dim>
					<dim>1</dim>
					<dim>1</dim>
				</port>
			</input>
			<output>
				<port id="2" precision="FP32">
					<dim>1</dim>
					<dim>8</dim>
					<dim>200</dim>
					<dim>340</dim>
				</port>
			</output>
		</layer>
		<layer id="111" name="data_add_4503245037200547511" type="Const" version="opset1">
			<data offset="2478" size="16" shape="1,8,1,1" element_type="f16"/>
			<output>
				<port id="0" precision="FP16">
					<dim>1</dim>
					<dim>8</dim>
					<dim>1</dim>
					<dim>1</dim>
				</port>
			</output>
		</layer>
		<layer id="112" name="data_add_4503245037200525736/restored_convert" type="Convert" version="opset1">
			<data destination_type="f32"/>
			<rt_info>
				<attribute name="decompression" version="0"/>
			</rt_info>
			<input>
				<port id="0">
					<dim>1</dim>
					<dim>8</dim>
					<dim>1</dim>
					<dim>1</dim>
				</port>
			</input>
			<output>
				<port id="1" precision="FP32">
					<dim>1</dim>
					<dim>8</dim>
					<dim>1</dim>
					<dim>1</dim>
				</port>
			</output>
		</layer>
		<layer id="113" name="bottleneck1_2/dim_red/bn/variance/Fused_Add_" type="Add" version="opset1">
			<data auto_broadcast="numpy"/>
			<input>
				<port id="0">
					<dim>1</dim>
					<dim>8</dim>
					<dim>200</dim>
					<dim>340</dim>
				</port>
				<port id="1">
					<dim>1</dim>
					<dim>8</dim>
					<dim>1</dim>
					<dim>1</dim>
				</port>
			</input>
			<output>
				<port id="2" precision="FP32" names="bottleneck1_2/dim_red/conv">
					<dim>1</dim>
					<dim>8</dim>
					<dim>200</dim>
					<dim>340</dim>
				</port>
			</output>
		</layer>
		<layer id="114" name="bottleneck1_2/dim_red/fn/weights5715073702200853343" type="Const" version="opset1">
			<data offset="1500" size="2" shape="1" element_type="f16"/>
			<output>
				<port id="0" precision="FP16">
					<dim>1</dim>
				</port>
			</output>
		</layer>
		<layer id="115" name="bottleneck1_2/dim_red/fn/weights5715073702200825737/restored_convert" type="Convert" version="opset1">
			<data destination_type="f32"/>
			<rt_info>
				<attribute name="decompression" version="0"/>
			</rt_info>
			<input>
				<port id="0">
					<dim>1</dim>
				</port>
			</input>
			<output>
				<port id="1" precision="FP32">
					<dim>1</dim>
				</port>
			</output>
		</layer>
		<layer id="116" name="bottleneck1_2/dim_red/fn" type="PReLU" version="opset1">
			<input>
				<port id="0">
					<dim>1</dim>
					<dim>8</dim>
					<dim>200</dim>
					<dim>340</dim>
				</port>
				<port id="1">
					<dim>1</dim>
				</port>
			</input>
			<output>
				<port id="2" precision="FP32" names="bottleneck1_2/dim_red/conv">
					<dim>1</dim>
					<dim>8</dim>
					<dim>200</dim>
					<dim>340</dim>
				</port>
			</output>
		</layer>
		<layer id="117" name="bottleneck1_2/inner/dw1/conv/fq_input_0" type="FakeQuantize" version="opset1">
			<data levels="256" auto_broadcast="numpy"/>
			<input>
				<port id="0">
					<dim>1</dim>
					<dim>8</dim>
					<dim>200</dim>
					<dim>340</dim>
				</port>
				<port id="1">
					<dim>1</dim>
					<dim>8</dim>
					<dim>1</dim>
					<dim>1</dim>
				</port>
				<port id="2">
					<dim>1</dim>
					<dim>8</dim>
					<dim>1</dim>
					<dim>1</dim>
				</port>
				<port id="3">
					<dim>1</dim>
					<dim>8</dim>
					<dim>1</dim>
					<dim>1</dim>
				</port>
				<port id="4">
					<dim>1</dim>
					<dim>8</dim>
					<dim>1</dim>
					<dim>1</dim>
				</port>
			</input>
			<output>
				<port id="5" precision="FP32">
					<dim>1</dim>
					<dim>8</dim>
					<dim>200</dim>
					<dim>340</dim>
				</port>
			</output>
		</layer>
		<layer id="118" name="bottleneck1_2/inner/dw1/conv/weights_shape4240252314" type="Const" version="opset1">
			<data offset="1502" size="40" shape="5" element_type="i64"/>
			<output>
				<port id="0" precision="I64">
					<dim>5</dim>
				</port>
			</output>
		</layer>
		<layer id="119" name="bottleneck1_2/inner/dw1/conv/fq_weights_1/scale3366150355" type="Const" version="opset1">
			<data offset="2494" size="32" shape="8,1,1,1" element_type="f32"/>
			<output>
				<port id="0" precision="FP32">
					<dim>8</dim>
					<dim>1</dim>
					<dim>1</dim>
					<dim>1</dim>
				</port>
			</output>
		</layer>
		<layer id="120" name="bottleneck1_2/inner/dw1/bn/mean/Fused_Mul__copy201125738/restored_convert/quantized3365350040" type="Const" version="opset1">
			<data offset="2526" size="72" shape="8,1,3,3" element_type="i8"/>
			<output>
				<port id="0" precision="I8">
					<dim>8</dim>
					<dim>1</dim>
					<dim>3</dim>
					<dim>3</dim>
				</port>
			</output>
		</layer>
		<layer id="121" name="bottleneck1_2/inner/dw1/bn/mean/Fused_Mul__copy201125738/restored_convert/quantized/to_f32" type="Convert" version="opset1">
			<data destination_type="f32"/>
			<input>
				<port id="0">
					<dim>8</dim>
					<dim>1</dim>
					<dim>3</dim>
					<dim>3</dim>
				</port>
			</input>
			<output>
				<port id="1" precision="FP32">
					<dim>8</dim>
					<dim>1</dim>
					<dim>3</dim>
					<dim>3</dim>
				</port>
			</output>
		</layer>
		<layer id="122" name="bottleneck1_2/inner/dw1/conv/fq_weights_1/mulpiply_by_scale" type="Multiply" version="opset1">
			<data auto_broadcast="numpy"/>
			<input>
				<port id="0">
					<dim>8</dim>
					<dim>1</dim>
					<dim>3</dim>
					<dim>3</dim>
				</port>
				<port id="1">
					<dim>8</dim>
					<dim>1</dim>
					<dim>1</dim>
					<dim>1</dim>
				</port>
			</input>
			<output>
				<port id="2" precision="FP32">
					<dim>8</dim>
					<dim>1</dim>
					<dim>3</dim>
					<dim>3</dim>
				</port>
			</output>
		</layer>
		<layer id="123" name="42401" type="Reshape" version="opset1">
			<data special_zero="true"/>
			<input>
				<port id="0">
					<dim>8</dim>
					<dim>1</dim>
					<dim>3</dim>
					<dim>3</dim>
				</port>
				<port id="1">
					<dim>5</dim>
				</port>
			</input>
			<output>
				<port id="2" precision="FP32">
					<dim>8</dim>
					<dim>1</dim>
					<dim>1</dim>
					<dim>3</dim>
					<dim>3</dim>
				</port>
			</output>
		</layer>
		<layer id="124" name="bottleneck1_2/inner/dw1/conv" type="GroupConvolution" version="opset1">
			<data auto_pad="explicit" strides="1,1" dilations="1,1" pads_begin="1,1" pads_end="1,1"/>
			<input>
				<port id="0">
					<dim>1</dim>
					<dim>8</dim>
					<dim>200</dim>
					<dim>340</dim>
				</port>
				<port id="1">
					<dim>8</dim>
					<dim>1</dim>
					<dim>1</dim>
					<dim>3</dim>
					<dim>3</dim>
				</port>
			</input>
			<output>
				<port id="2" precision="FP32">
					<dim>1</dim>
					<dim>8</dim>
					<dim>200</dim>
					<dim>340</dim>
				</port>
			</output>
		</layer>
		<layer id="125" name="data_add_4504045045201451240" type="Const" version="opset1">
			<data offset="2598" size="16" shape="1,8,1,1" element_type="f16"/>
			<output>
				<port id="0" precision="FP16">
					<dim>1</dim>
					<dim>8</dim>
					<dim>1</dim>
					<dim>1</dim>
				</port>
			</output>
		</layer>
		<layer id="126" name="data_add_4504045045201425739/restored_convert" type="Convert" version="opset1">
			<data destination_type="f32"/>
			<rt_info>
				<attribute name="decompression" version="0"/>
			</rt_info>
			<input>
				<port id="0">
					<dim>1</dim>
					<dim>8</dim>
					<dim>1</dim>
					<dim>1</dim>
				</port>
			</input>
			<output>
				<port id="1" precision="FP32">
					<dim>1</dim>
					<dim>8</dim>
					<dim>1</dim>
					<dim>1</dim>
				</port>
			</output>
		</layer>
		<layer id="127" name="bottleneck1_2/inner/dw1/bn/variance/Fused_Add_" type="Add" version="opset1">
			<data auto_broadcast="numpy"/>
			<input>
				<port id="0">
					<dim>1</dim>
					<dim>8</dim>
					<dim>200</dim>
					<dim>340</dim>
				</port>
				<port id="1">
					<dim>1</dim>
					<dim>8</dim>
					<dim>1</dim>
					<dim>1</dim>
				</port>
			</input>
			<output>
				<port id="2" precision="FP32" names="bottleneck1_2/inner/dw1/conv">
					<dim>1</dim>
					<dim>8</dim>
					<dim>200</dim>
					<dim>340</dim>
				</port>
			</output>
		</layer>
		<layer id="128" name="bottleneck1_2/inner/dw1/fn/weights5721074689201752968" type="Const" version="opset1">
			<data offset="1500" size="2" shape="1" element_type="f16"/>
			<output>
				<port id="0" precision="FP16">
					<dim>1</dim>
				</port>
			</output>
		</layer>
		<layer id="129" name="bottleneck1_2/inner/dw1/fn/weights5721074689201725740/restored_convert" type="Convert" version="opset1">
			<data destination_type="f32"/>
			<rt_info>
				<attribute name="decompression" version="0"/>
			</rt_info>
			<input>
				<port id="0">
					<dim>1</dim>
				</port>
			</input>
			<output>
				<port id="1" precision="FP32">
					<dim>1</dim>
				</port>
			</output>
		</layer>
		<layer id="130" name="bottleneck1_2/inner/dw1/fn" type="PReLU" version="opset1">
			<input>
				<port id="0">
					<dim>1</dim>
					<dim>8</dim>
					<dim>200</dim>
					<dim>340</dim>
				</port>
				<port id="1">
					<dim>1</dim>
				</port>
			</input>
			<output>
				<port id="2" precision="FP32" names="bottleneck1_2/inner/dw1/conv">
					<dim>1</dim>
					<dim>8</dim>
					<dim>200</dim>
					<dim>340</dim>
				</port>
			</output>
		</layer>
		<layer id="131" name="bottleneck1_2/dim_inc/conv/fq_input_0" type="FakeQuantize" version="opset1">
			<data levels="256" auto_broadcast="numpy"/>
			<input>
				<port id="0">
					<dim>1</dim>
					<dim>8</dim>
					<dim>200</dim>
					<dim>340</dim>
				</port>
				<port id="1">
					<dim>1</dim>
					<dim>1</dim>
					<dim>1</dim>
					<dim>1</dim>
				</port>
				<port id="2">
					<dim>1</dim>
					<dim>1</dim>
					<dim>1</dim>
					<dim>1</dim>
				</port>
				<port id="3">
					<dim>1</dim>
					<dim>1</dim>
					<dim>1</dim>
					<dim>1</dim>
				</port>
				<port id="4">
					<dim>1</dim>
					<dim>1</dim>
					<dim>1</dim>
					<dim>1</dim>
				</port>
			</input>
			<output>
				<port id="5" precision="FP32">
					<dim>1</dim>
					<dim>8</dim>
					<dim>200</dim>
					<dim>340</dim>
				</port>
			</output>
		</layer>
		<layer id="132" name="bottleneck1_2/dim_inc/conv/fq_weights_1/scale3510149275" type="Const" version="opset1">
			<data offset="2614" size="128" shape="32,1,1,1" element_type="f32"/>
			<output>
				<port id="0" precision="FP32">
					<dim>32</dim>
					<dim>1</dim>
					<dim>1</dim>
					<dim>1</dim>
				</port>
			</output>
		</layer>
		<layer id="133" name="bottleneck1_2/dim_inc/bn/mean/Fused_Mul__copy202025741/restored_convert/quantized3509351822" type="Const" version="opset1">
			<data offset="2742" size="256" shape="32,8,1,1" element_type="i8"/>
			<output>
				<port id="0" precision="I8">
					<dim>32</dim>
					<dim>8</dim>
					<dim>1</dim>
					<dim>1</dim>
				</port>
			</output>
		</layer>
		<layer id="134" name="bottleneck1_2/dim_inc/bn/mean/Fused_Mul__copy202025741/restored_convert/quantized/to_f32" type="Convert" version="opset1">
			<data destination_type="f32"/>
			<input>
				<port id="0">
					<dim>32</dim>
					<dim>8</dim>
					<dim>1</dim>
					<dim>1</dim>
				</port>
			</input>
			<output>
				<port id="1" precision="FP32">
					<dim>32</dim>
					<dim>8</dim>
					<dim>1</dim>
					<dim>1</dim>
				</port>
			</output>
		</layer>
		<layer id="135" name="bottleneck1_2/dim_inc/conv/fq_weights_1/mulpiply_by_scale" type="Multiply" version="opset1">
			<data auto_broadcast="numpy"/>
			<input>
				<port id="0">
					<dim>32</dim>
					<dim>8</dim>
					<dim>1</dim>
					<dim>1</dim>
				</port>
				<port id="1">
					<dim>32</dim>
					<dim>1</dim>
					<dim>1</dim>
					<dim>1</dim>
				</port>
			</input>
			<output>
				<port id="2" precision="FP32">
					<dim>32</dim>
					<dim>8</dim>
					<dim>1</dim>
					<dim>1</dim>
				</port>
			</output>
		</layer>
		<layer id="136" name="bottleneck1_2/dim_inc/conv" type="Convolution" version="opset1">
			<data auto_pad="explicit" strides="1,1" dilations="1,1" pads_begin="0,0" pads_end="0,0"/>
			<input>
				<port id="0">
					<dim>1</dim>
					<dim>8</dim>
					<dim>200</dim>
					<dim>340</dim>
				</port>
				<port id="1">
					<dim>32</dim>
					<dim>8</dim>
					<dim>1</dim>
					<dim>1</dim>
				</port>
			</input>
			<output>
				<port id="2" precision="FP32">
					<dim>1</dim>
					<dim>32</dim>
					<dim>200</dim>
					<dim>340</dim>
				</port>
			</output>
		</layer>
		<layer id="137" name="data_add_4504845053202348681" type="Const" version="opset1">
			<data offset="2998" size="64" shape="1,32,1,1" element_type="f16"/>
			<output>
				<port id="0" precision="FP16">
					<dim>1</dim>
					<dim>32</dim>
					<dim>1</dim>
					<dim>1</dim>
				</port>
			</output>
		</layer>
		<layer id="138" name="data_add_4504845053202325742/restored_convert" type="Convert" version="opset1">
			<data destination_type="f32"/>
			<rt_info>
				<attribute name="decompression" version="0"/>
			</rt_info>
			<input>
				<port id="0">
					<dim>1</dim>
					<dim>32</dim>
					<dim>1</dim>
					<dim>1</dim>
				</port>
			</input>
			<output>
				<port id="1" precision="FP32">
					<dim>1</dim>
					<dim>32</dim>
					<dim>1</dim>
					<dim>1</dim>
				</port>
			</output>
		</layer>
		<layer id="139" name="bottleneck1_2/dim_inc/bn/variance/Fused_Add_" type="Add" version="opset1">
			<data auto_broadcast="numpy"/>
			<input>
				<port id="0">
					<dim>1</dim>
					<dim>32</dim>
					<dim>200</dim>
					<dim>340</dim>
				</port>
				<port id="1">
					<dim>1</dim>
					<dim>32</dim>
					<dim>1</dim>
					<dim>1</dim>
				</port>
			</input>
			<output>
				<port id="2" precision="FP32" names="bottleneck1_2/dim_inc/conv,bottleneck1_2/dim_inc/dropout">
					<dim>1</dim>
					<dim>32</dim>
					<dim>200</dim>
					<dim>340</dim>
				</port>
			</output>
		</layer>
		<layer id="140" name="bottleneck1_2/add/fq_input_1" type="FakeQuantize" version="opset1">
			<data levels="256" auto_broadcast="numpy"/>
			<input>
				<port id="0">
					<dim>1</dim>
					<dim>32</dim>
					<dim>200</dim>
					<dim>340</dim>
				</port>
				<port id="1">
					<dim>1</dim>
					<dim>1</dim>
					<dim>1</dim>
					<dim>1</dim>
				</port>
				<port id="2">
					<dim>1</dim>
					<dim>1</dim>
					<dim>1</dim>
					<dim>1</dim>
				</port>
				<port id="3">
					<dim>1</dim>
					<dim>1</dim>
					<dim>1</dim>
					<dim>1</dim>
				</port>
				<port id="4">
					<dim>1</dim>
					<dim>1</dim>
					<dim>1</dim>
					<dim>1</dim>
				</port>
			</input>
			<output>
				<port id="5" precision="FP32">
					<dim>1</dim>
					<dim>32</dim>
					<dim>200</dim>
					<dim>340</dim>
				</port>
			</output>
		</layer>
		<layer id="141" name="bottleneck1_2/add" type="Add" version="opset1">
			<data auto_broadcast="numpy"/>
			<input>
				<port id="0">
					<dim>1</dim>
					<dim>32</dim>
					<dim>200</dim>
					<dim>340</dim>
				</port>
				<port id="1">
					<dim>1</dim>
					<dim>32</dim>
					<dim>200</dim>
					<dim>340</dim>
				</port>
			</input>
			<output>
				<port id="2" precision="FP32" names="bottleneck1_2/add">
					<dim>1</dim>
					<dim>32</dim>
					<dim>200</dim>
					<dim>340</dim>
				</port>
			</output>
		</layer>
		<layer id="142" name="bottleneck1_2/fn/weights5684673825202747700" type="Const" version="opset1">
			<data offset="1500" size="2" shape="1" element_type="f16"/>
			<output>
				<port id="0" precision="FP16">
					<dim>1</dim>
				</port>
			</output>
		</layer>
		<layer id="143" name="bottleneck1_2/fn/weights5684673825202725743/restored_convert" type="Convert" version="opset1">
			<data destination_type="f32"/>
			<rt_info>
				<attribute name="decompression" version="0"/>
			</rt_info>
			<input>
				<port id="0">
					<dim>1</dim>
				</port>
			</input>
			<output>
				<port id="1" precision="FP32">
					<dim>1</dim>
				</port>
			</output>
		</layer>
		<layer id="144" name="bottleneck1_2/fn" type="PReLU" version="opset1">
			<input>
				<port id="0">
					<dim>1</dim>
					<dim>32</dim>
					<dim>200</dim>
					<dim>340</dim>
				</port>
				<port id="1">
					<dim>1</dim>
				</port>
			</input>
			<output>
				<port id="2" precision="FP32" names="bottleneck1_2/add">
					<dim>1</dim>
					<dim>32</dim>
					<dim>200</dim>
					<dim>340</dim>
				</port>
			</output>
		</layer>
		<layer id="145" name="bottleneck1_3/add/fq_input_0" type="FakeQuantize" version="opset1">
			<data levels="256" auto_broadcast="numpy"/>
			<input>
				<port id="0">
					<dim>1</dim>
					<dim>32</dim>
					<dim>200</dim>
					<dim>340</dim>
				</port>
				<port id="1">
					<dim>1</dim>
					<dim>1</dim>
					<dim>1</dim>
					<dim>1</dim>
				</port>
				<port id="2">
					<dim>1</dim>
					<dim>1</dim>
					<dim>1</dim>
					<dim>1</dim>
				</port>
				<port id="3">
					<dim>1</dim>
					<dim>1</dim>
					<dim>1</dim>
					<dim>1</dim>
				</port>
				<port id="4">
					<dim>1</dim>
					<dim>1</dim>
					<dim>1</dim>
					<dim>1</dim>
				</port>
			</input>
			<output>
				<port id="5" precision="FP32">
					<dim>1</dim>
					<dim>32</dim>
					<dim>200</dim>
					<dim>340</dim>
				</port>
			</output>
		</layer>
		<layer id="146" name="9839984349704" type="Const" version="opset1">
			<data offset="3062" size="4" shape="1,1,1,1" element_type="f32"/>
			<output>
				<port id="0" precision="FP32">
					<dim>1</dim>
					<dim>1</dim>
					<dim>1</dim>
					<dim>1</dim>
				</port>
			</output>
		</layer>
		<layer id="147" name="9840984447556" type="Const" version="opset1">
			<data offset="3066" size="4" shape="1,1,1,1" element_type="f32"/>
			<output>
				<port id="0" precision="FP32">
					<dim>1</dim>
					<dim>1</dim>
					<dim>1</dim>
					<dim>1</dim>
				</port>
			</output>
		</layer>
		<layer id="148" name="9841984548384" type="Const" version="opset1">
			<data offset="3062" size="4" shape="1,1,1,1" element_type="f32"/>
			<output>
				<port id="0" precision="FP32">
					<dim>1</dim>
					<dim>1</dim>
					<dim>1</dim>
					<dim>1</dim>
				</port>
			</output>
		</layer>
		<layer id="149" name="9842984651642" type="Const" version="opset1">
			<data offset="3066" size="4" shape="1,1,1,1" element_type="f32"/>
			<output>
				<port id="0" precision="FP32">
					<dim>1</dim>
					<dim>1</dim>
					<dim>1</dim>
					<dim>1</dim>
				</port>
			</output>
		</layer>
		<layer id="150" name="111091111351549" type="Const" version="opset1">
			<data offset="3070" size="4" shape="1,1,1,1" element_type="f32"/>
			<output>
				<port id="0" precision="FP32">
					<dim>1</dim>
					<dim>1</dim>
					<dim>1</dim>
					<dim>1</dim>
				</port>
			</output>
		</layer>
		<layer id="151" name="111101111449209" type="Const" version="opset1">
			<data offset="3074" size="4" shape="1,1,1,1" element_type="f32"/>
			<output>
				<port id="0" precision="FP32">
					<dim>1</dim>
					<dim>1</dim>
					<dim>1</dim>
					<dim>1</dim>
				</port>
			</output>
		</layer>
		<layer id="152" name="111111111549191" type="Const" version="opset1">
			<data offset="3070" size="4" shape="1,1,1,1" element_type="f32"/>
			<output>
				<port id="0" precision="FP32">
					<dim>1</dim>
					<dim>1</dim>
					<dim>1</dim>
					<dim>1</dim>
				</port>
			</output>
		</layer>
		<layer id="153" name="111121111650733" type="Const" version="opset1">
			<data offset="3074" size="4" shape="1,1,1,1" element_type="f32"/>
			<output>
				<port id="0" precision="FP32">
					<dim>1</dim>
					<dim>1</dim>
					<dim>1</dim>
					<dim>1</dim>
				</port>
			</output>
		</layer>
		<layer id="154" name="7209721350349" type="Const" version="opset1">
			<data offset="3078" size="32" shape="1,8,1,1" element_type="f32"/>
			<output>
				<port id="0" precision="FP32">
					<dim>1</dim>
					<dim>8</dim>
					<dim>1</dim>
					<dim>1</dim>
				</port>
			</output>
		</layer>
		<layer id="155" name="7210721450817" type="Const" version="opset1">
			<data offset="3110" size="32" shape="1,8,1,1" element_type="f32"/>
			<output>
				<port id="0" precision="FP32">
					<dim>1</dim>
					<dim>8</dim>
					<dim>1</dim>
					<dim>1</dim>
				</port>
			</output>
		</layer>
		<layer id="156" name="7211721550970" type="Const" version="opset1">
			<data offset="3078" size="32" shape="1,8,1,1" element_type="f32"/>
			<output>
				<port id="0" precision="FP32">
					<dim>1</dim>
					<dim>8</dim>
					<dim>1</dim>
					<dim>1</dim>
				</port>
			</output>
		</layer>
		<layer id="157" name="7212721649098" type="Const" version="opset1">
			<data offset="3110" size="32" shape="1,8,1,1" element_type="f32"/>
			<output>
				<port id="0" precision="FP32">
					<dim>1</dim>
					<dim>8</dim>
					<dim>1</dim>
					<dim>1</dim>
				</port>
			</output>
		</layer>
		<layer id="158" name="bottleneck1_3/dim_red/conv/fq_weights_1/scale3465151984" type="Const" version="opset1">
			<data offset="3142" size="32" shape="8,1,1,1" element_type="f32"/>
			<output>
				<port id="0" precision="FP32">
					<dim>8</dim>
					<dim>1</dim>
					<dim>1</dim>
					<dim>1</dim>
				</port>
			</output>
		</layer>
		<layer id="159" name="bottleneck1_3/dim_red/bn/mean/Fused_Mul__copy203025744/restored_convert/quantized3464352515" type="Const" version="opset1">
			<data offset="3174" size="256" shape="8,32,1,1" element_type="i8"/>
			<output>
				<port id="0" precision="I8">
					<dim>8</dim>
					<dim>32</dim>
					<dim>1</dim>
					<dim>1</dim>
				</port>
			</output>
		</layer>
		<layer id="160" name="bottleneck1_3/dim_red/bn/mean/Fused_Mul__copy203025744/restored_convert/quantized/to_f32" type="Convert" version="opset1">
			<data destination_type="f32"/>
			<input>
				<port id="0">
					<dim>8</dim>
					<dim>32</dim>
					<dim>1</dim>
					<dim>1</dim>
				</port>
			</input>
			<output>
				<port id="1" precision="FP32">
					<dim>8</dim>
					<dim>32</dim>
					<dim>1</dim>
					<dim>1</dim>
				</port>
			</output>
		</layer>
		<layer id="161" name="bottleneck1_3/dim_red/conv/fq_weights_1/mulpiply_by_scale" type="Multiply" version="opset1">
			<data auto_broadcast="numpy"/>
			<input>
				<port id="0">
					<dim>8</dim>
					<dim>32</dim>
					<dim>1</dim>
					<dim>1</dim>
				</port>
				<port id="1">
					<dim>8</dim>
					<dim>1</dim>
					<dim>1</dim>
					<dim>1</dim>
				</port>
			</input>
			<output>
				<port id="2" precision="FP32">
					<dim>8</dim>
					<dim>32</dim>
					<dim>1</dim>
					<dim>1</dim>
				</port>
			</output>
		</layer>
		<layer id="162" name="bottleneck1_3/dim_red/conv" type="Convolution" version="opset1">
			<data auto_pad="explicit" strides="1,1" dilations="1,1" pads_begin="0,0" pads_end="0,0"/>
			<input>
				<port id="0">
					<dim>1</dim>
					<dim>32</dim>
					<dim>200</dim>
					<dim>340</dim>
				</port>
				<port id="1">
					<dim>8</dim>
					<dim>32</dim>
					<dim>1</dim>
					<dim>1</dim>
				</port>
			</input>
			<output>
				<port id="2" precision="FP32">
					<dim>1</dim>
					<dim>8</dim>
					<dim>200</dim>
					<dim>340</dim>
				</port>
			</output>
		</layer>
		<layer id="163" name="data_add_4505645061203349968" type="Const" version="opset1">
			<data offset="3430" size="16" shape="1,8,1,1" element_type="f16"/>
			<output>
				<port id="0" precision="FP16">
					<dim>1</dim>
					<dim>8</dim>
					<dim>1</dim>
					<dim>1</dim>
				</port>
			</output>
		</layer>
		<layer id="164" name="data_add_4505645061203325745/restored_convert" type="Convert" version="opset1">
			<data destination_type="f32"/>
			<rt_info>
				<attribute name="decompression" version="0"/>
			</rt_info>
			<input>
				<port id="0">
					<dim>1</dim>
					<dim>8</dim>
					<dim>1</dim>
					<dim>1</dim>
				</port>
			</input>
			<output>
				<port id="1" precision="FP32">
					<dim>1</dim>
					<dim>8</dim>
					<dim>1</dim>
					<dim>1</dim>
				</port>
			</output>
		</layer>
		<layer id="165" name="bottleneck1_3/dim_red/bn/variance/Fused_Add_" type="Add" version="opset1">
			<data auto_broadcast="numpy"/>
			<input>
				<port id="0">
					<dim>1</dim>
					<dim>8</dim>
					<dim>200</dim>
					<dim>340</dim>
				</port>
				<port id="1">
					<dim>1</dim>
					<dim>8</dim>
					<dim>1</dim>
					<dim>1</dim>
				</port>
			</input>
			<output>
				<port id="2" precision="FP32" names="bottleneck1_3/dim_red/conv">
					<dim>1</dim>
					<dim>8</dim>
					<dim>200</dim>
					<dim>340</dim>
				</port>
			</output>
		</layer>
		<layer id="166" name="bottleneck1_3/dim_red/fn/weights5724274023203652329" type="Const" version="opset1">
			<data offset="1500" size="2" shape="1" element_type="f16"/>
			<output>
				<port id="0" precision="FP16">
					<dim>1</dim>
				</port>
			</output>
		</layer>
		<layer id="167" name="bottleneck1_3/dim_red/fn/weights5724274023203625746/restored_convert" type="Convert" version="opset1">
			<data destination_type="f32"/>
			<rt_info>
				<attribute name="decompression" version="0"/>
			</rt_info>
			<input>
				<port id="0">
					<dim>1</dim>
				</port>
			</input>
			<output>
				<port id="1" precision="FP32">
					<dim>1</dim>
				</port>
			</output>
		</layer>
		<layer id="168" name="bottleneck1_3/dim_red/fn" type="PReLU" version="opset1">
			<input>
				<port id="0">
					<dim>1</dim>
					<dim>8</dim>
					<dim>200</dim>
					<dim>340</dim>
				</port>
				<port id="1">
					<dim>1</dim>
				</port>
			</input>
			<output>
				<port id="2" precision="FP32" names="bottleneck1_3/dim_red/conv">
					<dim>1</dim>
					<dim>8</dim>
					<dim>200</dim>
					<dim>340</dim>
				</port>
			</output>
		</layer>
		<layer id="169" name="bottleneck1_3/inner/dw1/conv/fq_input_0" type="FakeQuantize" version="opset1">
			<data levels="256" auto_broadcast="numpy"/>
			<input>
				<port id="0">
					<dim>1</dim>
					<dim>8</dim>
					<dim>200</dim>
					<dim>340</dim>
				</port>
				<port id="1">
					<dim>1</dim>
					<dim>8</dim>
					<dim>1</dim>
					<dim>1</dim>
				</port>
				<port id="2">
					<dim>1</dim>
					<dim>8</dim>
					<dim>1</dim>
					<dim>1</dim>
				</port>
				<port id="3">
					<dim>1</dim>
					<dim>8</dim>
					<dim>1</dim>
					<dim>1</dim>
				</port>
				<port id="4">
					<dim>1</dim>
					<dim>8</dim>
					<dim>1</dim>
					<dim>1</dim>
				</port>
			</input>
			<output>
				<port id="5" precision="FP32">
					<dim>1</dim>
					<dim>8</dim>
					<dim>200</dim>
					<dim>340</dim>
				</port>
			</output>
		</layer>
		<layer id="170" name="bottleneck1_3/inner/dw1/conv/weights_shape4241652956" type="Const" version="opset1">
			<data offset="1502" size="40" shape="5" element_type="i64"/>
			<output>
				<port id="0" precision="I64">
					<dim>5</dim>
				</port>
			</output>
		</layer>
		<layer id="171" name="bottleneck1_3/inner/dw1/conv/fq_weights_1/scale3399150706" type="Const" version="opset1">
			<data offset="3446" size="32" shape="8,1,1,1" element_type="f32"/>
			<output>
				<port id="0" precision="FP32">
					<dim>8</dim>
					<dim>1</dim>
					<dim>1</dim>
					<dim>1</dim>
				</port>
			</output>
		</layer>
		<layer id="172" name="bottleneck1_3/inner/dw1/bn/mean/Fused_Mul__copy203925747/restored_convert/quantized3398352962" type="Const" version="opset1">
			<data offset="3478" size="72" shape="8,1,3,3" element_type="i8"/>
			<output>
				<port id="0" precision="I8">
					<dim>8</dim>
					<dim>1</dim>
					<dim>3</dim>
					<dim>3</dim>
				</port>
			</output>
		</layer>
		<layer id="173" name="bottleneck1_3/inner/dw1/bn/mean/Fused_Mul__copy203925747/restored_convert/quantized/to_f32" type="Convert" version="opset1">
			<data destination_type="f32"/>
			<input>
				<port id="0">
					<dim>8</dim>
					<dim>1</dim>
					<dim>3</dim>
					<dim>3</dim>
				</port>
			</input>
			<output>
				<port id="1" precision="FP32">
					<dim>8</dim>
					<dim>1</dim>
					<dim>3</dim>
					<dim>3</dim>
				</port>
			</output>
		</layer>
		<layer id="174" name="bottleneck1_3/inner/dw1/conv/fq_weights_1/mulpiply_by_scale" type="Multiply" version="opset1">
			<data auto_broadcast="numpy"/>
			<input>
				<port id="0">
					<dim>8</dim>
					<dim>1</dim>
					<dim>3</dim>
					<dim>3</dim>
				</port>
				<port id="1">
					<dim>8</dim>
					<dim>1</dim>
					<dim>1</dim>
					<dim>1</dim>
				</port>
			</input>
			<output>
				<port id="2" precision="FP32">
					<dim>8</dim>
					<dim>1</dim>
					<dim>3</dim>
					<dim>3</dim>
				</port>
			</output>
		</layer>
		<layer id="175" name="42415" type="Reshape" version="opset1">
			<data special_zero="true"/>
			<input>
				<port id="0">
					<dim>8</dim>
					<dim>1</dim>
					<dim>3</dim>
					<dim>3</dim>
				</port>
				<port id="1">
					<dim>5</dim>
				</port>
			</input>
			<output>
				<port id="2" precision="FP32">
					<dim>8</dim>
					<dim>1</dim>
					<dim>1</dim>
					<dim>3</dim>
					<dim>3</dim>
				</port>
			</output>
		</layer>
		<layer id="176" name="bottleneck1_3/inner/dw1/conv" type="GroupConvolution" version="opset1">
			<data auto_pad="explicit" strides="1,1" dilations="1,1" pads_begin="1,1" pads_end="1,1"/>
			<input>
				<port id="0">
					<dim>1</dim>
					<dim>8</dim>
					<dim>200</dim>
					<dim>340</dim>
				</port>
				<port id="1">
					<dim>8</dim>
					<dim>1</dim>
					<dim>1</dim>
					<dim>3</dim>
					<dim>3</dim>
				</port>
			</input>
			<output>
				<port id="2" precision="FP32">
					<dim>1</dim>
					<dim>8</dim>
					<dim>200</dim>
					<dim>340</dim>
				</port>
			</output>
		</layer>
		<layer id="177" name="data_add_4506445069204249824" type="Const" version="opset1">
			<data offset="3550" size="16" shape="1,8,1,1" element_type="f16"/>
			<output>
				<port id="0" precision="FP16">
					<dim>1</dim>
					<dim>8</dim>
					<dim>1</dim>
					<dim>1</dim>
				</port>
			</output>
		</layer>
		<layer id="178" name="data_add_4506445069204225748/restored_convert" type="Convert" version="opset1">
			<data destination_type="f32"/>
			<rt_info>
				<attribute name="decompression" version="0"/>
			</rt_info>
			<input>
				<port id="0">
					<dim>1</dim>
					<dim>8</dim>
					<dim>1</dim>
					<dim>1</dim>
				</port>
			</input>
			<output>
				<port id="1" precision="FP32">
					<dim>1</dim>
					<dim>8</dim>
					<dim>1</dim>
					<dim>1</dim>
				</port>
			</output>
		</layer>
		<layer id="179" name="bottleneck1_3/inner/dw1/bn/variance/Fused_Add_" type="Add" version="opset1">
			<data auto_broadcast="numpy"/>
			<input>
				<port id="0">
					<dim>1</dim>
					<dim>8</dim>
					<dim>200</dim>
					<dim>340</dim>
				</port>
				<port id="1">
					<dim>1</dim>
					<dim>8</dim>
					<dim>1</dim>
					<dim>1</dim>
				</port>
			</input>
			<output>
				<port id="2" precision="FP32" names="bottleneck1_3/inner/dw1/conv">
					<dim>1</dim>
					<dim>8</dim>
					<dim>200</dim>
					<dim>340</dim>
				</port>
			</output>
		</layer>
		<layer id="180" name="bottleneck1_3/inner/dw1/fn/weights5715874707204552383" type="Const" version="opset1">
			<data offset="1500" size="2" shape="1" element_type="f16"/>
			<output>
				<port id="0" precision="FP16">
					<dim>1</dim>
				</port>
			</output>
		</layer>
		<layer id="181" name="bottleneck1_3/inner/dw1/fn/weights5715874707204525749/restored_convert" type="Convert" version="opset1">
			<data destination_type="f32"/>
			<rt_info>
				<attribute name="decompression" version="0"/>
			</rt_info>
			<input>
				<port id="0">
					<dim>1</dim>
				</port>
			</input>
			<output>
				<port id="1" precision="FP32">
					<dim>1</dim>
				</port>
			</output>
		</layer>
		<layer id="182" name="bottleneck1_3/inner/dw1/fn" type="PReLU" version="opset1">
			<input>
				<port id="0">
					<dim>1</dim>
					<dim>8</dim>
					<dim>200</dim>
					<dim>340</dim>
				</port>
				<port id="1">
					<dim>1</dim>
				</port>
			</input>
			<output>
				<port id="2" precision="FP32" names="bottleneck1_3/inner/dw1/conv">
					<dim>1</dim>
					<dim>8</dim>
					<dim>200</dim>
					<dim>340</dim>
				</port>
			</output>
		</layer>
		<layer id="183" name="bottleneck1_3/dim_inc/conv/fq_input_0" type="FakeQuantize" version="opset1">
			<data levels="256" auto_broadcast="numpy"/>
			<input>
				<port id="0">
					<dim>1</dim>
					<dim>8</dim>
					<dim>200</dim>
					<dim>340</dim>
				</port>
				<port id="1">
					<dim>1</dim>
					<dim>1</dim>
					<dim>1</dim>
					<dim>1</dim>
				</port>
				<port id="2">
					<dim>1</dim>
					<dim>1</dim>
					<dim>1</dim>
					<dim>1</dim>
				</port>
				<port id="3">
					<dim>1</dim>
					<dim>1</dim>
					<dim>1</dim>
					<dim>1</dim>
				</port>
				<port id="4">
					<dim>1</dim>
					<dim>1</dim>
					<dim>1</dim>
					<dim>1</dim>
				</port>
			</input>
			<output>
				<port id="5" precision="FP32">
					<dim>1</dim>
					<dim>8</dim>
					<dim>200</dim>
					<dim>340</dim>
				</port>
			</output>
		</layer>
		<layer id="184" name="bottleneck1_3/dim_inc/conv/fq_weights_1/scale3135150235" type="Const" version="opset1">
			<data offset="3566" size="128" shape="32,1,1,1" element_type="f32"/>
			<output>
				<port id="0" precision="FP32">
					<dim>32</dim>
					<dim>1</dim>
					<dim>1</dim>
					<dim>1</dim>
				</port>
			</output>
		</layer>
		<layer id="185" name="bottleneck1_3/dim_inc/bn/mean/Fused_Mul__copy204825750/restored_convert/quantized3134352524" type="Const" version="opset1">
			<data offset="3694" size="256" shape="32,8,1,1" element_type="i8"/>
			<output>
				<port id="0" precision="I8">
					<dim>32</dim>
					<dim>8</dim>
					<dim>1</dim>
					<dim>1</dim>
				</port>
			</output>
		</layer>
		<layer id="186" name="bottleneck1_3/dim_inc/bn/mean/Fused_Mul__copy204825750/restored_convert/quantized/to_f32" type="Convert" version="opset1">
			<data destination_type="f32"/>
			<input>
				<port id="0">
					<dim>32</dim>
					<dim>8</dim>
					<dim>1</dim>
					<dim>1</dim>
				</port>
			</input>
			<output>
				<port id="1" precision="FP32">
					<dim>32</dim>
					<dim>8</dim>
					<dim>1</dim>
					<dim>1</dim>
				</port>
			</output>
		</layer>
		<layer id="187" name="bottleneck1_3/dim_inc/conv/fq_weights_1/mulpiply_by_scale" type="Multiply" version="opset1">
			<data auto_broadcast="numpy"/>
			<input>
				<port id="0">
					<dim>32</dim>
					<dim>8</dim>
					<dim>1</dim>
					<dim>1</dim>
				</port>
				<port id="1">
					<dim>32</dim>
					<dim>1</dim>
					<dim>1</dim>
					<dim>1</dim>
				</port>
			</input>
			<output>
				<port id="2" precision="FP32">
					<dim>32</dim>
					<dim>8</dim>
					<dim>1</dim>
					<dim>1</dim>
				</port>
			</output>
		</layer>
		<layer id="188" name="bottleneck1_3/dim_inc/conv" type="Convolution" version="opset1">
			<data auto_pad="explicit" strides="1,1" dilations="1,1" pads_begin="0,0" pads_end="0,0"/>
			<input>
				<port id="0">
					<dim>1</dim>
					<dim>8</dim>
					<dim>200</dim>
					<dim>340</dim>
				</port>
				<port id="1">
					<dim>32</dim>
					<dim>8</dim>
					<dim>1</dim>
					<dim>1</dim>
				</port>
			</input>
			<output>
				<port id="2" precision="FP32">
					<dim>1</dim>
					<dim>32</dim>
					<dim>200</dim>
					<dim>340</dim>
				</port>
			</output>
		</layer>
		<layer id="189" name="data_add_4507245077205150508" type="Const" version="opset1">
			<data offset="3950" size="64" shape="1,32,1,1" element_type="f16"/>
			<output>
				<port id="0" precision="FP16">
					<dim>1</dim>
					<dim>32</dim>
					<dim>1</dim>
					<dim>1</dim>
				</port>
			</output>
		</layer>
		<layer id="190" name="data_add_4507245077205125751/restored_convert" type="Convert" version="opset1">
			<data destination_type="f32"/>
			<rt_info>
				<attribute name="decompression" version="0"/>
			</rt_info>
			<input>
				<port id="0">
					<dim>1</dim>
					<dim>32</dim>
					<dim>1</dim>
					<dim>1</dim>
				</port>
			</input>
			<output>
				<port id="1" precision="FP32">
					<dim>1</dim>
					<dim>32</dim>
					<dim>1</dim>
					<dim>1</dim>
				</port>
			</output>
		</layer>
		<layer id="191" name="bottleneck1_3/dim_inc/bn/variance/Fused_Add_" type="Add" version="opset1">
			<data auto_broadcast="numpy"/>
			<input>
				<port id="0">
					<dim>1</dim>
					<dim>32</dim>
					<dim>200</dim>
					<dim>340</dim>
				</port>
				<port id="1">
					<dim>1</dim>
					<dim>32</dim>
					<dim>1</dim>
					<dim>1</dim>
				</port>
			</input>
			<output>
				<port id="2" precision="FP32" names="bottleneck1_3/dim_inc/conv,bottleneck1_3/dim_inc/dropout">
					<dim>1</dim>
					<dim>32</dim>
					<dim>200</dim>
					<dim>340</dim>
				</port>
			</output>
		</layer>
		<layer id="192" name="bottleneck1_3/add/fq_input_1" type="FakeQuantize" version="opset1">
			<data levels="256" auto_broadcast="numpy"/>
			<input>
				<port id="0">
					<dim>1</dim>
					<dim>32</dim>
					<dim>200</dim>
					<dim>340</dim>
				</port>
				<port id="1">
					<dim>1</dim>
					<dim>1</dim>
					<dim>1</dim>
					<dim>1</dim>
				</port>
				<port id="2">
					<dim>1</dim>
					<dim>1</dim>
					<dim>1</dim>
					<dim>1</dim>
				</port>
				<port id="3">
					<dim>1</dim>
					<dim>1</dim>
					<dim>1</dim>
					<dim>1</dim>
				</port>
				<port id="4">
					<dim>1</dim>
					<dim>1</dim>
					<dim>1</dim>
					<dim>1</dim>
				</port>
			</input>
			<output>
				<port id="5" precision="FP32">
					<dim>1</dim>
					<dim>32</dim>
					<dim>200</dim>
					<dim>340</dim>
				</port>
			</output>
		</layer>
		<layer id="193" name="bottleneck1_3/add" type="Add" version="opset1">
			<data auto_broadcast="numpy"/>
			<input>
				<port id="0">
					<dim>1</dim>
					<dim>32</dim>
					<dim>200</dim>
					<dim>340</dim>
				</port>
				<port id="1">
					<dim>1</dim>
					<dim>32</dim>
					<dim>200</dim>
					<dim>340</dim>
				</port>
			</input>
			<output>
				<port id="2" precision="FP32" names="bottleneck1_3/add">
					<dim>1</dim>
					<dim>32</dim>
					<dim>200</dim>
					<dim>340</dim>
				</port>
			</output>
		</layer>
		<layer id="194" name="bottleneck1_3/fn/weights5730273579205550841" type="Const" version="opset1">
			<data offset="1500" size="2" shape="1" element_type="f16"/>
			<output>
				<port id="0" precision="FP16">
					<dim>1</dim>
				</port>
			</output>
		</layer>
		<layer id="195" name="bottleneck1_3/fn/weights5730273579205525752/restored_convert" type="Convert" version="opset1">
			<data destination_type="f32"/>
			<rt_info>
				<attribute name="decompression" version="0"/>
			</rt_info>
			<input>
				<port id="0">
					<dim>1</dim>
				</port>
			</input>
			<output>
				<port id="1" precision="FP32">
					<dim>1</dim>
				</port>
			</output>
		</layer>
		<layer id="196" name="bottleneck1_3/fn" type="PReLU" version="opset1">
			<input>
				<port id="0">
					<dim>1</dim>
					<dim>32</dim>
					<dim>200</dim>
					<dim>340</dim>
				</port>
				<port id="1">
					<dim>1</dim>
				</port>
			</input>
			<output>
				<port id="2" precision="FP32" names="bottleneck1_3/add">
					<dim>1</dim>
					<dim>32</dim>
					<dim>200</dim>
					<dim>340</dim>
				</port>
			</output>
		</layer>
		<layer id="197" name="bottleneck1_4/add/fq_input_0" type="FakeQuantize" version="opset1">
			<data levels="256" auto_broadcast="numpy"/>
			<input>
				<port id="0">
					<dim>1</dim>
					<dim>32</dim>
					<dim>200</dim>
					<dim>340</dim>
				</port>
				<port id="1">
					<dim>1</dim>
					<dim>1</dim>
					<dim>1</dim>
					<dim>1</dim>
				</port>
				<port id="2">
					<dim>1</dim>
					<dim>1</dim>
					<dim>1</dim>
					<dim>1</dim>
				</port>
				<port id="3">
					<dim>1</dim>
					<dim>1</dim>
					<dim>1</dim>
					<dim>1</dim>
				</port>
				<port id="4">
					<dim>1</dim>
					<dim>1</dim>
					<dim>1</dim>
					<dim>1</dim>
				</port>
			</input>
			<output>
				<port id="5" precision="FP32">
					<dim>1</dim>
					<dim>32</dim>
					<dim>200</dim>
					<dim>340</dim>
				</port>
			</output>
		</layer>
		<layer id="198" name="117591176349512" type="Const" version="opset1">
			<data offset="4014" size="4" shape="1,1,1,1" element_type="f32"/>
			<output>
				<port id="0" precision="FP32">
					<dim>1</dim>
					<dim>1</dim>
					<dim>1</dim>
					<dim>1</dim>
				</port>
			</output>
		</layer>
		<layer id="199" name="117601176452623" type="Const" version="opset1">
			<data offset="4018" size="4" shape="1,1,1,1" element_type="f32"/>
			<output>
				<port id="0" precision="FP32">
					<dim>1</dim>
					<dim>1</dim>
					<dim>1</dim>
					<dim>1</dim>
				</port>
			</output>
		</layer>
		<layer id="200" name="117611176548636" type="Const" version="opset1">
			<data offset="4014" size="4" shape="1,1,1,1" element_type="f32"/>
			<output>
				<port id="0" precision="FP32">
					<dim>1</dim>
					<dim>1</dim>
					<dim>1</dim>
					<dim>1</dim>
				</port>
			</output>
		</layer>
		<layer id="201" name="117621176651951" type="Const" version="opset1">
			<data offset="4018" size="4" shape="1,1,1,1" element_type="f32"/>
			<output>
				<port id="0" precision="FP32">
					<dim>1</dim>
					<dim>1</dim>
					<dim>1</dim>
					<dim>1</dim>
				</port>
			</output>
		</layer>
		<layer id="202" name="7109711349758" type="Const" version="opset1">
			<data offset="4022" size="4" shape="1,1,1,1" element_type="f32"/>
			<output>
				<port id="0" precision="FP32">
					<dim>1</dim>
					<dim>1</dim>
					<dim>1</dim>
					<dim>1</dim>
				</port>
			</output>
		</layer>
		<layer id="203" name="7110711450043" type="Const" version="opset1">
			<data offset="4026" size="4" shape="1,1,1,1" element_type="f32"/>
			<output>
				<port id="0" precision="FP32">
					<dim>1</dim>
					<dim>1</dim>
					<dim>1</dim>
					<dim>1</dim>
				</port>
			</output>
		</layer>
		<layer id="204" name="7111711548804" type="Const" version="opset1">
			<data offset="4022" size="4" shape="1,1,1,1" element_type="f32"/>
			<output>
				<port id="0" precision="FP32">
					<dim>1</dim>
					<dim>1</dim>
					<dim>1</dim>
					<dim>1</dim>
				</port>
			</output>
		</layer>
		<layer id="205" name="7112711650121" type="Const" version="opset1">
			<data offset="4026" size="4" shape="1,1,1,1" element_type="f32"/>
			<output>
				<port id="0" precision="FP32">
					<dim>1</dim>
					<dim>1</dim>
					<dim>1</dim>
					<dim>1</dim>
				</port>
			</output>
		</layer>
		<layer id="206" name="102091021351354" type="Const" version="opset1">
			<data offset="4030" size="32" shape="1,8,1,1" element_type="f32"/>
			<output>
				<port id="0" precision="FP32">
					<dim>1</dim>
					<dim>8</dim>
					<dim>1</dim>
					<dim>1</dim>
				</port>
			</output>
		</layer>
		<layer id="207" name="102101021448993" type="Const" version="opset1">
			<data offset="4062" size="32" shape="1,8,1,1" element_type="f32"/>
			<output>
				<port id="0" precision="FP32">
					<dim>1</dim>
					<dim>8</dim>
					<dim>1</dim>
					<dim>1</dim>
				</port>
			</output>
		</layer>
		<layer id="208" name="102111021551699" type="Const" version="opset1">
			<data offset="4030" size="32" shape="1,8,1,1" element_type="f32"/>
			<output>
				<port id="0" precision="FP32">
					<dim>1</dim>
					<dim>8</dim>
					<dim>1</dim>
					<dim>1</dim>
				</port>
			</output>
		</layer>
		<layer id="209" name="102121021652578" type="Const" version="opset1">
			<data offset="4062" size="32" shape="1,8,1,1" element_type="f32"/>
			<output>
				<port id="0" precision="FP32">
					<dim>1</dim>
					<dim>8</dim>
					<dim>1</dim>
					<dim>1</dim>
				</port>
			</output>
		</layer>
		<layer id="210" name="bottleneck1_4/dim_red/conv/fq_weights_1/scale3306150034" type="Const" version="opset1">
			<data offset="4094" size="32" shape="8,1,1,1" element_type="f32"/>
			<output>
				<port id="0" precision="FP32">
					<dim>8</dim>
					<dim>1</dim>
					<dim>1</dim>
					<dim>1</dim>
				</port>
			</output>
		</layer>
		<layer id="211" name="bottleneck1_4/dim_red/bn/mean/Fused_Mul__copy205825753/restored_convert/quantized3305350268" type="Const" version="opset1">
			<data offset="4126" size="256" shape="8,32,1,1" element_type="i8"/>
			<output>
				<port id="0" precision="I8">
					<dim>8</dim>
					<dim>32</dim>
					<dim>1</dim>
					<dim>1</dim>
				</port>
			</output>
		</layer>
		<layer id="212" name="bottleneck1_4/dim_red/bn/mean/Fused_Mul__copy205825753/restored_convert/quantized/to_f32" type="Convert" version="opset1">
			<data destination_type="f32"/>
			<input>
				<port id="0">
					<dim>8</dim>
					<dim>32</dim>
					<dim>1</dim>
					<dim>1</dim>
				</port>
			</input>
			<output>
				<port id="1" precision="FP32">
					<dim>8</dim>
					<dim>32</dim>
					<dim>1</dim>
					<dim>1</dim>
				</port>
			</output>
		</layer>
		<layer id="213" name="bottleneck1_4/dim_red/conv/fq_weights_1/mulpiply_by_scale" type="Multiply" version="opset1">
			<data auto_broadcast="numpy"/>
			<input>
				<port id="0">
					<dim>8</dim>
					<dim>32</dim>
					<dim>1</dim>
					<dim>1</dim>
				</port>
				<port id="1">
					<dim>8</dim>
					<dim>1</dim>
					<dim>1</dim>
					<dim>1</dim>
				</port>
			</input>
			<output>
				<port id="2" precision="FP32">
					<dim>8</dim>
					<dim>32</dim>
					<dim>1</dim>
					<dim>1</dim>
				</port>
			</output>
		</layer>
		<layer id="214" name="bottleneck1_4/dim_red/conv" type="Convolution" version="opset1">
			<data auto_pad="explicit" strides="1,1" dilations="1,1" pads_begin="0,0" pads_end="0,0"/>
			<input>
				<port id="0">
					<dim>1</dim>
					<dim>32</dim>
					<dim>200</dim>
					<dim>340</dim>
				</port>
				<port id="1">
					<dim>8</dim>
					<dim>32</dim>
					<dim>1</dim>
					<dim>1</dim>
				</port>
			</input>
			<output>
				<port id="2" precision="FP32">
					<dim>1</dim>
					<dim>8</dim>
					<dim>200</dim>
					<dim>340</dim>
				</port>
			</output>
		</layer>
		<layer id="215" name="data_add_4508045085206151054" type="Const" version="opset1">
			<data offset="4382" size="16" shape="1,8,1,1" element_type="f16"/>
			<output>
				<port id="0" precision="FP16">
					<dim>1</dim>
					<dim>8</dim>
					<dim>1</dim>
					<dim>1</dim>
				</port>
			</output>
		</layer>
		<layer id="216" name="data_add_4508045085206125754/restored_convert" type="Convert" version="opset1">
			<data destination_type="f32"/>
			<rt_info>
				<attribute name="decompression" version="0"/>
			</rt_info>
			<input>
				<port id="0">
					<dim>1</dim>
					<dim>8</dim>
					<dim>1</dim>
					<dim>1</dim>
				</port>
			</input>
			<output>
				<port id="1" precision="FP32">
					<dim>1</dim>
					<dim>8</dim>
					<dim>1</dim>
					<dim>1</dim>
				</port>
			</output>
		</layer>
		<layer id="217" name="bottleneck1_4/dim_red/bn/variance/Fused_Add_" type="Add" version="opset1">
			<data auto_broadcast="numpy"/>
			<input>
				<port id="0">
					<dim>1</dim>
					<dim>8</dim>
					<dim>200</dim>
					<dim>340</dim>
				</port>
				<port id="1">
					<dim>1</dim>
					<dim>8</dim>
					<dim>1</dim>
					<dim>1</dim>
				</port>
			</input>
			<output>
				<port id="2" precision="FP32" names="bottleneck1_4/dim_red/conv">
					<dim>1</dim>
					<dim>8</dim>
					<dim>200</dim>
					<dim>340</dim>
				</port>
			</output>
		</layer>
		<layer id="218" name="bottleneck1_4/dim_red/fn/weights5703875070206451120" type="Const" version="opset1">
			<data offset="1500" size="2" shape="1" element_type="f16"/>
			<output>
				<port id="0" precision="FP16">
					<dim>1</dim>
				</port>
			</output>
		</layer>
		<layer id="219" name="bottleneck1_4/dim_red/fn/weights5703875070206425755/restored_convert" type="Convert" version="opset1">
			<data destination_type="f32"/>
			<rt_info>
				<attribute name="decompression" version="0"/>
			</rt_info>
			<input>
				<port id="0">
					<dim>1</dim>
				</port>
			</input>
			<output>
				<port id="1" precision="FP32">
					<dim>1</dim>
				</port>
			</output>
		</layer>
		<layer id="220" name="bottleneck1_4/dim_red/fn" type="PReLU" version="opset1">
			<input>
				<port id="0">
					<dim>1</dim>
					<dim>8</dim>
					<dim>200</dim>
					<dim>340</dim>
				</port>
				<port id="1">
					<dim>1</dim>
				</port>
			</input>
			<output>
				<port id="2" precision="FP32" names="bottleneck1_4/dim_red/conv">
					<dim>1</dim>
					<dim>8</dim>
					<dim>200</dim>
					<dim>340</dim>
				</port>
			</output>
		</layer>
		<layer id="221" name="bottleneck1_4/inner/dw1/conv/fq_input_0" type="FakeQuantize" version="opset1">
			<data levels="256" auto_broadcast="numpy"/>
			<input>
				<port id="0">
					<dim>1</dim>
					<dim>8</dim>
					<dim>200</dim>
					<dim>340</dim>
				</port>
				<port id="1">
					<dim>1</dim>
					<dim>8</dim>
					<dim>1</dim>
					<dim>1</dim>
				</port>
				<port id="2">
					<dim>1</dim>
					<dim>8</dim>
					<dim>1</dim>
					<dim>1</dim>
				</port>
				<port id="3">
					<dim>1</dim>
					<dim>8</dim>
					<dim>1</dim>
					<dim>1</dim>
				</port>
				<port id="4">
					<dim>1</dim>
					<dim>8</dim>
					<dim>1</dim>
					<dim>1</dim>
				</port>
			</input>
			<output>
				<port id="5" precision="FP32">
					<dim>1</dim>
					<dim>8</dim>
					<dim>200</dim>
					<dim>340</dim>
				</port>
			</output>
		</layer>
		<layer id="222" name="bottleneck1_4/inner/dw1/conv/weights_shape4243047874" type="Const" version="opset1">
			<data offset="1502" size="40" shape="5" element_type="i64"/>
			<output>
				<port id="0" precision="I64">
					<dim>5</dim>
				</port>
			</output>
		</layer>
		<layer id="223" name="bottleneck1_4/inner/dw1/conv/fq_weights_1/scale3180151654" type="Const" version="opset1">
			<data offset="4398" size="32" shape="8,1,1,1" element_type="f32"/>
			<output>
				<port id="0" precision="FP32">
					<dim>8</dim>
					<dim>1</dim>
					<dim>1</dim>
					<dim>1</dim>
				</port>
			</output>
		</layer>
		<layer id="224" name="bottleneck1_4/inner/dw1/bn/mean/Fused_Mul__copy206725756/restored_convert/quantized3179353499" type="Const" version="opset1">
			<data offset="4430" size="72" shape="8,1,3,3" element_type="i8"/>
			<output>
				<port id="0" precision="I8">
					<dim>8</dim>
					<dim>1</dim>
					<dim>3</dim>
					<dim>3</dim>
				</port>
			</output>
		</layer>
		<layer id="225" name="bottleneck1_4/inner/dw1/bn/mean/Fused_Mul__copy206725756/restored_convert/quantized/to_f32" type="Convert" version="opset1">
			<data destination_type="f32"/>
			<input>
				<port id="0">
					<dim>8</dim>
					<dim>1</dim>
					<dim>3</dim>
					<dim>3</dim>
				</port>
			</input>
			<output>
				<port id="1" precision="FP32">
					<dim>8</dim>
					<dim>1</dim>
					<dim>3</dim>
					<dim>3</dim>
				</port>
			</output>
		</layer>
		<layer id="226" name="bottleneck1_4/inner/dw1/conv/fq_weights_1/mulpiply_by_scale" type="Multiply" version="opset1">
			<data auto_broadcast="numpy"/>
			<input>
				<port id="0">
					<dim>8</dim>
					<dim>1</dim>
					<dim>3</dim>
					<dim>3</dim>
				</port>
				<port id="1">
					<dim>8</dim>
					<dim>1</dim>
					<dim>1</dim>
					<dim>1</dim>
				</port>
			</input>
			<output>
				<port id="2" precision="FP32">
					<dim>8</dim>
					<dim>1</dim>
					<dim>3</dim>
					<dim>3</dim>
				</port>
			</output>
		</layer>
		<layer id="227" name="42429" type="Reshape" version="opset1">
			<data special_zero="true"/>
			<input>
				<port id="0">
					<dim>8</dim>
					<dim>1</dim>
					<dim>3</dim>
					<dim>3</dim>
				</port>
				<port id="1">
					<dim>5</dim>
				</port>
			</input>
			<output>
				<port id="2" precision="FP32">
					<dim>8</dim>
					<dim>1</dim>
					<dim>1</dim>
					<dim>3</dim>
					<dim>3</dim>
				</port>
			</output>
		</layer>
		<layer id="228" name="bottleneck1_4/inner/dw1/conv" type="GroupConvolution" version="opset1">
			<data auto_pad="explicit" strides="1,1" dilations="1,1" pads_begin="1,1" pads_end="1,1"/>
			<input>
				<port id="0">
					<dim>1</dim>
					<dim>8</dim>
					<dim>200</dim>
					<dim>340</dim>
				</port>
				<port id="1">
					<dim>8</dim>
					<dim>1</dim>
					<dim>1</dim>
					<dim>3</dim>
					<dim>3</dim>
				</port>
			</input>
			<output>
				<port id="2" precision="FP32">
					<dim>1</dim>
					<dim>8</dim>
					<dim>200</dim>
					<dim>340</dim>
				</port>
			</output>
		</layer>
		<layer id="229" name="data_add_4508845093207048705" type="Const" version="opset1">
			<data offset="4502" size="16" shape="1,8,1,1" element_type="f16"/>
			<output>
				<port id="0" precision="FP16">
					<dim>1</dim>
					<dim>8</dim>
					<dim>1</dim>
					<dim>1</dim>
				</port>
			</output>
		</layer>
		<layer id="230" name="data_add_4508845093207025757/restored_convert" type="Convert" version="opset1">
			<data destination_type="f32"/>
			<rt_info>
				<attribute name="decompression" version="0"/>
			</rt_info>
			<input>
				<port id="0">
					<dim>1</dim>
					<dim>8</dim>
					<dim>1</dim>
					<dim>1</dim>
				</port>
			</input>
			<output>
				<port id="1" precision="FP32">
					<dim>1</dim>
					<dim>8</dim>
					<dim>1</dim>
					<dim>1</dim>
				</port>
			</output>
		</layer>
		<layer id="231" name="bottleneck1_4/inner/dw1/bn/variance/Fused_Add_" type="Add" version="opset1">
			<data auto_broadcast="numpy"/>
			<input>
				<port id="0">
					<dim>1</dim>
					<dim>8</dim>
					<dim>200</dim>
					<dim>340</dim>
				</port>
				<port id="1">
					<dim>1</dim>
					<dim>8</dim>
					<dim>1</dim>
					<dim>1</dim>
				</port>
			</input>
			<output>
				<port id="2" precision="FP32" names="bottleneck1_4/inner/dw1/conv">
					<dim>1</dim>
					<dim>8</dim>
					<dim>200</dim>
					<dim>340</dim>
				</port>
			</output>
		</layer>
		<layer id="232" name="bottleneck1_4/inner/dw1/fn/weights5717475259207351582" type="Const" version="opset1">
			<data offset="1500" size="2" shape="1" element_type="f16"/>
			<output>
				<port id="0" precision="FP16">
					<dim>1</dim>
				</port>
			</output>
		</layer>
		<layer id="233" name="bottleneck1_4/inner/dw1/fn/weights5717475259207325758/restored_convert" type="Convert" version="opset1">
			<data destination_type="f32"/>
			<rt_info>
				<attribute name="decompression" version="0"/>
			</rt_info>
			<input>
				<port id="0">
					<dim>1</dim>
				</port>
			</input>
			<output>
				<port id="1" precision="FP32">
					<dim>1</dim>
				</port>
			</output>
		</layer>
		<layer id="234" name="bottleneck1_4/inner/dw1/fn" type="PReLU" version="opset1">
			<input>
				<port id="0">
					<dim>1</dim>
					<dim>8</dim>
					<dim>200</dim>
					<dim>340</dim>
				</port>
				<port id="1">
					<dim>1</dim>
				</port>
			</input>
			<output>
				<port id="2" precision="FP32" names="bottleneck1_4/inner/dw1/conv">
					<dim>1</dim>
					<dim>8</dim>
					<dim>200</dim>
					<dim>340</dim>
				</port>
			</output>
		</layer>
		<layer id="235" name="bottleneck1_4/dim_inc/conv/fq_input_0" type="FakeQuantize" version="opset1">
			<data levels="256" auto_broadcast="numpy"/>
			<input>
				<port id="0">
					<dim>1</dim>
					<dim>8</dim>
					<dim>200</dim>
					<dim>340</dim>
				</port>
				<port id="1">
					<dim>1</dim>
					<dim>1</dim>
					<dim>1</dim>
					<dim>1</dim>
				</port>
				<port id="2">
					<dim>1</dim>
					<dim>1</dim>
					<dim>1</dim>
					<dim>1</dim>
				</port>
				<port id="3">
					<dim>1</dim>
					<dim>1</dim>
					<dim>1</dim>
					<dim>1</dim>
				</port>
				<port id="4">
					<dim>1</dim>
					<dim>1</dim>
					<dim>1</dim>
					<dim>1</dim>
				</port>
			</input>
			<output>
				<port id="5" precision="FP32">
					<dim>1</dim>
					<dim>8</dim>
					<dim>200</dim>
					<dim>340</dim>
				</port>
			</output>
		</layer>
		<layer id="236" name="bottleneck1_4/dim_inc/conv/fq_weights_1/scale3579151579" type="Const" version="opset1">
			<data offset="4518" size="128" shape="32,1,1,1" element_type="f32"/>
			<output>
				<port id="0" precision="FP32">
					<dim>32</dim>
					<dim>1</dim>
					<dim>1</dim>
					<dim>1</dim>
				</port>
			</output>
		</layer>
		<layer id="237" name="bottleneck1_4/dim_inc/bn/mean/Fused_Mul__copy207625759/restored_convert/quantized3578351396" type="Const" version="opset1">
			<data offset="4646" size="256" shape="32,8,1,1" element_type="i8"/>
			<output>
				<port id="0" precision="I8">
					<dim>32</dim>
					<dim>8</dim>
					<dim>1</dim>
					<dim>1</dim>
				</port>
			</output>
		</layer>
		<layer id="238" name="bottleneck1_4/dim_inc/bn/mean/Fused_Mul__copy207625759/restored_convert/quantized/to_f32" type="Convert" version="opset1">
			<data destination_type="f32"/>
			<input>
				<port id="0">
					<dim>32</dim>
					<dim>8</dim>
					<dim>1</dim>
					<dim>1</dim>
				</port>
			</input>
			<output>
				<port id="1" precision="FP32">
					<dim>32</dim>
					<dim>8</dim>
					<dim>1</dim>
					<dim>1</dim>
				</port>
			</output>
		</layer>
		<layer id="239" name="bottleneck1_4/dim_inc/conv/fq_weights_1/mulpiply_by_scale" type="Multiply" version="opset1">
			<data auto_broadcast="numpy"/>
			<input>
				<port id="0">
					<dim>32</dim>
					<dim>8</dim>
					<dim>1</dim>
					<dim>1</dim>
				</port>
				<port id="1">
					<dim>32</dim>
					<dim>1</dim>
					<dim>1</dim>
					<dim>1</dim>
				</port>
			</input>
			<output>
				<port id="2" precision="FP32">
					<dim>32</dim>
					<dim>8</dim>
					<dim>1</dim>
					<dim>1</dim>
				</port>
			</output>
		</layer>
		<layer id="240" name="bottleneck1_4/dim_inc/conv" type="Convolution" version="opset1">
			<data auto_pad="explicit" strides="1,1" dilations="1,1" pads_begin="0,0" pads_end="0,0"/>
			<input>
				<port id="0">
					<dim>1</dim>
					<dim>8</dim>
					<dim>200</dim>
					<dim>340</dim>
				</port>
				<port id="1">
					<dim>32</dim>
					<dim>8</dim>
					<dim>1</dim>
					<dim>1</dim>
				</port>
			</input>
			<output>
				<port id="2" precision="FP32">
					<dim>1</dim>
					<dim>32</dim>
					<dim>200</dim>
					<dim>340</dim>
				</port>
			</output>
		</layer>
		<layer id="241" name="data_add_4509645101207948345" type="Const" version="opset1">
			<data offset="4902" size="64" shape="1,32,1,1" element_type="f16"/>
			<output>
				<port id="0" precision="FP16">
					<dim>1</dim>
					<dim>32</dim>
					<dim>1</dim>
					<dim>1</dim>
				</port>
			</output>
		</layer>
		<layer id="242" name="data_add_4509645101207925760/restored_convert" type="Convert" version="opset1">
			<data destination_type="f32"/>
			<rt_info>
				<attribute name="decompression" version="0"/>
			</rt_info>
			<input>
				<port id="0">
					<dim>1</dim>
					<dim>32</dim>
					<dim>1</dim>
					<dim>1</dim>
				</port>
			</input>
			<output>
				<port id="1" precision="FP32">
					<dim>1</dim>
					<dim>32</dim>
					<dim>1</dim>
					<dim>1</dim>
				</port>
			</output>
		</layer>
		<layer id="243" name="bottleneck1_4/dim_inc/bn/variance/Fused_Add_" type="Add" version="opset1">
			<data auto_broadcast="numpy"/>
			<input>
				<port id="0">
					<dim>1</dim>
					<dim>32</dim>
					<dim>200</dim>
					<dim>340</dim>
				</port>
				<port id="1">
					<dim>1</dim>
					<dim>32</dim>
					<dim>1</dim>
					<dim>1</dim>
				</port>
			</input>
			<output>
				<port id="2" precision="FP32" names="bottleneck1_4/dim_inc/conv,bottleneck1_4/dim_inc/dropout">
					<dim>1</dim>
					<dim>32</dim>
					<dim>200</dim>
					<dim>340</dim>
				</port>
			</output>
		</layer>
		<layer id="244" name="bottleneck1_4/add/fq_input_1" type="FakeQuantize" version="opset1">
			<data levels="256" auto_broadcast="numpy"/>
			<input>
				<port id="0">
					<dim>1</dim>
					<dim>32</dim>
					<dim>200</dim>
					<dim>340</dim>
				</port>
				<port id="1">
					<dim>1</dim>
					<dim>1</dim>
					<dim>1</dim>
					<dim>1</dim>
				</port>
				<port id="2">
					<dim>1</dim>
					<dim>1</dim>
					<dim>1</dim>
					<dim>1</dim>
				</port>
				<port id="3">
					<dim>1</dim>
					<dim>1</dim>
					<dim>1</dim>
					<dim>1</dim>
				</port>
				<port id="4">
					<dim>1</dim>
					<dim>1</dim>
					<dim>1</dim>
					<dim>1</dim>
				</port>
			</input>
			<output>
				<port id="5" precision="FP32">
					<dim>1</dim>
					<dim>32</dim>
					<dim>200</dim>
					<dim>340</dim>
				</port>
			</output>
		</layer>
		<layer id="245" name="bottleneck1_4/add" type="Add" version="opset1">
			<data auto_broadcast="numpy"/>
			<input>
				<port id="0">
					<dim>1</dim>
					<dim>32</dim>
					<dim>200</dim>
					<dim>340</dim>
				</port>
				<port id="1">
					<dim>1</dim>
					<dim>32</dim>
					<dim>200</dim>
					<dim>340</dim>
				</port>
			</input>
			<output>
				<port id="2" precision="FP32" names="bottleneck1_4/add">
					<dim>1</dim>
					<dim>32</dim>
					<dim>200</dim>
					<dim>340</dim>
				</port>
			</output>
		</layer>
		<layer id="246" name="bottleneck1_4/fn/weights5752674614208348435" type="Const" version="opset1">
			<data offset="1500" size="2" shape="1" element_type="f16"/>
			<output>
				<port id="0" precision="FP16">
					<dim>1</dim>
				</port>
			</output>
		</layer>
		<layer id="247" name="bottleneck1_4/fn/weights5752674614208325761/restored_convert" type="Convert" version="opset1">
			<data destination_type="f32"/>
			<rt_info>
				<attribute name="decompression" version="0"/>
			</rt_info>
			<input>
				<port id="0">
					<dim>1</dim>
				</port>
			</input>
			<output>
				<port id="1" precision="FP32">
					<dim>1</dim>
				</port>
			</output>
		</layer>
		<layer id="248" name="bottleneck1_4/fn" type="PReLU" version="opset1">
			<input>
				<port id="0">
					<dim>1</dim>
					<dim>32</dim>
					<dim>200</dim>
					<dim>340</dim>
				</port>
				<port id="1">
					<dim>1</dim>
				</port>
			</input>
			<output>
				<port id="2" precision="FP32" names="bottleneck1_4/add">
					<dim>1</dim>
					<dim>32</dim>
					<dim>200</dim>
					<dim>340</dim>
				</port>
			</output>
		</layer>
		<layer id="249" name="bottleneck2_0/dim_red/conv/fq_input_0" type="FakeQuantize" version="opset1">
			<data levels="256" auto_broadcast="numpy"/>
			<input>
				<port id="0">
					<dim>1</dim>
					<dim>32</dim>
					<dim>200</dim>
					<dim>340</dim>
				</port>
				<port id="1">
					<dim>1</dim>
					<dim>1</dim>
					<dim>1</dim>
					<dim>1</dim>
				</port>
				<port id="2">
					<dim>1</dim>
					<dim>1</dim>
					<dim>1</dim>
					<dim>1</dim>
				</port>
				<port id="3">
					<dim>1</dim>
					<dim>1</dim>
					<dim>1</dim>
					<dim>1</dim>
				</port>
				<port id="4">
					<dim>1</dim>
					<dim>1</dim>
					<dim>1</dim>
					<dim>1</dim>
				</port>
			</input>
			<output>
				<port id="5" precision="FP32">
					<dim>1</dim>
					<dim>32</dim>
					<dim>200</dim>
					<dim>340</dim>
				</port>
			</output>
		</layer>
		<layer id="250" name="bottleneck2_0/skip/pooling" type="MaxPool" version="opset8">
			<data strides="2,2" kernel="2,2" pads_begin="0,0" pads_end="0,0" rounding_type="ceil" auto_pad="explicit" dilations="1,1" axis="0" index_element_type="i64"/>
			<input>
				<port id="0">
					<dim>1</dim>
					<dim>32</dim>
					<dim>200</dim>
					<dim>340</dim>
				</port>
			</input>
			<output>
				<port id="1" precision="FP32" names="bottleneck2_0/skip/pooling">
					<dim>1</dim>
					<dim>32</dim>
					<dim>100</dim>
					<dim>170</dim>
				</port>
				<port id="2" precision="FP32">
					<dim>1</dim>
					<dim>32</dim>
					<dim>100</dim>
					<dim>170</dim>
					<rt_info/>
				</port>
			</output>
		</layer>
		<layer id="252" name="107391074353460" type="Const" version="opset1">
			<data offset="4966" size="4" shape="1,1,1,1" element_type="f32"/>
			<output>
				<port id="0" precision="FP32">
					<dim>1</dim>
					<dim>1</dim>
					<dim>1</dim>
					<dim>1</dim>
				</port>
			</output>
		</layer>
		<layer id="253" name="107401074453307" type="Const" version="opset1">
			<data offset="4970" size="4" shape="1,1,1,1" element_type="f32"/>
			<output>
				<port id="0" precision="FP32">
					<dim>1</dim>
					<dim>1</dim>
					<dim>1</dim>
					<dim>1</dim>
				</port>
			</output>
		</layer>
		<layer id="254" name="107411074552902" type="Const" version="opset1">
			<data offset="4966" size="4" shape="1,1,1,1" element_type="f32"/>
			<output>
				<port id="0" precision="FP32">
					<dim>1</dim>
					<dim>1</dim>
					<dim>1</dim>
					<dim>1</dim>
				</port>
			</output>
		</layer>
		<layer id="255" name="107421074651771" type="Const" version="opset1">
			<data offset="4970" size="4" shape="1,1,1,1" element_type="f32"/>
			<output>
				<port id="0" precision="FP32">
					<dim>1</dim>
					<dim>1</dim>
					<dim>1</dim>
					<dim>1</dim>
				</port>
			</output>
		</layer>
		<layer id="256" name="118491185349440" type="Const" version="opset1">
			<data offset="4974" size="4" shape="1,1,1,1" element_type="f32"/>
			<output>
				<port id="0" precision="FP32">
					<dim>1</dim>
					<dim>1</dim>
					<dim>1</dim>
					<dim>1</dim>
				</port>
			</output>
		</layer>
		<layer id="257" name="118501185451018" type="Const" version="opset1">
			<data offset="4978" size="4" shape="1,1,1,1" element_type="f32"/>
			<output>
				<port id="0" precision="FP32">
					<dim>1</dim>
					<dim>1</dim>
					<dim>1</dim>
					<dim>1</dim>
				</port>
			</output>
		</layer>
		<layer id="258" name="118511185550259" type="Const" version="opset1">
			<data offset="4974" size="4" shape="1,1,1,1" element_type="f32"/>
			<output>
				<port id="0" precision="FP32">
					<dim>1</dim>
					<dim>1</dim>
					<dim>1</dim>
					<dim>1</dim>
				</port>
			</output>
		</layer>
		<layer id="259" name="118521185652041" type="Const" version="opset1">
			<data offset="4978" size="4" shape="1,1,1,1" element_type="f32"/>
			<output>
				<port id="0" precision="FP32">
					<dim>1</dim>
					<dim>1</dim>
					<dim>1</dim>
					<dim>1</dim>
				</port>
			</output>
		</layer>
		<layer id="260" name="7419742349884" type="Const" version="opset1">
			<data offset="4982" size="4" shape="1,1,1,1" element_type="f32"/>
			<output>
				<port id="0" precision="FP32">
					<dim>1</dim>
					<dim>1</dim>
					<dim>1</dim>
					<dim>1</dim>
				</port>
			</output>
		</layer>
		<layer id="261" name="7420742450643" type="Const" version="opset1">
			<data offset="4986" size="4" shape="1,1,1,1" element_type="f32"/>
			<output>
				<port id="0" precision="FP32">
					<dim>1</dim>
					<dim>1</dim>
					<dim>1</dim>
					<dim>1</dim>
				</port>
			</output>
		</layer>
		<layer id="262" name="7421742552392" type="Const" version="opset1">
			<data offset="4982" size="4" shape="1,1,1,1" element_type="f32"/>
			<output>
				<port id="0" precision="FP32">
					<dim>1</dim>
					<dim>1</dim>
					<dim>1</dim>
					<dim>1</dim>
				</port>
			</output>
		</layer>
		<layer id="263" name="7422742650859" type="Const" version="opset1">
			<data offset="4986" size="4" shape="1,1,1,1" element_type="f32"/>
			<output>
				<port id="0" precision="FP32">
					<dim>1</dim>
					<dim>1</dim>
					<dim>1</dim>
					<dim>1</dim>
				</port>
			</output>
		</layer>
		<layer id="264" name="112291123353325" type="Const" version="opset1">
			<data offset="4990" size="4" shape="1,1,1,1" element_type="f32"/>
			<output>
				<port id="0" precision="FP32">
					<dim>1</dim>
					<dim>1</dim>
					<dim>1</dim>
					<dim>1</dim>
				</port>
			</output>
		</layer>
		<layer id="265" name="112301123451030" type="Const" version="opset1">
			<data offset="4994" size="4" shape="1,1,1,1" element_type="f32"/>
			<output>
				<port id="0" precision="FP32">
					<dim>1</dim>
					<dim>1</dim>
					<dim>1</dim>
					<dim>1</dim>
				</port>
			</output>
		</layer>
		<layer id="266" name="112311123549404" type="Const" version="opset1">
			<data offset="4990" size="4" shape="1,1,1,1" element_type="f32"/>
			<output>
				<port id="0" precision="FP32">
					<dim>1</dim>
					<dim>1</dim>
					<dim>1</dim>
					<dim>1</dim>
				</port>
			</output>
		</layer>
		<layer id="267" name="112321123650955" type="Const" version="opset1">
			<data offset="4994" size="4" shape="1,1,1,1" element_type="f32"/>
			<output>
				<port id="0" precision="FP32">
					<dim>1</dim>
					<dim>1</dim>
					<dim>1</dim>
					<dim>1</dim>
				</port>
			</output>
		</layer>
		<layer id="268" name="9109911351555" type="Const" version="opset1">
			<data offset="4998" size="4" shape="1,1,1,1" element_type="f32"/>
			<output>
				<port id="0" precision="FP32">
					<dim>1</dim>
					<dim>1</dim>
					<dim>1</dim>
					<dim>1</dim>
				</port>
			</output>
		</layer>
		<layer id="269" name="9110911451705" type="Const" version="opset1">
			<data offset="5002" size="4" shape="1,1,1,1" element_type="f32"/>
			<output>
				<port id="0" precision="FP32">
					<dim>1</dim>
					<dim>1</dim>
					<dim>1</dim>
					<dim>1</dim>
				</port>
			</output>
		</layer>
		<layer id="270" name="9111911552287" type="Const" version="opset1">
			<data offset="4998" size="4" shape="1,1,1,1" element_type="f32"/>
			<output>
				<port id="0" precision="FP32">
					<dim>1</dim>
					<dim>1</dim>
					<dim>1</dim>
					<dim>1</dim>
				</port>
			</output>
		</layer>
		<layer id="271" name="9112911652047" type="Const" version="opset1">
			<data offset="5002" size="4" shape="1,1,1,1" element_type="f32"/>
			<output>
				<port id="0" precision="FP32">
					<dim>1</dim>
					<dim>1</dim>
					<dim>1</dim>
					<dim>1</dim>
				</port>
			</output>
		</layer>
		<layer id="272" name="101291013353391" type="Const" version="opset1">
			<data offset="5006" size="4" shape="1,1,1,1" element_type="f32"/>
			<output>
				<port id="0" precision="FP32">
					<dim>1</dim>
					<dim>1</dim>
					<dim>1</dim>
					<dim>1</dim>
				</port>
			</output>
		</layer>
		<layer id="273" name="101301013451663" type="Const" version="opset1">
			<data offset="5010" size="4" shape="1,1,1,1" element_type="f32"/>
			<output>
				<port id="0" precision="FP32">
					<dim>1</dim>
					<dim>1</dim>
					<dim>1</dim>
					<dim>1</dim>
				</port>
			</output>
		</layer>
		<layer id="274" name="101311013549695" type="Const" version="opset1">
			<data offset="5006" size="4" shape="1,1,1,1" element_type="f32"/>
			<output>
				<port id="0" precision="FP32">
					<dim>1</dim>
					<dim>1</dim>
					<dim>1</dim>
					<dim>1</dim>
				</port>
			</output>
		</layer>
		<layer id="275" name="101321013648855" type="Const" version="opset1">
			<data offset="5010" size="4" shape="1,1,1,1" element_type="f32"/>
			<output>
				<port id="0" precision="FP32">
					<dim>1</dim>
					<dim>1</dim>
					<dim>1</dim>
					<dim>1</dim>
				</port>
			</output>
		</layer>
		<layer id="276" name="9089909353349" type="Const" version="opset1">
			<data offset="5014" size="4" shape="1,1,1,1" element_type="f32"/>
			<output>
				<port id="0" precision="FP32">
					<dim>1</dim>
					<dim>1</dim>
					<dim>1</dim>
					<dim>1</dim>
				</port>
			</output>
		</layer>
		<layer id="277" name="9090909452380" type="Const" version="opset1">
			<data offset="5018" size="4" shape="1,1,1,1" element_type="f32"/>
			<output>
				<port id="0" precision="FP32">
					<dim>1</dim>
					<dim>1</dim>
					<dim>1</dim>
					<dim>1</dim>
				</port>
			</output>
		</layer>
		<layer id="278" name="9091909551816" type="Const" version="opset1">
			<data offset="5014" size="4" shape="1,1,1,1" element_type="f32"/>
			<output>
				<port id="0" precision="FP32">
					<dim>1</dim>
					<dim>1</dim>
					<dim>1</dim>
					<dim>1</dim>
				</port>
			</output>
		</layer>
		<layer id="279" name="9092909650550" type="Const" version="opset1">
			<data offset="5018" size="4" shape="1,1,1,1" element_type="f32"/>
			<output>
				<port id="0" precision="FP32">
					<dim>1</dim>
					<dim>1</dim>
					<dim>1</dim>
					<dim>1</dim>
				</port>
			</output>
		</layer>
		<layer id="280" name="8799880352173" type="Const" version="opset1">
			<data offset="5022" size="4" shape="1,1,1,1" element_type="f32"/>
			<output>
				<port id="0" precision="FP32">
					<dim>1</dim>
					<dim>1</dim>
					<dim>1</dim>
					<dim>1</dim>
				</port>
			</output>
		</layer>
		<layer id="281" name="8800880450337" type="Const" version="opset1">
			<data offset="5026" size="4" shape="1,1,1,1" element_type="f32"/>
			<output>
				<port id="0" precision="FP32">
					<dim>1</dim>
					<dim>1</dim>
					<dim>1</dim>
					<dim>1</dim>
				</port>
			</output>
		</layer>
		<layer id="282" name="8801880551459" type="Const" version="opset1">
			<data offset="5022" size="4" shape="1,1,1,1" element_type="f32"/>
			<output>
				<port id="0" precision="FP32">
					<dim>1</dim>
					<dim>1</dim>
					<dim>1</dim>
					<dim>1</dim>
				</port>
			</output>
		</layer>
		<layer id="283" name="8802880652998" type="Const" version="opset1">
			<data offset="5026" size="4" shape="1,1,1,1" element_type="f32"/>
			<output>
				<port id="0" precision="FP32">
					<dim>1</dim>
					<dim>1</dim>
					<dim>1</dim>
					<dim>1</dim>
				</port>
			</output>
		</layer>
		<layer id="284" name="106591066353565" type="Const" version="opset1">
			<data offset="5030" size="4" shape="1,1,1,1" element_type="f32"/>
			<output>
				<port id="0" precision="FP32">
					<dim>1</dim>
					<dim>1</dim>
					<dim>1</dim>
					<dim>1</dim>
				</port>
			</output>
		</layer>
		<layer id="285" name="106601066448057" type="Const" version="opset1">
			<data offset="5034" size="4" shape="1,1,1,1" element_type="f32"/>
			<output>
				<port id="0" precision="FP32">
					<dim>1</dim>
					<dim>1</dim>
					<dim>1</dim>
					<dim>1</dim>
				</port>
			</output>
		</layer>
		<layer id="286" name="106611066550283" type="Const" version="opset1">
			<data offset="5030" size="4" shape="1,1,1,1" element_type="f32"/>
			<output>
				<port id="0" precision="FP32">
					<dim>1</dim>
					<dim>1</dim>
					<dim>1</dim>
					<dim>1</dim>
				</port>
			</output>
		</layer>
		<layer id="287" name="106621066649047" type="Const" version="opset1">
			<data offset="5034" size="4" shape="1,1,1,1" element_type="f32"/>
			<output>
				<port id="0" precision="FP32">
					<dim>1</dim>
					<dim>1</dim>
					<dim>1</dim>
					<dim>1</dim>
				</port>
			</output>
		</layer>
		<layer id="288" name="102391024352101" type="Const" version="opset1">
			<data offset="5038" size="4" shape="1,1,1,1" element_type="f32"/>
			<output>
				<port id="0" precision="FP32">
					<dim>1</dim>
					<dim>1</dim>
					<dim>1</dim>
					<dim>1</dim>
				</port>
			</output>
		</layer>
		<layer id="289" name="102401024452410" type="Const" version="opset1">
			<data offset="5042" size="4" shape="1,1,1,1" element_type="f32"/>
			<output>
				<port id="0" precision="FP32">
					<dim>1</dim>
					<dim>1</dim>
					<dim>1</dim>
					<dim>1</dim>
				</port>
			</output>
		</layer>
		<layer id="290" name="102411024548237" type="Const" version="opset1">
			<data offset="5038" size="4" shape="1,1,1,1" element_type="f32"/>
			<output>
				<port id="0" precision="FP32">
					<dim>1</dim>
					<dim>1</dim>
					<dim>1</dim>
					<dim>1</dim>
				</port>
			</output>
		</layer>
		<layer id="291" name="102421024650547" type="Const" version="opset1">
			<data offset="5042" size="4" shape="1,1,1,1" element_type="f32"/>
			<output>
				<port id="0" precision="FP32">
					<dim>1</dim>
					<dim>1</dim>
					<dim>1</dim>
					<dim>1</dim>
				</port>
			</output>
		</layer>
		<layer id="292" name="bottleneck2_0/skip/conv/fq_weights_1/scale3294150097" type="Const" version="opset1">
			<data offset="5046" size="256" shape="64,1,1,1" element_type="f32"/>
			<output>
				<port id="0" precision="FP32">
					<dim>64</dim>
					<dim>1</dim>
					<dim>1</dim>
					<dim>1</dim>
				</port>
			</output>
		</layer>
		<layer id="293" name="bottleneck2_0/skip/bn/mean/Fused_Mul__copy208725762/restored_convert/quantized3293351186" type="Const" version="opset1">
			<data offset="5302" size="2048" shape="64,32,1,1" element_type="i8"/>
			<output>
				<port id="0" precision="I8">
					<dim>64</dim>
					<dim>32</dim>
					<dim>1</dim>
					<dim>1</dim>
				</port>
			</output>
		</layer>
		<layer id="294" name="bottleneck2_0/skip/bn/mean/Fused_Mul__copy208725762/restored_convert/quantized/to_f32" type="Convert" version="opset1">
			<data destination_type="f32"/>
			<input>
				<port id="0">
					<dim>64</dim>
					<dim>32</dim>
					<dim>1</dim>
					<dim>1</dim>
				</port>
			</input>
			<output>
				<port id="1" precision="FP32">
					<dim>64</dim>
					<dim>32</dim>
					<dim>1</dim>
					<dim>1</dim>
				</port>
			</output>
		</layer>
		<layer id="295" name="bottleneck2_0/skip/conv/fq_weights_1/mulpiply_by_scale" type="Multiply" version="opset1">
			<data auto_broadcast="numpy"/>
			<input>
				<port id="0">
					<dim>64</dim>
					<dim>32</dim>
					<dim>1</dim>
					<dim>1</dim>
				</port>
				<port id="1">
					<dim>64</dim>
					<dim>1</dim>
					<dim>1</dim>
					<dim>1</dim>
				</port>
			</input>
			<output>
				<port id="2" precision="FP32">
					<dim>64</dim>
					<dim>32</dim>
					<dim>1</dim>
					<dim>1</dim>
				</port>
			</output>
		</layer>
		<layer id="296" name="bottleneck2_0/skip/conv" type="Convolution" version="opset1">
			<data auto_pad="explicit" strides="1,1" dilations="1,1" pads_begin="0,0" pads_end="0,0"/>
			<input>
				<port id="0">
					<dim>1</dim>
					<dim>32</dim>
					<dim>100</dim>
					<dim>170</dim>
				</port>
				<port id="1">
					<dim>64</dim>
					<dim>32</dim>
					<dim>1</dim>
					<dim>1</dim>
				</port>
			</input>
			<output>
				<port id="2" precision="FP32">
					<dim>1</dim>
					<dim>64</dim>
					<dim>100</dim>
					<dim>170</dim>
				</port>
			</output>
		</layer>
		<layer id="297" name="data_add_4510445109209052674" type="Const" version="opset1">
			<data offset="7350" size="128" shape="1,64,1,1" element_type="f16"/>
			<output>
				<port id="0" precision="FP16">
					<dim>1</dim>
					<dim>64</dim>
					<dim>1</dim>
					<dim>1</dim>
				</port>
			</output>
		</layer>
		<layer id="298" name="data_add_4510445109209025763/restored_convert" type="Convert" version="opset1">
			<data destination_type="f32"/>
			<rt_info>
				<attribute name="decompression" version="0"/>
			</rt_info>
			<input>
				<port id="0">
					<dim>1</dim>
					<dim>64</dim>
					<dim>1</dim>
					<dim>1</dim>
				</port>
			</input>
			<output>
				<port id="1" precision="FP32">
					<dim>1</dim>
					<dim>64</dim>
					<dim>1</dim>
					<dim>1</dim>
				</port>
			</output>
		</layer>
		<layer id="299" name="bottleneck2_0/skip/bn/variance/Fused_Add_" type="Add" version="opset1">
			<data auto_broadcast="numpy"/>
			<input>
				<port id="0">
					<dim>1</dim>
					<dim>64</dim>
					<dim>100</dim>
					<dim>170</dim>
				</port>
				<port id="1">
					<dim>1</dim>
					<dim>64</dim>
					<dim>1</dim>
					<dim>1</dim>
				</port>
			</input>
			<output>
				<port id="2" precision="FP32" names="bottleneck2_0/skip/conv">
					<dim>1</dim>
					<dim>64</dim>
					<dim>100</dim>
					<dim>170</dim>
				</port>
			</output>
		</layer>
		<layer id="300" name="bottleneck2_0/add/fq_input_0" type="FakeQuantize" version="opset1">
			<data levels="256" auto_broadcast="numpy"/>
			<input>
				<port id="0">
					<dim>1</dim>
					<dim>64</dim>
					<dim>100</dim>
					<dim>170</dim>
				</port>
				<port id="1">
					<dim>1</dim>
					<dim>1</dim>
					<dim>1</dim>
					<dim>1</dim>
				</port>
				<port id="2">
					<dim>1</dim>
					<dim>1</dim>
					<dim>1</dim>
					<dim>1</dim>
				</port>
				<port id="3">
					<dim>1</dim>
					<dim>1</dim>
					<dim>1</dim>
					<dim>1</dim>
				</port>
				<port id="4">
					<dim>1</dim>
					<dim>1</dim>
					<dim>1</dim>
					<dim>1</dim>
				</port>
			</input>
			<output>
				<port id="5" precision="FP32">
					<dim>1</dim>
					<dim>64</dim>
					<dim>100</dim>
					<dim>170</dim>
				</port>
			</output>
		</layer>
		<layer id="301" name="102491025352434" type="Const" version="opset1">
			<data offset="7478" size="4" shape="1,1,1,1" element_type="f32"/>
			<output>
				<port id="0" precision="FP32">
					<dim>1</dim>
					<dim>1</dim>
					<dim>1</dim>
					<dim>1</dim>
				</port>
			</output>
		</layer>
		<layer id="302" name="102501025452404" type="Const" version="opset1">
			<data offset="7482" size="4" shape="1,1,1,1" element_type="f32"/>
			<output>
				<port id="0" precision="FP32">
					<dim>1</dim>
					<dim>1</dim>
					<dim>1</dim>
					<dim>1</dim>
				</port>
			</output>
		</layer>
		<layer id="303" name="102511025548003" type="Const" version="opset1">
			<data offset="7478" size="4" shape="1,1,1,1" element_type="f32"/>
			<output>
				<port id="0" precision="FP32">
					<dim>1</dim>
					<dim>1</dim>
					<dim>1</dim>
					<dim>1</dim>
				</port>
			</output>
		</layer>
		<layer id="304" name="102521025651060" type="Const" version="opset1">
			<data offset="7482" size="4" shape="1,1,1,1" element_type="f32"/>
			<output>
				<port id="0" precision="FP32">
					<dim>1</dim>
					<dim>1</dim>
					<dim>1</dim>
					<dim>1</dim>
				</port>
			</output>
		</layer>
		<layer id="305" name="101691017351291" type="Const" version="opset1">
			<data offset="7486" size="4" shape="1,1,1,1" element_type="f32"/>
			<output>
				<port id="0" precision="FP32">
					<dim>1</dim>
					<dim>1</dim>
					<dim>1</dim>
					<dim>1</dim>
				</port>
			</output>
		</layer>
		<layer id="306" name="101701017450652" type="Const" version="opset1">
			<data offset="7490" size="4" shape="1,1,1,1" element_type="f32"/>
			<output>
				<port id="0" precision="FP32">
					<dim>1</dim>
					<dim>1</dim>
					<dim>1</dim>
					<dim>1</dim>
				</port>
			</output>
		</layer>
		<layer id="307" name="101711017549584" type="Const" version="opset1">
			<data offset="7486" size="4" shape="1,1,1,1" element_type="f32"/>
			<output>
				<port id="0" precision="FP32">
					<dim>1</dim>
					<dim>1</dim>
					<dim>1</dim>
					<dim>1</dim>
				</port>
			</output>
		</layer>
		<layer id="308" name="101721017652827" type="Const" version="opset1">
			<data offset="7490" size="4" shape="1,1,1,1" element_type="f32"/>
			<output>
				<port id="0" precision="FP32">
					<dim>1</dim>
					<dim>1</dim>
					<dim>1</dim>
					<dim>1</dim>
				</port>
			</output>
		</layer>
		<layer id="309" name="7459746348684" type="Const" version="opset1">
			<data offset="7494" size="64" shape="1,16,1,1" element_type="f32"/>
			<output>
				<port id="0" precision="FP32">
					<dim>1</dim>
					<dim>16</dim>
					<dim>1</dim>
					<dim>1</dim>
				</port>
			</output>
		</layer>
		<layer id="310" name="7460746451537" type="Const" version="opset1">
			<data offset="7558" size="64" shape="1,16,1,1" element_type="f32"/>
			<output>
				<port id="0" precision="FP32">
					<dim>1</dim>
					<dim>16</dim>
					<dim>1</dim>
					<dim>1</dim>
				</port>
			</output>
		</layer>
		<layer id="311" name="7461746552617" type="Const" version="opset1">
			<data offset="7494" size="64" shape="1,16,1,1" element_type="f32"/>
			<output>
				<port id="0" precision="FP32">
					<dim>1</dim>
					<dim>16</dim>
					<dim>1</dim>
					<dim>1</dim>
				</port>
			</output>
		</layer>
		<layer id="312" name="7462746651405" type="Const" version="opset1">
			<data offset="7558" size="64" shape="1,16,1,1" element_type="f32"/>
			<output>
				<port id="0" precision="FP32">
					<dim>1</dim>
					<dim>16</dim>
					<dim>1</dim>
					<dim>1</dim>
				</port>
			</output>
		</layer>
		<layer id="313" name="bottleneck2_0/dim_red/conv/fq_weights_1/scale3483153076" type="Const" version="opset1">
			<data offset="7622" size="64" shape="16,1,1,1" element_type="f32"/>
			<output>
				<port id="0" precision="FP32">
					<dim>16</dim>
					<dim>1</dim>
					<dim>1</dim>
					<dim>1</dim>
				</port>
			</output>
		</layer>
		<layer id="314" name="bottleneck2_0/dim_red/bn/mean/Fused_Mul__copy209325764/restored_convert/quantized3482352539" type="Const" version="opset1">
			<data offset="7686" size="512" shape="16,32,1,1" element_type="i8"/>
			<output>
				<port id="0" precision="I8">
					<dim>16</dim>
					<dim>32</dim>
					<dim>1</dim>
					<dim>1</dim>
				</port>
			</output>
		</layer>
		<layer id="315" name="bottleneck2_0/dim_red/bn/mean/Fused_Mul__copy209325764/restored_convert/quantized/to_f32" type="Convert" version="opset1">
			<data destination_type="f32"/>
			<input>
				<port id="0">
					<dim>16</dim>
					<dim>32</dim>
					<dim>1</dim>
					<dim>1</dim>
				</port>
			</input>
			<output>
				<port id="1" precision="FP32">
					<dim>16</dim>
					<dim>32</dim>
					<dim>1</dim>
					<dim>1</dim>
				</port>
			</output>
		</layer>
		<layer id="316" name="bottleneck2_0/dim_red/conv/fq_weights_1/mulpiply_by_scale" type="Multiply" version="opset1">
			<data auto_broadcast="numpy"/>
			<input>
				<port id="0">
					<dim>16</dim>
					<dim>32</dim>
					<dim>1</dim>
					<dim>1</dim>
				</port>
				<port id="1">
					<dim>16</dim>
					<dim>1</dim>
					<dim>1</dim>
					<dim>1</dim>
				</port>
			</input>
			<output>
				<port id="2" precision="FP32">
					<dim>16</dim>
					<dim>32</dim>
					<dim>1</dim>
					<dim>1</dim>
				</port>
			</output>
		</layer>
		<layer id="317" name="bottleneck2_0/dim_red/conv" type="Convolution" version="opset1">
			<data auto_pad="explicit" strides="1,1" dilations="1,1" pads_begin="0,0" pads_end="0,0"/>
			<input>
				<port id="0">
					<dim>1</dim>
					<dim>32</dim>
					<dim>200</dim>
					<dim>340</dim>
				</port>
				<port id="1">
					<dim>16</dim>
					<dim>32</dim>
					<dim>1</dim>
					<dim>1</dim>
				</port>
			</input>
			<output>
				<port id="2" precision="FP32">
					<dim>1</dim>
					<dim>16</dim>
					<dim>200</dim>
					<dim>340</dim>
				</port>
			</output>
		</layer>
		<layer id="318" name="data_add_4511245117209653235" type="Const" version="opset1">
			<data offset="8198" size="32" shape="1,16,1,1" element_type="f16"/>
			<output>
				<port id="0" precision="FP16">
					<dim>1</dim>
					<dim>16</dim>
					<dim>1</dim>
					<dim>1</dim>
				</port>
			</output>
		</layer>
		<layer id="319" name="data_add_4511245117209625765/restored_convert" type="Convert" version="opset1">
			<data destination_type="f32"/>
			<rt_info>
				<attribute name="decompression" version="0"/>
			</rt_info>
			<input>
				<port id="0">
					<dim>1</dim>
					<dim>16</dim>
					<dim>1</dim>
					<dim>1</dim>
				</port>
			</input>
			<output>
				<port id="1" precision="FP32">
					<dim>1</dim>
					<dim>16</dim>
					<dim>1</dim>
					<dim>1</dim>
				</port>
			</output>
		</layer>
		<layer id="320" name="bottleneck2_0/dim_red/bn/variance/Fused_Add_" type="Add" version="opset1">
			<data auto_broadcast="numpy"/>
			<input>
				<port id="0">
					<dim>1</dim>
					<dim>16</dim>
					<dim>200</dim>
					<dim>340</dim>
				</port>
				<port id="1">
					<dim>1</dim>
					<dim>16</dim>
					<dim>1</dim>
					<dim>1</dim>
				</port>
			</input>
			<output>
				<port id="2" precision="FP32" names="bottleneck2_0/dim_red/conv">
					<dim>1</dim>
					<dim>16</dim>
					<dim>200</dim>
					<dim>340</dim>
				</port>
			</output>
		</layer>
		<layer id="321" name="bottleneck2_0/dim_red/fn/weights5713074368209951024" type="Const" version="opset1">
			<data offset="1500" size="2" shape="1" element_type="f16"/>
			<output>
				<port id="0" precision="FP16">
					<dim>1</dim>
				</port>
			</output>
		</layer>
		<layer id="322" name="bottleneck2_0/dim_red/fn/weights5713074368209925766/restored_convert" type="Convert" version="opset1">
			<data destination_type="f32"/>
			<rt_info>
				<attribute name="decompression" version="0"/>
			</rt_info>
			<input>
				<port id="0">
					<dim>1</dim>
				</port>
			</input>
			<output>
				<port id="1" precision="FP32">
					<dim>1</dim>
				</port>
			</output>
		</layer>
		<layer id="323" name="bottleneck2_0/dim_red/fn" type="PReLU" version="opset1">
			<input>
				<port id="0">
					<dim>1</dim>
					<dim>16</dim>
					<dim>200</dim>
					<dim>340</dim>
				</port>
				<port id="1">
					<dim>1</dim>
				</port>
			</input>
			<output>
				<port id="2" precision="FP32" names="bottleneck2_0/dim_red/conv">
					<dim>1</dim>
					<dim>16</dim>
					<dim>200</dim>
					<dim>340</dim>
				</port>
			</output>
		</layer>
		<layer id="324" name="bottleneck2_0/inner/dw1/conv/fq_input_0" type="FakeQuantize" version="opset1">
			<data levels="256" auto_broadcast="numpy"/>
			<input>
				<port id="0">
					<dim>1</dim>
					<dim>16</dim>
					<dim>200</dim>
					<dim>340</dim>
				</port>
				<port id="1">
					<dim>1</dim>
					<dim>16</dim>
					<dim>1</dim>
					<dim>1</dim>
				</port>
				<port id="2">
					<dim>1</dim>
					<dim>16</dim>
					<dim>1</dim>
					<dim>1</dim>
				</port>
				<port id="3">
					<dim>1</dim>
					<dim>16</dim>
					<dim>1</dim>
					<dim>1</dim>
				</port>
				<port id="4">
					<dim>1</dim>
					<dim>16</dim>
					<dim>1</dim>
					<dim>1</dim>
				</port>
			</input>
			<output>
				<port id="5" precision="FP32">
					<dim>1</dim>
					<dim>16</dim>
					<dim>200</dim>
					<dim>340</dim>
				</port>
			</output>
		</layer>
		<layer id="325" name="bottleneck2_0/inner/dw1/conv/weights_shape4244448096" type="Const" version="opset1">
			<data offset="8230" size="40" shape="5" element_type="i64"/>
			<output>
				<port id="0" precision="I64">
					<dim>5</dim>
				</port>
			</output>
		</layer>
		<layer id="326" name="bottleneck2_0/inner/dw1/conv/fq_weights_1/scale3474152533" type="Const" version="opset1">
			<data offset="8270" size="64" shape="16,1,1,1" element_type="f32"/>
			<output>
				<port id="0" precision="FP32">
					<dim>16</dim>
					<dim>1</dim>
					<dim>1</dim>
					<dim>1</dim>
				</port>
			</output>
		</layer>
		<layer id="327" name="bottleneck2_0/inner/dw1/bn/mean/Fused_Mul__copy210225767/restored_convert/quantized3473347919" type="Const" version="opset1">
			<data offset="8334" size="144" shape="16,1,3,3" element_type="i8"/>
			<output>
				<port id="0" precision="I8">
					<dim>16</dim>
					<dim>1</dim>
					<dim>3</dim>
					<dim>3</dim>
				</port>
			</output>
		</layer>
		<layer id="328" name="bottleneck2_0/inner/dw1/bn/mean/Fused_Mul__copy210225767/restored_convert/quantized/to_f32" type="Convert" version="opset1">
			<data destination_type="f32"/>
			<input>
				<port id="0">
					<dim>16</dim>
					<dim>1</dim>
					<dim>3</dim>
					<dim>3</dim>
				</port>
			</input>
			<output>
				<port id="1" precision="FP32">
					<dim>16</dim>
					<dim>1</dim>
					<dim>3</dim>
					<dim>3</dim>
				</port>
			</output>
		</layer>
		<layer id="329" name="bottleneck2_0/inner/dw1/conv/fq_weights_1/mulpiply_by_scale" type="Multiply" version="opset1">
			<data auto_broadcast="numpy"/>
			<input>
				<port id="0">
					<dim>16</dim>
					<dim>1</dim>
					<dim>3</dim>
					<dim>3</dim>
				</port>
				<port id="1">
					<dim>16</dim>
					<dim>1</dim>
					<dim>1</dim>
					<dim>1</dim>
				</port>
			</input>
			<output>
				<port id="2" precision="FP32">
					<dim>16</dim>
					<dim>1</dim>
					<dim>3</dim>
					<dim>3</dim>
				</port>
			</output>
		</layer>
		<layer id="330" name="42443" type="Reshape" version="opset1">
			<data special_zero="true"/>
			<input>
				<port id="0">
					<dim>16</dim>
					<dim>1</dim>
					<dim>3</dim>
					<dim>3</dim>
				</port>
				<port id="1">
					<dim>5</dim>
				</port>
			</input>
			<output>
				<port id="2" precision="FP32">
					<dim>16</dim>
					<dim>1</dim>
					<dim>1</dim>
					<dim>3</dim>
					<dim>3</dim>
				</port>
			</output>
		</layer>
		<layer id="331" name="bottleneck2_0/inner/dw1/conv" type="GroupConvolution" version="opset1">
			<data auto_pad="explicit" strides="2,2" dilations="1,1" pads_begin="1,1" pads_end="1,1"/>
			<input>
				<port id="0">
					<dim>1</dim>
					<dim>16</dim>
					<dim>200</dim>
					<dim>340</dim>
				</port>
				<port id="1">
					<dim>16</dim>
					<dim>1</dim>
					<dim>1</dim>
					<dim>3</dim>
					<dim>3</dim>
				</port>
			</input>
			<output>
				<port id="2" precision="FP32">
					<dim>1</dim>
					<dim>16</dim>
					<dim>100</dim>
					<dim>170</dim>
				</port>
			</output>
		</layer>
		<layer id="332" name="data_add_4512045125210547610" type="Const" version="opset1">
			<data offset="8478" size="32" shape="1,16,1,1" element_type="f16"/>
			<output>
				<port id="0" precision="FP16">
					<dim>1</dim>
					<dim>16</dim>
					<dim>1</dim>
					<dim>1</dim>
				</port>
			</output>
		</layer>
		<layer id="333" name="data_add_4512045125210525768/restored_convert" type="Convert" version="opset1">
			<data destination_type="f32"/>
			<rt_info>
				<attribute name="decompression" version="0"/>
			</rt_info>
			<input>
				<port id="0">
					<dim>1</dim>
					<dim>16</dim>
					<dim>1</dim>
					<dim>1</dim>
				</port>
			</input>
			<output>
				<port id="1" precision="FP32">
					<dim>1</dim>
					<dim>16</dim>
					<dim>1</dim>
					<dim>1</dim>
				</port>
			</output>
		</layer>
		<layer id="334" name="bottleneck2_0/inner/dw1/bn/variance/Fused_Add_" type="Add" version="opset1">
			<data auto_broadcast="numpy"/>
			<input>
				<port id="0">
					<dim>1</dim>
					<dim>16</dim>
					<dim>100</dim>
					<dim>170</dim>
				</port>
				<port id="1">
					<dim>1</dim>
					<dim>16</dim>
					<dim>1</dim>
					<dim>1</dim>
				</port>
			</input>
			<output>
				<port id="2" precision="FP32" names="bottleneck2_0/inner/dw1/conv">
					<dim>1</dim>
					<dim>16</dim>
					<dim>100</dim>
					<dim>170</dim>
				</port>
			</output>
		</layer>
		<layer id="335" name="bottleneck2_0/inner/dw1/fn/weights5722274872210850691" type="Const" version="opset1">
			<data offset="1500" size="2" shape="1" element_type="f16"/>
			<output>
				<port id="0" precision="FP16">
					<dim>1</dim>
				</port>
			</output>
		</layer>
		<layer id="336" name="bottleneck2_0/inner/dw1/fn/weights5722274872210825769/restored_convert" type="Convert" version="opset1">
			<data destination_type="f32"/>
			<rt_info>
				<attribute name="decompression" version="0"/>
			</rt_info>
			<input>
				<port id="0">
					<dim>1</dim>
				</port>
			</input>
			<output>
				<port id="1" precision="FP32">
					<dim>1</dim>
				</port>
			</output>
		</layer>
		<layer id="337" name="bottleneck2_0/inner/dw1/fn" type="PReLU" version="opset1">
			<input>
				<port id="0">
					<dim>1</dim>
					<dim>16</dim>
					<dim>100</dim>
					<dim>170</dim>
				</port>
				<port id="1">
					<dim>1</dim>
				</port>
			</input>
			<output>
				<port id="2" precision="FP32" names="bottleneck2_0/inner/dw1/conv">
					<dim>1</dim>
					<dim>16</dim>
					<dim>100</dim>
					<dim>170</dim>
				</port>
			</output>
		</layer>
		<layer id="338" name="bottleneck2_0/dim_inc/conv/fq_input_0" type="FakeQuantize" version="opset1">
			<data levels="256" auto_broadcast="numpy"/>
			<input>
				<port id="0">
					<dim>1</dim>
					<dim>16</dim>
					<dim>100</dim>
					<dim>170</dim>
				</port>
				<port id="1">
					<dim>1</dim>
					<dim>1</dim>
					<dim>1</dim>
					<dim>1</dim>
				</port>
				<port id="2">
					<dim>1</dim>
					<dim>1</dim>
					<dim>1</dim>
					<dim>1</dim>
				</port>
				<port id="3">
					<dim>1</dim>
					<dim>1</dim>
					<dim>1</dim>
					<dim>1</dim>
				</port>
				<port id="4">
					<dim>1</dim>
					<dim>1</dim>
					<dim>1</dim>
					<dim>1</dim>
				</port>
			</input>
			<output>
				<port id="5" precision="FP32">
					<dim>1</dim>
					<dim>16</dim>
					<dim>100</dim>
					<dim>170</dim>
				</port>
			</output>
		</layer>
		<layer id="339" name="bottleneck2_0/dim_inc/conv/fq_weights_1/scale3573149053" type="Const" version="opset1">
			<data offset="8510" size="256" shape="64,1,1,1" element_type="f32"/>
			<output>
				<port id="0" precision="FP32">
					<dim>64</dim>
					<dim>1</dim>
					<dim>1</dim>
					<dim>1</dim>
				</port>
			</output>
		</layer>
		<layer id="340" name="bottleneck2_0/dim_inc/bn/mean/Fused_Mul__copy211125770/restored_convert/quantized3572348321" type="Const" version="opset1">
			<data offset="8766" size="1024" shape="64,16,1,1" element_type="i8"/>
			<output>
				<port id="0" precision="I8">
					<dim>64</dim>
					<dim>16</dim>
					<dim>1</dim>
					<dim>1</dim>
				</port>
			</output>
		</layer>
		<layer id="341" name="bottleneck2_0/dim_inc/bn/mean/Fused_Mul__copy211125770/restored_convert/quantized/to_f32" type="Convert" version="opset1">
			<data destination_type="f32"/>
			<input>
				<port id="0">
					<dim>64</dim>
					<dim>16</dim>
					<dim>1</dim>
					<dim>1</dim>
				</port>
			</input>
			<output>
				<port id="1" precision="FP32">
					<dim>64</dim>
					<dim>16</dim>
					<dim>1</dim>
					<dim>1</dim>
				</port>
			</output>
		</layer>
		<layer id="342" name="bottleneck2_0/dim_inc/conv/fq_weights_1/mulpiply_by_scale" type="Multiply" version="opset1">
			<data auto_broadcast="numpy"/>
			<input>
				<port id="0">
					<dim>64</dim>
					<dim>16</dim>
					<dim>1</dim>
					<dim>1</dim>
				</port>
				<port id="1">
					<dim>64</dim>
					<dim>1</dim>
					<dim>1</dim>
					<dim>1</dim>
				</port>
			</input>
			<output>
				<port id="2" precision="FP32">
					<dim>64</dim>
					<dim>16</dim>
					<dim>1</dim>
					<dim>1</dim>
				</port>
			</output>
		</layer>
		<layer id="343" name="bottleneck2_0/dim_inc/conv" type="Convolution" version="opset1">
			<data auto_pad="explicit" strides="1,1" dilations="1,1" pads_begin="0,0" pads_end="0,0"/>
			<input>
				<port id="0">
					<dim>1</dim>
					<dim>16</dim>
					<dim>100</dim>
					<dim>170</dim>
				</port>
				<port id="1">
					<dim>64</dim>
					<dim>16</dim>
					<dim>1</dim>
					<dim>1</dim>
				</port>
			</input>
			<output>
				<port id="2" precision="FP32">
					<dim>1</dim>
					<dim>64</dim>
					<dim>100</dim>
					<dim>170</dim>
				</port>
			</output>
		</layer>
		<layer id="344" name="data_add_4512845133211448459" type="Const" version="opset1">
			<data offset="9790" size="128" shape="1,64,1,1" element_type="f16"/>
			<output>
				<port id="0" precision="FP16">
					<dim>1</dim>
					<dim>64</dim>
					<dim>1</dim>
					<dim>1</dim>
				</port>
			</output>
		</layer>
		<layer id="345" name="data_add_4512845133211425771/restored_convert" type="Convert" version="opset1">
			<data destination_type="f32"/>
			<rt_info>
				<attribute name="decompression" version="0"/>
			</rt_info>
			<input>
				<port id="0">
					<dim>1</dim>
					<dim>64</dim>
					<dim>1</dim>
					<dim>1</dim>
				</port>
			</input>
			<output>
				<port id="1" precision="FP32">
					<dim>1</dim>
					<dim>64</dim>
					<dim>1</dim>
					<dim>1</dim>
				</port>
			</output>
		</layer>
		<layer id="346" name="bottleneck2_0/dim_inc/bn/variance/Fused_Add_" type="Add" version="opset1">
			<data auto_broadcast="numpy"/>
			<input>
				<port id="0">
					<dim>1</dim>
					<dim>64</dim>
					<dim>100</dim>
					<dim>170</dim>
				</port>
				<port id="1">
					<dim>1</dim>
					<dim>64</dim>
					<dim>1</dim>
					<dim>1</dim>
				</port>
			</input>
			<output>
				<port id="2" precision="FP32" names="bottleneck2_0/dim_inc/conv,bottleneck2_0/dim_inc/dropout">
					<dim>1</dim>
					<dim>64</dim>
					<dim>100</dim>
					<dim>170</dim>
				</port>
			</output>
		</layer>
		<layer id="347" name="bottleneck2_0/add/fq_input_1" type="FakeQuantize" version="opset1">
			<data levels="256" auto_broadcast="numpy"/>
			<input>
				<port id="0">
					<dim>1</dim>
					<dim>64</dim>
					<dim>100</dim>
					<dim>170</dim>
				</port>
				<port id="1">
					<dim>1</dim>
					<dim>1</dim>
					<dim>1</dim>
					<dim>1</dim>
				</port>
				<port id="2">
					<dim>1</dim>
					<dim>1</dim>
					<dim>1</dim>
					<dim>1</dim>
				</port>
				<port id="3">
					<dim>1</dim>
					<dim>1</dim>
					<dim>1</dim>
					<dim>1</dim>
				</port>
				<port id="4">
					<dim>1</dim>
					<dim>1</dim>
					<dim>1</dim>
					<dim>1</dim>
				</port>
			</input>
			<output>
				<port id="5" precision="FP32">
					<dim>1</dim>
					<dim>64</dim>
					<dim>100</dim>
					<dim>170</dim>
				</port>
			</output>
		</layer>
		<layer id="348" name="bottleneck2_0/add" type="Add" version="opset1">
			<data auto_broadcast="numpy"/>
			<input>
				<port id="0">
					<dim>1</dim>
					<dim>64</dim>
					<dim>100</dim>
					<dim>170</dim>
				</port>
				<port id="1">
					<dim>1</dim>
					<dim>64</dim>
					<dim>100</dim>
					<dim>170</dim>
				</port>
			</input>
			<output>
				<port id="2" precision="FP32" names="bottleneck2_0/add">
					<dim>1</dim>
					<dim>64</dim>
					<dim>100</dim>
					<dim>170</dim>
				</port>
			</output>
		</layer>
		<layer id="349" name="bottleneck2_0/fn/weights5721473831211852413" type="Const" version="opset1">
			<data offset="1500" size="2" shape="1" element_type="f16"/>
			<output>
				<port id="0" precision="FP16">
					<dim>1</dim>
				</port>
			</output>
		</layer>
		<layer id="350" name="bottleneck2_0/fn/weights5721473831211825772/restored_convert" type="Convert" version="opset1">
			<data destination_type="f32"/>
			<rt_info>
				<attribute name="decompression" version="0"/>
			</rt_info>
			<input>
				<port id="0">
					<dim>1</dim>
				</port>
			</input>
			<output>
				<port id="1" precision="FP32">
					<dim>1</dim>
				</port>
			</output>
		</layer>
		<layer id="351" name="bottleneck2_0/fn" type="PReLU" version="opset1">
			<input>
				<port id="0">
					<dim>1</dim>
					<dim>64</dim>
					<dim>100</dim>
					<dim>170</dim>
				</port>
				<port id="1">
					<dim>1</dim>
				</port>
			</input>
			<output>
				<port id="2" precision="FP32" names="bottleneck2_0/add">
					<dim>1</dim>
					<dim>64</dim>
					<dim>100</dim>
					<dim>170</dim>
				</port>
			</output>
		</layer>
		<layer id="352" name="bottleneck2_1/add/fq_input_0" type="FakeQuantize" version="opset1">
			<data levels="256" auto_broadcast="numpy"/>
			<input>
				<port id="0">
					<dim>1</dim>
					<dim>64</dim>
					<dim>100</dim>
					<dim>170</dim>
				</port>
				<port id="1">
					<dim>1</dim>
					<dim>1</dim>
					<dim>1</dim>
					<dim>1</dim>
				</port>
				<port id="2">
					<dim>1</dim>
					<dim>1</dim>
					<dim>1</dim>
					<dim>1</dim>
				</port>
				<port id="3">
					<dim>1</dim>
					<dim>1</dim>
					<dim>1</dim>
					<dim>1</dim>
				</port>
				<port id="4">
					<dim>1</dim>
					<dim>1</dim>
					<dim>1</dim>
					<dim>1</dim>
				</port>
			</input>
			<output>
				<port id="5" precision="FP32">
					<dim>1</dim>
					<dim>64</dim>
					<dim>100</dim>
					<dim>170</dim>
				</port>
			</output>
		</layer>
		<layer id="353" name="106691067352149" type="Const" version="opset1">
			<data offset="9918" size="4" shape="1,1,1,1" element_type="f32"/>
			<output>
				<port id="0" precision="FP32">
					<dim>1</dim>
					<dim>1</dim>
					<dim>1</dim>
					<dim>1</dim>
				</port>
			</output>
		</layer>
		<layer id="354" name="106701067450217" type="Const" version="opset1">
			<data offset="9922" size="4" shape="1,1,1,1" element_type="f32"/>
			<output>
				<port id="0" precision="FP32">
					<dim>1</dim>
					<dim>1</dim>
					<dim>1</dim>
					<dim>1</dim>
				</port>
			</output>
		</layer>
		<layer id="355" name="106711067551435" type="Const" version="opset1">
			<data offset="9918" size="4" shape="1,1,1,1" element_type="f32"/>
			<output>
				<port id="0" precision="FP32">
					<dim>1</dim>
					<dim>1</dim>
					<dim>1</dim>
					<dim>1</dim>
				</port>
			</output>
		</layer>
		<layer id="356" name="106721067649335" type="Const" version="opset1">
			<data offset="9922" size="4" shape="1,1,1,1" element_type="f32"/>
			<output>
				<port id="0" precision="FP32">
					<dim>1</dim>
					<dim>1</dim>
					<dim>1</dim>
					<dim>1</dim>
				</port>
			</output>
		</layer>
		<layer id="357" name="100491005351258" type="Const" version="opset1">
			<data offset="9926" size="4" shape="1,1,1,1" element_type="f32"/>
			<output>
				<port id="0" precision="FP32">
					<dim>1</dim>
					<dim>1</dim>
					<dim>1</dim>
					<dim>1</dim>
				</port>
			</output>
		</layer>
		<layer id="358" name="100501005448294" type="Const" version="opset1">
			<data offset="9930" size="4" shape="1,1,1,1" element_type="f32"/>
			<output>
				<port id="0" precision="FP32">
					<dim>1</dim>
					<dim>1</dim>
					<dim>1</dim>
					<dim>1</dim>
				</port>
			</output>
		</layer>
		<layer id="359" name="100511005551615" type="Const" version="opset1">
			<data offset="9926" size="4" shape="1,1,1,1" element_type="f32"/>
			<output>
				<port id="0" precision="FP32">
					<dim>1</dim>
					<dim>1</dim>
					<dim>1</dim>
					<dim>1</dim>
				</port>
			</output>
		</layer>
		<layer id="360" name="100521005650889" type="Const" version="opset1">
			<data offset="9930" size="4" shape="1,1,1,1" element_type="f32"/>
			<output>
				<port id="0" precision="FP32">
					<dim>1</dim>
					<dim>1</dim>
					<dim>1</dim>
					<dim>1</dim>
				</port>
			</output>
		</layer>
		<layer id="361" name="120291203348051" type="Const" version="opset1">
			<data offset="9934" size="64" shape="1,16,1,1" element_type="f32"/>
			<output>
				<port id="0" precision="FP32">
					<dim>1</dim>
					<dim>16</dim>
					<dim>1</dim>
					<dim>1</dim>
				</port>
			</output>
		</layer>
		<layer id="362" name="120301203451846" type="Const" version="opset1">
			<data offset="9998" size="64" shape="1,16,1,1" element_type="f32"/>
			<output>
				<port id="0" precision="FP32">
					<dim>1</dim>
					<dim>16</dim>
					<dim>1</dim>
					<dim>1</dim>
				</port>
			</output>
		</layer>
		<layer id="363" name="120311203552764" type="Const" version="opset1">
			<data offset="9934" size="64" shape="1,16,1,1" element_type="f32"/>
			<output>
				<port id="0" precision="FP32">
					<dim>1</dim>
					<dim>16</dim>
					<dim>1</dim>
					<dim>1</dim>
				</port>
			</output>
		</layer>
		<layer id="364" name="120321203651519" type="Const" version="opset1">
			<data offset="9998" size="64" shape="1,16,1,1" element_type="f32"/>
			<output>
				<port id="0" precision="FP32">
					<dim>1</dim>
					<dim>16</dim>
					<dim>1</dim>
					<dim>1</dim>
				</port>
			</output>
		</layer>
		<layer id="365" name="bottleneck2_1/dim_red/conv/fq_weights_1/scale3183153199" type="Const" version="opset1">
			<data offset="10062" size="64" shape="16,1,1,1" element_type="f32"/>
			<output>
				<port id="0" precision="FP32">
					<dim>16</dim>
					<dim>1</dim>
					<dim>1</dim>
					<dim>1</dim>
				</port>
			</output>
		</layer>
		<layer id="366" name="bottleneck2_1/dim_red/bn/mean/Fused_Mul__copy212125773/restored_convert/quantized3182348663" type="Const" version="opset1">
			<data offset="10126" size="1024" shape="16,64,1,1" element_type="i8"/>
			<output>
				<port id="0" precision="I8">
					<dim>16</dim>
					<dim>64</dim>
					<dim>1</dim>
					<dim>1</dim>
				</port>
			</output>
		</layer>
…
		<edge from-layer="3363" from-port="2" to-layer="3366" to-port="0"/>
		<edge from-layer="3365" from-port="1" to-layer="3366" to-port="1"/>
		<edge from-layer="3367" from-port="0" to-layer="3368" to-port="0"/>
		<edge from-layer="3366" from-port="2" to-layer="3369" to-port="0"/>
		<edge from-layer="3368" from-port="1" to-layer="3369" to-port="1"/>
		<edge from-layer="3369" from-port="2" to-layer="3370" to-port="0"/>
		<edge from-layer="3337" from-port="0" to-layer="3370" to-port="1"/>
		<edge from-layer="3338" from-port="0" to-layer="3370" to-port="2"/>
		<edge from-layer="3339" from-port="0" to-layer="3370" to-port="3"/>
		<edge from-layer="3340" from-port="0" to-layer="3370" to-port="4"/>
		<edge from-layer="3372" from-port="0" to-layer="3373" to-port="0"/>
		<edge from-layer="3373" from-port="1" to-layer="3374" to-port="0"/>
		<edge from-layer="3371" from-port="0" to-layer="3374" to-port="1"/>
		<edge from-layer="3370" from-port="5" to-layer="3375" to-port="0"/>
		<edge from-layer="3374" from-port="2" to-layer="3375" to-port="1"/>
		<edge from-layer="3376" from-port="0" to-layer="3377" to-port="0"/>
		<edge from-layer="3375" from-port="2" to-layer="3378" to-port="0"/>
		<edge from-layer="3377" from-port="1" to-layer="3378" to-port="1"/>
		<edge from-layer="3378" from-port="2" to-layer="3379" to-port="0"/>
		<edge from-layer="3333" from-port="0" to-layer="3379" to-port="1"/>
		<edge from-layer="3334" from-port="0" to-layer="3379" to-port="2"/>
		<edge from-layer="3335" from-port="0" to-layer="3379" to-port="3"/>
		<edge from-layer="3336" from-port="0" to-layer="3379" to-port="4"/>
		<edge from-layer="3332" from-port="5" to-layer="3380" to-port="0"/>
		<edge from-layer="3379" from-port="5" to-layer="3380" to-port="1"/>
		<edge from-layer="3381" from-port="0" to-layer="3382" to-port="0"/>
		<edge from-layer="3380" from-port="2" to-layer="3383" to-port="0"/>
		<edge from-layer="3382" from-port="1" to-layer="3383" to-port="1"/>
		<edge from-layer="3383" from-port="2" to-layer="3384" to-port="0"/>
		<edge from-layer="2846" from-port="0" to-layer="3384" to-port="1"/>
		<edge from-layer="2847" from-port="0" to-layer="3384" to-port="2"/>
		<edge from-layer="2848" from-port="0" to-layer="3384" to-port="3"/>
		<edge from-layer="2849" from-port="0" to-layer="3384" to-port="4"/>
		<edge from-layer="3398" from-port="0" to-layer="3399" to-port="0"/>
		<edge from-layer="3399" from-port="1" to-layer="3400" to-port="0"/>
		<edge from-layer="3397" from-port="0" to-layer="3400" to-port="1"/>
		<edge from-layer="3384" from-port="5" to-layer="3401" to-port="0"/>
		<edge from-layer="3400" from-port="2" to-layer="3401" to-port="1"/>
		<edge from-layer="3402" from-port="0" to-layer="3403" to-port="0"/>
		<edge from-layer="3401" from-port="2" to-layer="3404" to-port="0"/>
		<edge from-layer="3403" from-port="1" to-layer="3404" to-port="1"/>
		<edge from-layer="3405" from-port="0" to-layer="3406" to-port="0"/>
		<edge from-layer="3404" from-port="2" to-layer="3407" to-port="0"/>
		<edge from-layer="3406" from-port="1" to-layer="3407" to-port="1"/>
		<edge from-layer="3407" from-port="2" to-layer="3408" to-port="0"/>
		<edge from-layer="3393" from-port="0" to-layer="3408" to-port="1"/>
		<edge from-layer="3394" from-port="0" to-layer="3408" to-port="2"/>
		<edge from-layer="3395" from-port="0" to-layer="3408" to-port="3"/>
		<edge from-layer="3396" from-port="0" to-layer="3408" to-port="4"/>
		<edge from-layer="3411" from-port="0" to-layer="3412" to-port="0"/>
		<edge from-layer="3412" from-port="1" to-layer="3413" to-port="0"/>
		<edge from-layer="3410" from-port="0" to-layer="3413" to-port="1"/>
		<edge from-layer="3413" from-port="2" to-layer="3414" to-port="0"/>
		<edge from-layer="3409" from-port="0" to-layer="3414" to-port="1"/>
		<edge from-layer="3408" from-port="5" to-layer="3415" to-port="0"/>
		<edge from-layer="3414" from-port="2" to-layer="3415" to-port="1"/>
		<edge from-layer="3416" from-port="0" to-layer="3417" to-port="0"/>
		<edge from-layer="3415" from-port="2" to-layer="3418" to-port="0"/>
		<edge from-layer="3417" from-port="1" to-layer="3418" to-port="1"/>
		<edge from-layer="3419" from-port="0" to-layer="3420" to-port="0"/>
		<edge from-layer="3418" from-port="2" to-layer="3421" to-port="0"/>
		<edge from-layer="3420" from-port="1" to-layer="3421" to-port="1"/>
		<edge from-layer="3421" from-port="2" to-layer="3422" to-port="0"/>
		<edge from-layer="3389" from-port="0" to-layer="3422" to-port="1"/>
		<edge from-layer="3390" from-port="0" to-layer="3422" to-port="2"/>
		<edge from-layer="3391" from-port="0" to-layer="3422" to-port="3"/>
		<edge from-layer="3392" from-port="0" to-layer="3422" to-port="4"/>
		<edge from-layer="3424" from-port="0" to-layer="3425" to-port="0"/>
		<edge from-layer="3425" from-port="1" to-layer="3426" to-port="0"/>
		<edge from-layer="3423" from-port="0" to-layer="3426" to-port="1"/>
		<edge from-layer="3422" from-port="5" to-layer="3427" to-port="0"/>
		<edge from-layer="3426" from-port="2" to-layer="3427" to-port="1"/>
		<edge from-layer="3428" from-port="0" to-layer="3429" to-port="0"/>
		<edge from-layer="3427" from-port="2" to-layer="3430" to-port="0"/>
		<edge from-layer="3429" from-port="1" to-layer="3430" to-port="1"/>
		<edge from-layer="3430" from-port="2" to-layer="3431" to-port="0"/>
		<edge from-layer="3385" from-port="0" to-layer="3431" to-port="1"/>
		<edge from-layer="3386" from-port="0" to-layer="3431" to-port="2"/>
		<edge from-layer="3387" from-port="0" to-layer="3431" to-port="3"/>
		<edge from-layer="3388" from-port="0" to-layer="3431" to-port="4"/>
		<edge from-layer="3384" from-port="5" to-layer="3432" to-port="0"/>
		<edge from-layer="3431" from-port="5" to-layer="3432" to-port="1"/>
		<edge from-layer="3433" from-port="0" to-layer="3434" to-port="0"/>
		<edge from-layer="3432" from-port="2" to-layer="3435" to-port="0"/>
		<edge from-layer="3434" from-port="1" to-layer="3435" to-port="1"/>
		<edge from-layer="3435" from-port="2" to-layer="3436" to-port="0"/>
		<edge from-layer="2842" from-port="0" to-layer="3436" to-port="1"/>
		<edge from-layer="2843" from-port="0" to-layer="3436" to-port="2"/>
		<edge from-layer="2844" from-port="0" to-layer="3436" to-port="3"/>
		<edge from-layer="2845" from-port="0" to-layer="3436" to-port="4"/>
		<edge from-layer="3450" from-port="0" to-layer="3451" to-port="0"/>
		<edge from-layer="3451" from-port="1" to-layer="3452" to-port="0"/>
		<edge from-layer="3449" from-port="0" to-layer="3452" to-port="1"/>
		<edge from-layer="3436" from-port="5" to-layer="3453" to-port="0"/>
		<edge from-layer="3452" from-port="2" to-layer="3453" to-port="1"/>
		<edge from-layer="3454" from-port="0" to-layer="3455" to-port="0"/>
		<edge from-layer="3453" from-port="2" to-layer="3456" to-port="0"/>
		<edge from-layer="3455" from-port="1" to-layer="3456" to-port="1"/>
		<edge from-layer="3457" from-port="0" to-layer="3458" to-port="0"/>
		<edge from-layer="3456" from-port="2" to-layer="3459" to-port="0"/>
		<edge from-layer="3458" from-port="1" to-layer="3459" to-port="1"/>
		<edge from-layer="3459" from-port="2" to-layer="3460" to-port="0"/>
		<edge from-layer="3445" from-port="0" to-layer="3460" to-port="1"/>
		<edge from-layer="3446" from-port="0" to-layer="3460" to-port="2"/>
		<edge from-layer="3447" from-port="0" to-layer="3460" to-port="3"/>
		<edge from-layer="3448" from-port="0" to-layer="3460" to-port="4"/>
		<edge from-layer="3463" from-port="0" to-layer="3464" to-port="0"/>
		<edge from-layer="3464" from-port="1" to-layer="3465" to-port="0"/>
		<edge from-layer="3462" from-port="0" to-layer="3465" to-port="1"/>
		<edge from-layer="3465" from-port="2" to-layer="3466" to-port="0"/>
		<edge from-layer="3461" from-port="0" to-layer="3466" to-port="1"/>
		<edge from-layer="3460" from-port="5" to-layer="3467" to-port="0"/>
		<edge from-layer="3466" from-port="2" to-layer="3467" to-port="1"/>
		<edge from-layer="3468" from-port="0" to-layer="3469" to-port="0"/>
		<edge from-layer="3467" from-port="2" to-layer="3470" to-port="0"/>
		<edge from-layer="3469" from-port="1" to-layer="3470" to-port="1"/>
		<edge from-layer="3471" from-port="0" to-layer="3472" to-port="0"/>
		<edge from-layer="3470" from-port="2" to-layer="3473" to-port="0"/>
		<edge from-layer="3472" from-port="1" to-layer="3473" to-port="1"/>
		<edge from-layer="3473" from-port="2" to-layer="3474" to-port="0"/>
		<edge from-layer="3441" from-port="0" to-layer="3474" to-port="1"/>
		<edge from-layer="3442" from-port="0" to-layer="3474" to-port="2"/>
		<edge from-layer="3443" from-port="0" to-layer="3474" to-port="3"/>
		<edge from-layer="3444" from-port="0" to-layer="3474" to-port="4"/>
		<edge from-layer="3476" from-port="0" to-layer="3477" to-port="0"/>
		<edge from-layer="3477" from-port="1" to-layer="3478" to-port="0"/>
		<edge from-layer="3475" from-port="0" to-layer="3478" to-port="1"/>
		<edge from-layer="3474" from-port="5" to-layer="3479" to-port="0"/>
		<edge from-layer="3478" from-port="2" to-layer="3479" to-port="1"/>
		<edge from-layer="3480" from-port="0" to-layer="3481" to-port="0"/>
		<edge from-layer="3479" from-port="2" to-layer="3482" to-port="0"/>
		<edge from-layer="3481" from-port="1" to-layer="3482" to-port="1"/>
		<edge from-layer="3482" from-port="2" to-layer="3483" to-port="0"/>
		<edge from-layer="3437" from-port="0" to-layer="3483" to-port="1"/>
		<edge from-layer="3438" from-port="0" to-layer="3483" to-port="2"/>
		<edge from-layer="3439" from-port="0" to-layer="3483" to-port="3"/>
		<edge from-layer="3440" from-port="0" to-layer="3483" to-port="4"/>
		<edge from-layer="3436" from-port="5" to-layer="3484" to-port="0"/>
		<edge from-layer="3483" from-port="5" to-layer="3484" to-port="1"/>
		<edge from-layer="3485" from-port="0" to-layer="3486" to-port="0"/>
		<edge from-layer="3484" from-port="2" to-layer="3487" to-port="0"/>
		<edge from-layer="3486" from-port="1" to-layer="3487" to-port="1"/>
		<edge from-layer="3487" from-port="2" to-layer="3488" to-port="0"/>
		<edge from-layer="2838" from-port="0" to-layer="3488" to-port="1"/>
		<edge from-layer="2839" from-port="0" to-layer="3488" to-port="2"/>
		<edge from-layer="2840" from-port="0" to-layer="3488" to-port="3"/>
		<edge from-layer="2841" from-port="0" to-layer="3488" to-port="4"/>
		<edge from-layer="3502" from-port="0" to-layer="3503" to-port="0"/>
		<edge from-layer="3503" from-port="1" to-layer="3504" to-port="0"/>
		<edge from-layer="3501" from-port="0" to-layer="3504" to-port="1"/>
		<edge from-layer="3488" from-port="5" to-layer="3505" to-port="0"/>
		<edge from-layer="3504" from-port="2" to-layer="3505" to-port="1"/>
		<edge from-layer="3506" from-port="0" to-layer="3507" to-port="0"/>
		<edge from-layer="3505" from-port="2" to-layer="3508" to-port="0"/>
		<edge from-layer="3507" from-port="1" to-layer="3508" to-port="1"/>
		<edge from-layer="3509" from-port="0" to-layer="3510" to-port="0"/>
		<edge from-layer="3508" from-port="2" to-layer="3511" to-port="0"/>
		<edge from-layer="3510" from-port="1" to-layer="3511" to-port="1"/>
		<edge from-layer="3511" from-port="2" to-layer="3512" to-port="0"/>
		<edge from-layer="3497" from-port="0" to-layer="3512" to-port="1"/>
		<edge from-layer="3498" from-port="0" to-layer="3512" to-port="2"/>
		<edge from-layer="3499" from-port="0" to-layer="3512" to-port="3"/>
		<edge from-layer="3500" from-port="0" to-layer="3512" to-port="4"/>
		<edge from-layer="3515" from-port="0" to-layer="3516" to-port="0"/>
		<edge from-layer="3516" from-port="1" to-layer="3517" to-port="0"/>
		<edge from-layer="3514" from-port="0" to-layer="3517" to-port="1"/>
		<edge from-layer="3517" from-port="2" to-layer="3518" to-port="0"/>
		<edge from-layer="3513" from-port="0" to-layer="3518" to-port="1"/>
		<edge from-layer="3512" from-port="5" to-layer="3519" to-port="0"/>
		<edge from-layer="3518" from-port="2" to-layer="3519" to-port="1"/>
		<edge from-layer="3520" from-port="0" to-layer="3521" to-port="0"/>
		<edge from-layer="3519" from-port="2" to-layer="3522" to-port="0"/>
		<edge from-layer="3521" from-port="1" to-layer="3522" to-port="1"/>
		<edge from-layer="3523" from-port="0" to-layer="3524" to-port="0"/>
		<edge from-layer="3522" from-port="2" to-layer="3525" to-port="0"/>
		<edge from-layer="3524" from-port="1" to-layer="3525" to-port="1"/>
		<edge from-layer="3525" from-port="2" to-layer="3526" to-port="0"/>
		<edge from-layer="3493" from-port="0" to-layer="3526" to-port="1"/>
		<edge from-layer="3494" from-port="0" to-layer="3526" to-port="2"/>
		<edge from-layer="3495" from-port="0" to-layer="3526" to-port="3"/>
		<edge from-layer="3496" from-port="0" to-layer="3526" to-port="4"/>
		<edge from-layer="3528" from-port="0" to-layer="3529" to-port="0"/>
		<edge from-layer="3529" from-port="1" to-layer="3530" to-port="0"/>
		<edge from-layer="3527" from-port="0" to-layer="3530" to-port="1"/>
		<edge from-layer="3526" from-port="5" to-layer="3531" to-port="0"/>
		<edge from-layer="3530" from-port="2" to-layer="3531" to-port="1"/>
		<edge from-layer="3532" from-port="0" to-layer="3533" to-port="0"/>
		<edge from-layer="3531" from-port="2" to-layer="3534" to-port="0"/>
		<edge from-layer="3533" from-port="1" to-layer="3534" to-port="1"/>
		<edge from-layer="3534" from-port="2" to-layer="3535" to-port="0"/>
		<edge from-layer="3489" from-port="0" to-layer="3535" to-port="1"/>
		<edge from-layer="3490" from-port="0" to-layer="3535" to-port="2"/>
		<edge from-layer="3491" from-port="0" to-layer="3535" to-port="3"/>
		<edge from-layer="3492" from-port="0" to-layer="3535" to-port="4"/>
		<edge from-layer="3488" from-port="5" to-layer="3536" to-port="0"/>
		<edge from-layer="3535" from-port="5" to-layer="3536" to-port="1"/>
		<edge from-layer="3537" from-port="0" to-layer="3538" to-port="0"/>
		<edge from-layer="3536" from-port="2" to-layer="3539" to-port="0"/>
		<edge from-layer="3538" from-port="1" to-layer="3539" to-port="1"/>
		<edge from-layer="3539" from-port="2" to-layer="3540" to-port="0"/>
		<edge from-layer="2834" from-port="0" to-layer="3540" to-port="1"/>
		<edge from-layer="2835" from-port="0" to-layer="3540" to-port="2"/>
		<edge from-layer="2836" from-port="0" to-layer="3540" to-port="3"/>
		<edge from-layer="2837" from-port="0" to-layer="3540" to-port="4"/>
		<edge from-layer="3542" from-port="0" to-layer="3543" to-port="0"/>
		<edge from-layer="3543" from-port="1" to-layer="3544" to-port="0"/>
		<edge from-layer="3541" from-port="0" to-layer="3544" to-port="1"/>
		<edge from-layer="3540" from-port="5" to-layer="3545" to-port="0"/>
		<edge from-layer="3544" from-port="2" to-layer="3545" to-port="1"/>
		<edge from-layer="3546" from-port="0" to-layer="3547" to-port="0"/>
		<edge from-layer="3545" from-port="2" to-layer="3548" to-port="0"/>
		<edge from-layer="3547" from-port="1" to-layer="3548" to-port="1"/>
		<edge from-layer="3548" from-port="2" to-layer="3549" to-port="0"/>
		<edge from-layer="2830" from-port="0" to-layer="3549" to-port="1"/>
		<edge from-layer="2831" from-port="0" to-layer="3549" to-port="2"/>
		<edge from-layer="2832" from-port="0" to-layer="3549" to-port="3"/>
		<edge from-layer="2833" from-port="0" to-layer="3549" to-port="4"/>
		<edge from-layer="3549" from-port="5" to-layer="3550" to-port="0"/>
		<edge from-layer="2829" from-port="0" to-layer="3550" to-port="1"/>
		<edge from-layer="3550" from-port="2" to-layer="3551" to-port="0"/>
		<edge from-layer="2825" from-port="0" to-layer="3551" to-port="1"/>
		<edge from-layer="2826" from-port="0" to-layer="3551" to-port="2"/>
		<edge from-layer="2827" from-port="0" to-layer="3551" to-port="3"/>
		<edge from-layer="2828" from-port="0" to-layer="3551" to-port="4"/>
		<edge from-layer="2824" from-port="5" to-layer="3552" to-port="0"/>
		<edge from-layer="3551" from-port="5" to-layer="3552" to-port="1"/>
		<edge from-layer="3554" from-port="0" to-layer="3555" to-port="0"/>
		<edge from-layer="3555" from-port="1" to-layer="3556" to-port="0"/>
		<edge from-layer="3553" from-port="0" to-layer="3556" to-port="1"/>
		<edge from-layer="3552" from-port="2" to-layer="3557" to-port="0"/>
		<edge from-layer="3556" from-port="2" to-layer="3557" to-port="1"/>
		<edge from-layer="3558" from-port="0" to-layer="3559" to-port="0"/>
		<edge from-layer="3557" from-port="2" to-layer="3560" to-port="0"/>
		<edge from-layer="3559" from-port="1" to-layer="3560" to-port="1"/>
		<edge from-layer="3561" from-port="0" to-layer="3562" to-port="0"/>
		<edge from-layer="3560" from-port="2" to-layer="3563" to-port="0"/>
		<edge from-layer="3562" from-port="1" to-layer="3563" to-port="1"/>
		<edge from-layer="3563" from-port="2" to-layer="3564" to-port="0"/>
		<edge from-layer="2801" from-port="0" to-layer="3564" to-port="1"/>
		<edge from-layer="2802" from-port="0" to-layer="3564" to-port="2"/>
		<edge from-layer="2803" from-port="0" to-layer="3564" to-port="3"/>
		<edge from-layer="2804" from-port="0" to-layer="3564" to-port="4"/>
		<edge from-layer="3566" from-port="0" to-layer="3567" to-port="0"/>
		<edge from-layer="3567" from-port="1" to-layer="3568" to-port="0"/>
		<edge from-layer="3565" from-port="0" to-layer="3568" to-port="1"/>
		<edge from-layer="3564" from-port="5" to-layer="3569" to-port="0"/>
		<edge from-layer="3568" from-port="2" to-layer="3569" to-port="1"/>
		<edge from-layer="3570" from-port="0" to-layer="3571" to-port="0"/>
		<edge from-layer="3569" from-port="2" to-layer="3572" to-port="0"/>
		<edge from-layer="3571" from-port="1" to-layer="3572" to-port="1"/>
		<edge from-layer="3573" from-port="0" to-layer="3574" to-port="0"/>
		<edge from-layer="3572" from-port="2" to-layer="3575" to-port="0"/>
		<edge from-layer="3574" from-port="1" to-layer="3575" to-port="1"/>
		<edge from-layer="3575" from-port="2" to-layer="3576" to-port="0"/>
		<edge from-layer="2797" from-port="0" to-layer="3576" to-port="1"/>
		<edge from-layer="2798" from-port="0" to-layer="3576" to-port="2"/>
		<edge from-layer="2799" from-port="0" to-layer="3576" to-port="3"/>
		<edge from-layer="2800" from-port="0" to-layer="3576" to-port="4"/>
		<edge from-layer="3578" from-port="0" to-layer="3579" to-port="0"/>
		<edge from-layer="3579" from-port="1" to-layer="3580" to-port="0"/>
		<edge from-layer="3577" from-port="0" to-layer="3580" to-port="1"/>
		<edge from-layer="3576" from-port="5" to-layer="3581" to-port="0"/>
		<edge from-layer="3580" from-port="2" to-layer="3581" to-port="1"/>
		<edge from-layer="3582" from-port="0" to-layer="3583" to-port="0"/>
		<edge from-layer="3581" from-port="2" to-layer="3584" to-port="0"/>
		<edge from-layer="3583" from-port="1" to-layer="3584" to-port="1"/>
		<edge from-layer="3584" from-port="2" to-layer="3585" to-port="0"/>
		<edge from-layer="2793" from-port="0" to-layer="3585" to-port="1"/>
		<edge from-layer="2794" from-port="0" to-layer="3585" to-port="2"/>
		<edge from-layer="2795" from-port="0" to-layer="3585" to-port="3"/>
		<edge from-layer="2796" from-port="0" to-layer="3585" to-port="4"/>
		<edge from-layer="3585" from-port="5" to-layer="3586" to-port="0"/>
		<edge from-layer="2792" from-port="0" to-layer="3586" to-port="1"/>
		<edge from-layer="3586" from-port="2" to-layer="3587" to-port="0"/>
		<edge from-layer="2788" from-port="0" to-layer="3587" to-port="1"/>
		<edge from-layer="2789" from-port="0" to-layer="3587" to-port="2"/>
		<edge from-layer="2790" from-port="0" to-layer="3587" to-port="3"/>
		<edge from-layer="2791" from-port="0" to-layer="3587" to-port="4"/>
		<edge from-layer="3589" from-port="0" to-layer="3590" to-port="0"/>
		<edge from-layer="3590" from-port="1" to-layer="3591" to-port="0"/>
		<edge from-layer="3588" from-port="0" to-layer="3591" to-port="1"/>
		<edge from-layer="3587" from-port="5" to-layer="3592" to-port="0"/>
		<edge from-layer="3591" from-port="2" to-layer="3592" to-port="1"/>
		<edge from-layer="3592" from-port="2" to-layer="3593" to-port="0"/>
		<edge from-layer="2787" from-port="0" to-layer="3593" to-port="1"/>
		<edge from-layer="3593" from-port="2" to-layer="3595" to-port="0"/>
		<edge from-layer="3594" from-port="0" to-layer="3595" to-port="1"/>
		<edge from-layer="3625" from-port="0" to-layer="3626" to-port="0"/>
		<edge from-layer="3626" from-port="1" to-layer="3627" to-port="0"/>
		<edge from-layer="3624" from-port="0" to-layer="3627" to-port="1"/>
		<edge from-layer="2755" from-port="5" to-layer="3628" to-port="0"/>
		<edge from-layer="3627" from-port="2" to-layer="3628" to-port="1"/>
		<edge from-layer="3629" from-port="0" to-layer="3630" to-port="0"/>
		<edge from-layer="3628" from-port="2" to-layer="3631" to-port="0"/>
		<edge from-layer="3630" from-port="1" to-layer="3631" to-port="1"/>
		<edge from-layer="3631" from-port="2" to-layer="3632" to-port="0"/>
		<edge from-layer="3620" from-port="0" to-layer="3632" to-port="1"/>
		<edge from-layer="3621" from-port="0" to-layer="3632" to-port="2"/>
		<edge from-layer="3622" from-port="0" to-layer="3632" to-port="3"/>
		<edge from-layer="3623" from-port="0" to-layer="3632" to-port="4"/>
		<edge from-layer="3632" from-port="5" to-layer="3633" to-port="0"/>
		<edge from-layer="3619" from-port="0" to-layer="3633" to-port="1"/>
		<edge from-layer="3633" from-port="2" to-layer="3634" to-port="0"/>
		<edge from-layer="3615" from-port="0" to-layer="3634" to-port="1"/>
		<edge from-layer="3616" from-port="0" to-layer="3634" to-port="2"/>
		<edge from-layer="3617" from-port="0" to-layer="3634" to-port="3"/>
		<edge from-layer="3618" from-port="0" to-layer="3634" to-port="4"/>
		<edge from-layer="3645" from-port="0" to-layer="3646" to-port="0"/>
		<edge from-layer="3646" from-port="1" to-layer="3647" to-port="0"/>
		<edge from-layer="3644" from-port="0" to-layer="3647" to-port="1"/>
		<edge from-layer="3540" from-port="5" to-layer="3648" to-port="0"/>
		<edge from-layer="3647" from-port="2" to-layer="3648" to-port="1"/>
		<edge from-layer="3649" from-port="0" to-layer="3650" to-port="0"/>
		<edge from-layer="3648" from-port="2" to-layer="3651" to-port="0"/>
		<edge from-layer="3650" from-port="1" to-layer="3651" to-port="1"/>
		<edge from-layer="3651" from-port="2" to-layer="3652" to-port="0"/>
		<edge from-layer="3640" from-port="0" to-layer="3652" to-port="1"/>
		<edge from-layer="3641" from-port="0" to-layer="3652" to-port="2"/>
		<edge from-layer="3642" from-port="0" to-layer="3652" to-port="3"/>
		<edge from-layer="3643" from-port="0" to-layer="3652" to-port="4"/>
		<edge from-layer="3652" from-port="5" to-layer="3653" to-port="0"/>
		<edge from-layer="3639" from-port="0" to-layer="3653" to-port="1"/>
		<edge from-layer="3653" from-port="2" to-layer="3654" to-port="0"/>
		<edge from-layer="3635" from-port="0" to-layer="3654" to-port="1"/>
		<edge from-layer="3636" from-port="0" to-layer="3654" to-port="2"/>
		<edge from-layer="3637" from-port="0" to-layer="3654" to-port="3"/>
		<edge from-layer="3638" from-port="0" to-layer="3654" to-port="4"/>
		<edge from-layer="3634" from-port="5" to-layer="3655" to-port="0"/>
		<edge from-layer="3654" from-port="5" to-layer="3655" to-port="1"/>
		<edge from-layer="3657" from-port="0" to-layer="3658" to-port="0"/>
		<edge from-layer="3658" from-port="1" to-layer="3659" to-port="0"/>
		<edge from-layer="3656" from-port="0" to-layer="3659" to-port="1"/>
		<edge from-layer="3655" from-port="2" to-layer="3660" to-port="0"/>
		<edge from-layer="3659" from-port="2" to-layer="3660" to-port="1"/>
		<edge from-layer="3661" from-port="0" to-layer="3662" to-port="0"/>
		<edge from-layer="3660" from-port="2" to-layer="3663" to-port="0"/>
		<edge from-layer="3662" from-port="1" to-layer="3663" to-port="1"/>
		<edge from-layer="3664" from-port="0" to-layer="3665" to-port="0"/>
		<edge from-layer="3663" from-port="2" to-layer="3666" to-port="0"/>
		<edge from-layer="3665" from-port="1" to-layer="3666" to-port="1"/>
		<edge from-layer="3666" from-port="2" to-layer="3667" to-port="0"/>
		<edge from-layer="3611" from-port="0" to-layer="3667" to-port="1"/>
		<edge from-layer="3612" from-port="0" to-layer="3667" to-port="2"/>
		<edge from-layer="3613" from-port="0" to-layer="3667" to-port="3"/>
		<edge from-layer="3614" from-port="0" to-layer="3667" to-port="4"/>
		<edge from-layer="3669" from-port="0" to-layer="3670" to-port="0"/>
		<edge from-layer="3670" from-port="1" to-layer="3671" to-port="0"/>
		<edge from-layer="3668" from-port="0" to-layer="3671" to-port="1"/>
		<edge from-layer="3667" from-port="5" to-layer="3672" to-port="0"/>
		<edge from-layer="3671" from-port="2" to-layer="3672" to-port="1"/>
		<edge from-layer="3673" from-port="0" to-layer="3674" to-port="0"/>
		<edge from-layer="3672" from-port="2" to-layer="3675" to-port="0"/>
		<edge from-layer="3674" from-port="1" to-layer="3675" to-port="1"/>
		<edge from-layer="3676" from-port="0" to-layer="3677" to-port="0"/>
		<edge from-layer="3675" from-port="2" to-layer="3678" to-port="0"/>
		<edge from-layer="3677" from-port="1" to-layer="3678" to-port="1"/>
		<edge from-layer="3678" from-port="2" to-layer="3679" to-port="0"/>
		<edge from-layer="3607" from-port="0" to-layer="3679" to-port="1"/>
		<edge from-layer="3608" from-port="0" to-layer="3679" to-port="2"/>
		<edge from-layer="3609" from-port="0" to-layer="3679" to-port="3"/>
		<edge from-layer="3610" from-port="0" to-layer="3679" to-port="4"/>
		<edge from-layer="3681" from-port="0" to-layer="3682" to-port="0"/>
		<edge from-layer="3682" from-port="1" to-layer="3683" to-port="0"/>
		<edge from-layer="3680" from-port="0" to-layer="3683" to-port="1"/>
		<edge from-layer="3679" from-port="5" to-layer="3684" to-port="0"/>
		<edge from-layer="3683" from-port="2" to-layer="3684" to-port="1"/>
		<edge from-layer="3685" from-port="0" to-layer="3686" to-port="0"/>
		<edge from-layer="3684" from-port="2" to-layer="3687" to-port="0"/>
		<edge from-layer="3686" from-port="1" to-layer="3687" to-port="1"/>
		<edge from-layer="3687" from-port="2" to-layer="3688" to-port="0"/>
		<edge from-layer="3603" from-port="0" to-layer="3688" to-port="1"/>
		<edge from-layer="3604" from-port="0" to-layer="3688" to-port="2"/>
		<edge from-layer="3605" from-port="0" to-layer="3688" to-port="3"/>
		<edge from-layer="3606" from-port="0" to-layer="3688" to-port="4"/>
		<edge from-layer="3688" from-port="5" to-layer="3689" to-port="0"/>
		<edge from-layer="3602" from-port="0" to-layer="3689" to-port="1"/>
		<edge from-layer="3689" from-port="2" to-layer="3690" to-port="0"/>
		<edge from-layer="3598" from-port="0" to-layer="3690" to-port="1"/>
		<edge from-layer="3599" from-port="0" to-layer="3690" to-port="2"/>
		<edge from-layer="3600" from-port="0" to-layer="3690" to-port="3"/>
		<edge from-layer="3601" from-port="0" to-layer="3690" to-port="4"/>
		<edge from-layer="3692" from-port="0" to-layer="3693" to-port="0"/>
		<edge from-layer="3693" from-port="1" to-layer="3694" to-port="0"/>
		<edge from-layer="3691" from-port="0" to-layer="3694" to-port="1"/>
		<edge from-layer="3690" from-port="5" to-layer="3695" to-port="0"/>
		<edge from-layer="3694" from-port="2" to-layer="3695" to-port="1"/>
		<edge from-layer="3695" from-port="2" to-layer="3696" to-port="0"/>
		<edge from-layer="3597" from-port="0" to-layer="3696" to-port="1"/>
		<edge from-layer="3696" from-port="2" to-layer="3698" to-port="0"/>
		<edge from-layer="3697" from-port="0" to-layer="3698" to-port="1"/>
		<edge from-layer="3728" from-port="0" to-layer="3729" to-port="0"/>
		<edge from-layer="3729" from-port="1" to-layer="3730" to-port="0"/>
		<edge from-layer="3727" from-port="0" to-layer="3730" to-port="1"/>
		<edge from-layer="2755" from-port="5" to-layer="3731" to-port="0"/>
		<edge from-layer="3730" from-port="2" to-layer="3731" to-port="1"/>
		<edge from-layer="3732" from-port="0" to-layer="3733" to-port="0"/>
		<edge from-layer="3731" from-port="2" to-layer="3734" to-port="0"/>
		<edge from-layer="3733" from-port="1" to-layer="3734" to-port="1"/>
		<edge from-layer="3734" from-port="2" to-layer="3735" to-port="0"/>
		<edge from-layer="3723" from-port="0" to-layer="3735" to-port="1"/>
		<edge from-layer="3724" from-port="0" to-layer="3735" to-port="2"/>
		<edge from-layer="3725" from-port="0" to-layer="3735" to-port="3"/>
		<edge from-layer="3726" from-port="0" to-layer="3735" to-port="4"/>
		<edge from-layer="3735" from-port="5" to-layer="3736" to-port="0"/>
		<edge from-layer="3722" from-port="0" to-layer="3736" to-port="1"/>
		<edge from-layer="3736" from-port="2" to-layer="3737" to-port="0"/>
		<edge from-layer="3718" from-port="0" to-layer="3737" to-port="1"/>
		<edge from-layer="3719" from-port="0" to-layer="3737" to-port="2"/>
		<edge from-layer="3720" from-port="0" to-layer="3737" to-port="3"/>
		<edge from-layer="3721" from-port="0" to-layer="3737" to-port="4"/>
		<edge from-layer="3748" from-port="0" to-layer="3749" to-port="0"/>
		<edge from-layer="3749" from-port="1" to-layer="3750" to-port="0"/>
		<edge from-layer="3747" from-port="0" to-layer="3750" to-port="1"/>
		<edge from-layer="3540" from-port="5" to-layer="3751" to-port="0"/>
		<edge from-layer="3750" from-port="2" to-layer="3751" to-port="1"/>
		<edge from-layer="3752" from-port="0" to-layer="3753" to-port="0"/>
		<edge from-layer="3751" from-port="2" to-layer="3754" to-port="0"/>
		<edge from-layer="3753" from-port="1" to-layer="3754" to-port="1"/>
		<edge from-layer="3754" from-port="2" to-layer="3755" to-port="0"/>
		<edge from-layer="3743" from-port="0" to-layer="3755" to-port="1"/>
		<edge from-layer="3744" from-port="0" to-layer="3755" to-port="2"/>
		<edge from-layer="3745" from-port="0" to-layer="3755" to-port="3"/>
		<edge from-layer="3746" from-port="0" to-layer="3755" to-port="4"/>
		<edge from-layer="3755" from-port="5" to-layer="3756" to-port="0"/>
		<edge from-layer="3742" from-port="0" to-layer="3756" to-port="1"/>
		<edge from-layer="3756" from-port="2" to-layer="3757" to-port="0"/>
		<edge from-layer="3738" from-port="0" to-layer="3757" to-port="1"/>
		<edge from-layer="3739" from-port="0" to-layer="3757" to-port="2"/>
		<edge from-layer="3740" from-port="0" to-layer="3757" to-port="3"/>
		<edge from-layer="3741" from-port="0" to-layer="3757" to-port="4"/>
		<edge from-layer="3737" from-port="5" to-layer="3758" to-port="0"/>
		<edge from-layer="3757" from-port="5" to-layer="3758" to-port="1"/>
		<edge from-layer="3760" from-port="0" to-layer="3761" to-port="0"/>
		<edge from-layer="3761" from-port="1" to-layer="3762" to-port="0"/>
		<edge from-layer="3759" from-port="0" to-layer="3762" to-port="1"/>
		<edge from-layer="3758" from-port="2" to-layer="3763" to-port="0"/>
		<edge from-layer="3762" from-port="2" to-layer="3763" to-port="1"/>
		<edge from-layer="3764" from-port="0" to-layer="3765" to-port="0"/>
		<edge from-layer="3763" from-port="2" to-layer="3766" to-port="0"/>
		<edge from-layer="3765" from-port="1" to-layer="3766" to-port="1"/>
		<edge from-layer="3767" from-port="0" to-layer="3768" to-port="0"/>
		<edge from-layer="3766" from-port="2" to-layer="3769" to-port="0"/>
		<edge from-layer="3768" from-port="1" to-layer="3769" to-port="1"/>
		<edge from-layer="3769" from-port="2" to-layer="3770" to-port="0"/>
		<edge from-layer="3714" from-port="0" to-layer="3770" to-port="1"/>
		<edge from-layer="3715" from-port="0" to-layer="3770" to-port="2"/>
		<edge from-layer="3716" from-port="0" to-layer="3770" to-port="3"/>
		<edge from-layer="3717" from-port="0" to-layer="3770" to-port="4"/>
		<edge from-layer="3772" from-port="0" to-layer="3773" to-port="0"/>
		<edge from-layer="3773" from-port="1" to-layer="3774" to-port="0"/>
		<edge from-layer="3771" from-port="0" to-layer="3774" to-port="1"/>
		<edge from-layer="3770" from-port="5" to-layer="3775" to-port="0"/>
		<edge from-layer="3774" from-port="2" to-layer="3775" to-port="1"/>
		<edge from-layer="3776" from-port="0" to-layer="3777" to-port="0"/>
		<edge from-layer="3775" from-port="2" to-layer="3778" to-port="0"/>
		<edge from-layer="3777" from-port="1" to-layer="3778" to-port="1"/>
		<edge from-layer="3779" from-port="0" to-layer="3780" to-port="0"/>
		<edge from-layer="3778" from-port="2" to-layer="3781" to-port="0"/>
		<edge from-layer="3780" from-port="1" to-layer="3781" to-port="1"/>
		<edge from-layer="3781" from-port="2" to-layer="3782" to-port="0"/>
		<edge from-layer="3710" from-port="0" to-layer="3782" to-port="1"/>
		<edge from-layer="3711" from-port="0" to-layer="3782" to-port="2"/>
		<edge from-layer="3712" from-port="0" to-layer="3782" to-port="3"/>
		<edge from-layer="3713" from-port="0" to-layer="3782" to-port="4"/>
		<edge from-layer="3784" from-port="0" to-layer="3785" to-port="0"/>
		<edge from-layer="3785" from-port="1" to-layer="3786" to-port="0"/>
		<edge from-layer="3783" from-port="0" to-layer="3786" to-port="1"/>
		<edge from-layer="3782" from-port="5" to-layer="3787" to-port="0"/>
		<edge from-layer="3786" from-port="2" to-layer="3787" to-port="1"/>
		<edge from-layer="3788" from-port="0" to-layer="3789" to-port="0"/>
		<edge from-layer="3787" from-port="2" to-layer="3790" to-port="0"/>
		<edge from-layer="3789" from-port="1" to-layer="3790" to-port="1"/>
		<edge from-layer="3790" from-port="2" to-layer="3791" to-port="0"/>
		<edge from-layer="3706" from-port="0" to-layer="3791" to-port="1"/>
		<edge from-layer="3707" from-port="0" to-layer="3791" to-port="2"/>
		<edge from-layer="3708" from-port="0" to-layer="3791" to-port="3"/>
		<edge from-layer="3709" from-port="0" to-layer="3791" to-port="4"/>
		<edge from-layer="3791" from-port="5" to-layer="3792" to-port="0"/>
		<edge from-layer="3705" from-port="0" to-layer="3792" to-port="1"/>
		<edge from-layer="3792" from-port="2" to-layer="3793" to-port="0"/>
		<edge from-layer="3701" from-port="0" to-layer="3793" to-port="1"/>
		<edge from-layer="3702" from-port="0" to-layer="3793" to-port="2"/>
		<edge from-layer="3703" from-port="0" to-layer="3793" to-port="3"/>
		<edge from-layer="3704" from-port="0" to-layer="3793" to-port="4"/>
		<edge from-layer="3795" from-port="0" to-layer="3796" to-port="0"/>
		<edge from-layer="3796" from-port="1" to-layer="3797" to-port="0"/>
		<edge from-layer="3794" from-port="0" to-layer="3797" to-port="1"/>
		<edge from-layer="3793" from-port="5" to-layer="3798" to-port="0"/>
		<edge from-layer="3797" from-port="2" to-layer="3798" to-port="1"/>
		<edge from-layer="3798" from-port="2" to-layer="3799" to-port="0"/>
		<edge from-layer="3700" from-port="0" to-layer="3799" to-port="1"/>
		<edge from-layer="3799" from-port="2" to-layer="3801" to-port="0"/>
		<edge from-layer="3800" from-port="0" to-layer="3801" to-port="1"/>
		<edge from-layer="3831" from-port="0" to-layer="3832" to-port="0"/>
		<edge from-layer="3832" from-port="1" to-layer="3833" to-port="0"/>
		<edge from-layer="3830" from-port="0" to-layer="3833" to-port="1"/>
		<edge from-layer="2755" from-port="5" to-layer="3834" to-port="0"/>
		<edge from-layer="3833" from-port="2" to-layer="3834" to-port="1"/>
		<edge from-layer="3835" from-port="0" to-layer="3836" to-port="0"/>
		<edge from-layer="3834" from-port="2" to-layer="3837" to-port="0"/>
		<edge from-layer="3836" from-port="1" to-layer="3837" to-port="1"/>
		<edge from-layer="3837" from-port="2" to-layer="3838" to-port="0"/>
		<edge from-layer="3826" from-port="0" to-layer="3838" to-port="1"/>
		<edge from-layer="3827" from-port="0" to-layer="3838" to-port="2"/>
		<edge from-layer="3828" from-port="0" to-layer="3838" to-port="3"/>
		<edge from-layer="3829" from-port="0" to-layer="3838" to-port="4"/>
		<edge from-layer="3838" from-port="5" to-layer="3839" to-port="0"/>
		<edge from-layer="3825" from-port="0" to-layer="3839" to-port="1"/>
		<edge from-layer="3839" from-port="2" to-layer="3840" to-port="0"/>
		<edge from-layer="3821" from-port="0" to-layer="3840" to-port="1"/>
		<edge from-layer="3822" from-port="0" to-layer="3840" to-port="2"/>
		<edge from-layer="3823" from-port="0" to-layer="3840" to-port="3"/>
		<edge from-layer="3824" from-port="0" to-layer="3840" to-port="4"/>
		<edge from-layer="3851" from-port="0" to-layer="3852" to-port="0"/>
		<edge from-layer="3852" from-port="1" to-layer="3853" to-port="0"/>
		<edge from-layer="3850" from-port="0" to-layer="3853" to-port="1"/>
		<edge from-layer="3540" from-port="5" to-layer="3854" to-port="0"/>
		<edge from-layer="3853" from-port="2" to-layer="3854" to-port="1"/>
		<edge from-layer="3855" from-port="0" to-layer="3856" to-port="0"/>
		<edge from-layer="3854" from-port="2" to-layer="3857" to-port="0"/>
		<edge from-layer="3856" from-port="1" to-layer="3857" to-port="1"/>
		<edge from-layer="3857" from-port="2" to-layer="3858" to-port="0"/>
		<edge from-layer="3846" from-port="0" to-layer="3858" to-port="1"/>
		<edge from-layer="3847" from-port="0" to-layer="3858" to-port="2"/>
		<edge from-layer="3848" from-port="0" to-layer="3858" to-port="3"/>
		<edge from-layer="3849" from-port="0" to-layer="3858" to-port="4"/>
		<edge from-layer="3858" from-port="5" to-layer="3859" to-port="0"/>
		<edge from-layer="3845" from-port="0" to-layer="3859" to-port="1"/>
		<edge from-layer="3859" from-port="2" to-layer="3860" to-port="0"/>
		<edge from-layer="3841" from-port="0" to-layer="3860" to-port="1"/>
		<edge from-layer="3842" from-port="0" to-layer="3860" to-port="2"/>
		<edge from-layer="3843" from-port="0" to-layer="3860" to-port="3"/>
		<edge from-layer="3844" from-port="0" to-layer="3860" to-port="4"/>
		<edge from-layer="3840" from-port="5" to-layer="3861" to-port="0"/>
		<edge from-layer="3860" from-port="5" to-layer="3861" to-port="1"/>
		<edge from-layer="3863" from-port="0" to-layer="3864" to-port="0"/>
		<edge from-layer="3864" from-port="1" to-layer="3865" to-port="0"/>
		<edge from-layer="3862" from-port="0" to-layer="3865" to-port="1"/>
		<edge from-layer="3861" from-port="2" to-layer="3866" to-port="0"/>
		<edge from-layer="3865" from-port="2" to-layer="3866" to-port="1"/>
		<edge from-layer="3867" from-port="0" to-layer="3868" to-port="0"/>
		<edge from-layer="3866" from-port="2" to-layer="3869" to-port="0"/>
		<edge from-layer="3868" from-port="1" to-layer="3869" to-port="1"/>
		<edge from-layer="3870" from-port="0" to-layer="3871" to-port="0"/>
		<edge from-layer="3869" from-port="2" to-layer="3872" to-port="0"/>
		<edge from-layer="3871" from-port="1" to-layer="3872" to-port="1"/>
		<edge from-layer="3872" from-port="2" to-layer="3873" to-port="0"/>
		<edge from-layer="3817" from-port="0" to-layer="3873" to-port="1"/>
		<edge from-layer="3818" from-port="0" to-layer="3873" to-port="2"/>
		<edge from-layer="3819" from-port="0" to-layer="3873" to-port="3"/>
		<edge from-layer="3820" from-port="0" to-layer="3873" to-port="4"/>
		<edge from-layer="3875" from-port="0" to-layer="3876" to-port="0"/>
		<edge from-layer="3876" from-port="1" to-layer="3877" to-port="0"/>
		<edge from-layer="3874" from-port="0" to-layer="3877" to-port="1"/>
		<edge from-layer="3873" from-port="5" to-layer="3878" to-port="0"/>
		<edge from-layer="3877" from-port="2" to-layer="3878" to-port="1"/>
		<edge from-layer="3879" from-port="0" to-layer="3880" to-port="0"/>
		<edge from-layer="3878" from-port="2" to-layer="3881" to-port="0"/>
		<edge from-layer="3880" from-port="1" to-layer="3881" to-port="1"/>
		<edge from-layer="3882" from-port="0" to-layer="3883" to-port="0"/>
		<edge from-layer="3881" from-port="2" to-layer="3884" to-port="0"/>
		<edge from-layer="3883" from-port="1" to-layer="3884" to-port="1"/>
		<edge from-layer="3884" from-port="2" to-layer="3885" to-port="0"/>
		<edge from-layer="3813" from-port="0" to-layer="3885" to-port="1"/>
		<edge from-layer="3814" from-port="0" to-layer="3885" to-port="2"/>
		<edge from-layer="3815" from-port="0" to-layer="3885" to-port="3"/>
		<edge from-layer="3816" from-port="0" to-layer="3885" to-port="4"/>
		<edge from-layer="3887" from-port="0" to-layer="3888" to-port="0"/>
		<edge from-layer="3888" from-port="1" to-layer="3889" to-port="0"/>
		<edge from-layer="3886" from-port="0" to-layer="3889" to-port="1"/>
		<edge from-layer="3885" from-port="5" to-layer="3890" to-port="0"/>
		<edge from-layer="3889" from-port="2" to-layer="3890" to-port="1"/>
		<edge from-layer="3891" from-port="0" to-layer="3892" to-port="0"/>
		<edge from-layer="3890" from-port="2" to-layer="3893" to-port="0"/>
		<edge from-layer="3892" from-port="1" to-layer="3893" to-port="1"/>
		<edge from-layer="3893" from-port="2" to-layer="3894" to-port="0"/>
		<edge from-layer="3809" from-port="0" to-layer="3894" to-port="1"/>
		<edge from-layer="3810" from-port="0" to-layer="3894" to-port="2"/>
		<edge from-layer="3811" from-port="0" to-layer="3894" to-port="3"/>
		<edge from-layer="3812" from-port="0" to-layer="3894" to-port="4"/>
		<edge from-layer="3894" from-port="5" to-layer="3895" to-port="0"/>
		<edge from-layer="3808" from-port="0" to-layer="3895" to-port="1"/>
		<edge from-layer="3895" from-port="2" to-layer="3896" to-port="0"/>
		<edge from-layer="3804" from-port="0" to-layer="3896" to-port="1"/>
		<edge from-layer="3805" from-port="0" to-layer="3896" to-port="2"/>
		<edge from-layer="3806" from-port="0" to-layer="3896" to-port="3"/>
		<edge from-layer="3807" from-port="0" to-layer="3896" to-port="4"/>
		<edge from-layer="3898" from-port="0" to-layer="3899" to-port="0"/>
		<edge from-layer="3899" from-port="1" to-layer="3900" to-port="0"/>
		<edge from-layer="3897" from-port="0" to-layer="3900" to-port="1"/>
		<edge from-layer="3896" from-port="5" to-layer="3901" to-port="0"/>
		<edge from-layer="3900" from-port="2" to-layer="3901" to-port="1"/>
		<edge from-layer="3901" from-port="2" to-layer="3902" to-port="0"/>
		<edge from-layer="3803" from-port="0" to-layer="3902" to-port="1"/>
		<edge from-layer="3902" from-port="2" to-layer="3904" to-port="0"/>
		<edge from-layer="3903" from-port="0" to-layer="3904" to-port="1"/>
		<edge from-layer="2767" from-port="2" to-layer="2768" to-port="0"/>
		<edge from-layer="2785" from-port="2" to-layer="2786" to-port="0"/>
		<edge from-layer="2749" from-port="2" to-layer="2750" to-port="0"/>
		<edge from-layer="3595" from-port="2" to-layer="3596" to-port="0"/>
		<edge from-layer="3698" from-port="2" to-layer="3699" to-port="0"/>
		<edge from-layer="3801" from-port="2" to-layer="3802" to-port="0"/>
		<edge from-layer="3904" from-port="2" to-layer="3905" to-port="0"/>
	</edges>
	<rt_info>
		<MO_version value="custom_HEAD_0250f62d11102ae97a35803756f079090876ddc1"/>
		<Runtime_version value="2023.0.0-10367-0250f62d111-HEAD"/>
		<conversion_parameters>
			<caffe_parser_path value="DIR"/>
			<framework value="caffe"/>
			<input value="data"/>
			<input_model value="DIR/weights.caffemodel"/>
			<input_proto value="DIR/deploy.prototxt"/>
			<input_shape value="[1,3,400,680]"/>
			<layout value="data(nchw)"/>
			<model_name value="person-detection-action-recognition-0005"/>
			<output value="mbox_loc1/out/conv/flat,mbox_main_conf/out/conv/flat/softmax/flat,mbox/priorbox,out/anchor1,out/anchor2,out/anchor3,out/anchor4"/>
			<output_dir value="DIR"/>
		</conversion_parameters>
		<legacy_frontend value="True"/>
		<quantization_parameters>
			<cli_params>
				<ac_config value="None"/>
				<data_source value="None"/>
				<direct_dump value="True"/>
				<engine value="None"/>
				<evaluate value="False"/>
				<keep_uncompressed_weights value="False"/>
				<log_level value="INFO"/>
				<max_drop value="None"/>
				<model value="None"/>
				<name value="None"/>
				<output_dir value="PATH"/>
				<pbar value="False"/>
				<preset value="None"/>
				<quantize value="None"/>
				<stream_output value="False"/>
				<weights value="None"/>
			</cli_params>
			<config value="{
		'compression': {
			'algorithms': [
				{
					'name': 'DefaultQuantization',
					'params': {
						'num_samples_for_tuning': 2000,
						'preset': 'mixed',
						'stat_subset_size': 300,
						'use_fast_bias': false,
						'use_layerwise_tuning': false
					}
				}
			],
			'dump_intermediate_model': true,
			'target_device': 'ANY'
		},
		'engine': {
			'models': [
				{
					'name': 'person-detection-action-recognition-0005',
					'launchers': [
						{
							'framework': 'openvino',
							'adapter': {
								'type': 'action_detection',
								'priorbox_out': 'mbox/priorbox',
								'loc_out': 'mbox_loc1/out/conv/flat',
								'main_conf_out': 'mbox_main_conf/out/conv/flat/softmax/flat',
								'add_conf_out_prefix': 'out/anchor',
								'add_conf_out_count': 4,
								'num_action_classes': 3,
								'detection_threshold': 0.4,
								'action_confidence_threshold': 0.75,
								'action_scale': 3
							},
							'device': 'cpu'
						}
					],
					'datasets': [
						{
							'name': 'action_detection_dataset_3_classes',
							'data_source': 'PATH',
							'annotation_conversion': {
								'converter': 'action_recognition',
								'annotation_file': 'PATH',
								'use_images': true
							},
							'annotation': 'PATH',
							'dataset_meta': 'PATH',
							'preprocessing': [
								{
									'type': 'resize',
									'dst_width': 680,
									'dst_height': 400
								}
							],
							'postprocessing': [
								{
									'type': 'soft_nms',
									'sigma': 0.6,
									'min_score': 0.4,
									'keep_top_k': 200
								},
								{
									'type': 'clip_boxes',
									'apply_to': 'prediction',
									'boxes_normalized': true
								},
								{
									'type': 'filter',
									'is_empty': true,
									'apply_to': 'prediction',
									'remove_filtered': true
								},
								{
									'type': 'normalize_boxes'
								},
								{
									'type': 'clip_boxes',
									'apply_to': 'annotation',
									'boxes_normalized': true
								}
							],
							'metrics': [
								{
									'type': 'map',
									'name': 'class_agnostic@ap',
									'ignore_difficult': false,
									'include_boundaries': false,
									'allow_multiple_matches_per_ignored': false,
									'distinct_conf': true,
									'annotation_source': 'person_annotation',
									'prediction_source': 'class_agnostic_prediction',
									'label_map': 'person_label_map',
									'reference': 0.8
								},
								{
									'type': 'detection_accuracy',
									'use_normalization': true,
									'annotation_source': 'action_annotation',
									'prediction_source': 'action_prediction',
									'label_map': 'action_label_map',
									'ignore_label': 3,
									'reference': 0.838
								}
							],
							'_command_line_mapping': {
								'annotation_file': 'PATH'
							}
						}
					]
				}
			],
			'stat_requests_number': null,
			'eval_requests_number': null,
			'type': 'accuracy_checker'
		}
	}"/>
			<version value="invalid version"/>
		</quantization_parameters>
	</rt_info>
	<quantization_parameters>
		<config>{
		'compression': {
			'algorithms': [
				{
					'name': 'DefaultQuantization',
					'params': {
						'num_samples_for_tuning': 2000,
						'preset': 'mixed',
						'stat_subset_size': 300,
						'use_fast_bias': false,
						'use_layerwise_tuning': false
					}
				}
			],
			'dump_intermediate_model': true,
			'target_device': 'ANY'
		},
		'engine': {
			'models': [
				{
					'name': 'person-detection-action-recognition-0005',
					'launchers': [
						{
							'framework': 'openvino',
							'adapter': {
								'type': 'action_detection',
								'priorbox_out': 'mbox/priorbox',
								'loc_out': 'mbox_loc1/out/conv/flat',
								'main_conf_out': 'mbox_main_conf/out/conv/flat/softmax/flat',
								'add_conf_out_prefix': 'out/anchor',
								'add_conf_out_count': 4,
								'num_action_classes': 3,
								'detection_threshold': 0.4,
								'action_confidence_threshold': 0.75,
								'action_scale': 3
							},
							'device': 'cpu'
						}
					],
					'datasets': [
						{
							'name': 'action_detection_dataset_3_classes',
							'data_source': 'PATH',
							'annotation_conversion': {
								'converter': 'action_recognition',
								'annotation_file': 'PATH',
								'use_images': true
							},
							'annotation': 'PATH',
							'dataset_meta': 'PATH',
							'preprocessing': [
								{
									'type': 'resize',
									'dst_width': 680,
									'dst_height': 400
								}
							],
							'postprocessing': [
								{
									'type': 'soft_nms',
									'sigma': 0.6,
									'min_score': 0.4,
									'keep_top_k': 200
								},
								{
									'type': 'clip_boxes',
									'apply_to': 'prediction',
									'boxes_normalized': true
								},
								{
									'type': 'filter',
									'is_empty': true,
									'apply_to': 'prediction',
									'remove_filtered': true
								},
								{
									'type': 'normalize_boxes'
								},
								{
									'type': 'clip_boxes',
									'apply_to': 'annotation',
									'boxes_normalized': true
								}
							],
							'metrics': [
								{
									'type': 'map',
									'name': 'class_agnostic@ap',
									'ignore_difficult': false,
									'include_boundaries': false,
									'allow_multiple_matches_per_ignored': false,
									'distinct_conf': true,
									'annotation_source': 'person_annotation',
									'prediction_source': 'class_agnostic_prediction',
									'label_map': 'person_label_map',
									'reference': 0.8
								},
								{
									'type': 'detection_accuracy',
									'use_normalization': true,
									'annotation_source': 'action_annotation',
									'prediction_source': 'action_prediction',
									'label_map': 'action_label_map',
									'ignore_label': 3,
									'reference': 0.838
								}
							],
							'_command_line_mapping': {
								'annotation_file': 'PATH'
							}
						}
					]
				}
			],
			'stat_requests_number': null,
			'eval_requests_number': null,
			'type': 'accuracy_checker'
		}
	}</config>
		<version value="invalid version"/>
		<cli_params value="{'quantize': None, 'preset': None, 'model': None, 'weights': None, 'name': None, 'engine': None, 'ac_config': None, 'max_drop': None, 'evaluate': False, 'output_dir': 'PATH', 'direct_dump': True, 'log_level': 'INFO', 'pbar': False, 'stream_output': False, 'keep_uncompressed_weights': False, 'data_source': None}"/>
	</quantization_parameters>
</net>
